tutorials/AgileRL/models/DQN/lesson2_trained_agent.pt (torch, 750412 bytes, 44 tensors)

sample_input f4 [1, 2, 6, 7]
0	0x00000000	0.0
1	0x00000000	0.0
2	0x00000000	0.0
3	0x00000000	0.0
4	0x00000000	0.0
5	0x00000000	0.0
6	0x00000000	0.0
7	0x00000000	0.0
8	0x00000000	0.0
9	0x00000000	0.0
10	0x00000000	0.0
11	0x00000000	0.0
12	0x00000000	0.0
13	0x00000000	0.0
14	0x00000000	0.0
15	0x00000000	0.0
16	0x00000000	0.0
17	0x00000000	0.0
18	0x00000000	0.0
19	0x00000000	0.0
20	0x00000000	0.0
21	0x00000000	0.0
22	0x00000000	0.0
23	0x00000000	0.0
24	0x00000000	0.0
25	0x00000000	0.0
26	0x00000000	0.0
27	0x00000000	0.0
28	0x00000000	0.0
29	0x00000000	0.0
30	0x00000000	0.0
31	0x00000000	0.0
32	0x00000000	0.0
33	0x00000000	0.0
34	0x00000000	0.0
35	0x00000000	0.0
36	0x00000000	0.0
37	0x00000000	0.0
38	0x00000000	0.0
39	0x00000000	0.0
40	0x00000000	0.0
41	0x00000000	0.0
42	0x00000000	0.0
43	0x00000000	0.0
44	0x00000000	0.0
45	0x00000000	0.0
46	0x00000000	0.0
47	0x00000000	0.0
48	0x00000000	0.0
49	0x00000000	0.0
50	0x00000000	0.0
51	0x00000000	0.0
52	0x00000000	0.0
53	0x00000000	0.0
54	0x00000000	0.0
55	0x00000000	0.0
56	0x00000000	0.0
57	0x00000000	0.0
58	0x00000000	0.0
59	0x00000000	0.0
60	0x00000000	0.0
61	0x00000000	0.0
62	0x00000000	0.0
63	0x00000000	0.0
64	0x00000000	0.0
65	0x00000000	0.0
66	0x00000000	0.0
67	0x00000000	0.0
68	0x00000000	0.0
69	0x00000000	0.0
70	0x00000000	0.0
71	0x00000000	0.0
72	0x00000000	0.0
73	0x00000000	0.0
74	0x00000000	0.0
75	0x00000000	0.0
76	0x00000000	0.0
77	0x00000000	0.0
78	0x00000000	0.0
79	0x00000000	0.0
80	0x00000000	0.0
81	0x00000000	0.0
82	0x00000000	0.0
83	0x00000000	0.0

encoder.model.encoder_conv_layer_1.weight f4 [128, 2, 4, 4]
0	0x3df9dfd2	0.122008935
1	0xbc7eb549	-0.015546151
2	0xbe166f69	-0.14690937
3	0x3dc666de	0.09687589
4	0xbe25fc1e	-0.16209456
5	0xbe1f9732	-0.1558502
6	0xbdc4b273	-0.09604349
7	0xbd2b6407	-0.04184344
8	0x3db85ba8	0.09001857
9	0x3e07982d	0.13241644
10	0x3daff87b	0.08592316
11	0xbdb1d7a8	-0.08683711
12	0x3d43f812	0.047844
13	0x3e762878	0.24038875
14	0x3d191d39	0.037381385
15	0x3bf1d65b	0.0073802895
16	0x3c9aaf43	0.0188824
17	0xbe3697da	-0.17831364
18	0xbe2c51c5	-0.16828068
19	0x3e0c0b54	0.13676196
20	0xbd75ce01	-0.060010914
21	0xbce17974	-0.027523734
22	0xbe91a5f3	-0.28446922
23	0x3e347816	0.17623934
24	0x3cd4b5c2	0.025965575
25	0xbe297413	-0.16548185
26	0xbe6a0306	-0.22852716
27	0x3edfe6e3	0.4373084
28	0xbd673363	-0.05644549
29	0xbe0ce212	-0.13758114
30	0xbeccc575	-0.39994398
31	0x3c842086	0.01612879
32	0xbbf119ca	-0.0073578106
33	0x3e866258	0.26246905
34	0x3e5c6a23	0.21524863
35	0x3e2af93a	0.16696635
36	0x3d15ec10	0.03660208
37	0xbd740151	-0.059571568
38	0x3e465f2a	0.1937224
39	0xbdc9fc8c	-0.098626226
40	0x3d0b0f14	0.033949926
41	0xbdca1636	-0.09867518
42	0xbd8f41fb	-0.06995007
43	0xbcc1a71b	-0.023639252
44	0x3d64aba0	0.055827737
45	0xbcd44e91	-0.02591637
46	0xbdba8cb7	-0.091088705
47	0xbdc98af6	-0.09840958
48	0xbbe782c0	-0.007065147
49	0x3dec2fbd	0.11532543
50	0xbe7a2d39	-0.24431314
51	0xbe64dc3c	-0.22349638
52	0xbdf53029	-0.119720764
53	0x3dae7d00	0.085199356
54	0x3d2410a3	0.04005493
55	0x3e844b1f	0.25838563
56	0xbe2b037b	-0.16700546
57	0x3df4d147	0.11953979
58	0xbd877e4a	-0.066158846
59	0x3d9c5150	0.07632697
60	0x3b67184f	0.0035262292
61	0xbdcccd5e	-0.10000108
62	0x3e659667	0.22420655
63	0xbd6b5f1f	-0.05746376
64	0x3ea117e8	0.31463552
65	0xbd366e77	-0.04453894
66	0xbd75b8a7	-0.05999055
67	0x3e15121f	0.14557694
68	0x3da8a8bf	0.08235311
69	0x3ea09b78	0.31368613
70	0xbe05e9c4	-0.13077456
71	0x3e10243f	0.14076327
72	0xbdf5b9d8	-0.119983375
73	0x3d8a21f1	0.06744755
74	0x3e065ed8	0.13122118
75	0xbd5fe2c5	-0.054659624
76	0xbe56e6a9	-0.20986427
77	0xbdb1b577	-0.0867719
78	0xbdd82b7e	-0.105551705
79	0x3e257530	0.16157985
80	0xbd8c139a	-0.06839676
81	0xbaca147c	-0.0015417482
82	0xbe28ad03	-0.16472249
83	0xbd4ffc37	-0.05077764
84	0xbe50b554	-0.20381671
85	0xbe028e40	-0.12749577
86	0xbe53caf3	-0.20682888
87	0xbe4a0060	-0.19726706
88	0xbd306b61	-0.043071155
89	0x3d9595ae	0.0730394
90	0xbe36b4e9	-0.17842449
91	0x3dccb603	0.099956535
92	0x3e941771	0.28924134
93	0x3dee6d19	0.116419025
94	0x3e531ab4	0.20615655
95	0xbe716651	-0.23574187
96	0xbe8b2e1e	-0.27183622
97	0xbe495e07	-0.19664775
98	0x3e2c6287	0.1683446
99	0x3b4c6e0b	0.003119352
100	0xbe184f29	-0.14873947
101	0xbe83e38a	-0.25759536
102	0xbda61d0f	-0.08111011
103	0x3e4f38ea	0.20236555
104	0xbb647c63	-0.003486418
105	0xbdede857	-0.11616581
106	0xbe96f6a1	-0.29485038
107	0x3e448a87	0.19193469
108	0xbb8c0c7d	-0.0042739497
109	0xbdfcb9ca	-0.12340124
110	0xbdbb208a	-0.09137066
111	0x3e3f9fd8	0.1871332
112	0xbdfdf42a	-0.12400086
113	0xbe5a7bee	-0.21336338
114	0xbc670eca	-0.014102647
115	0xbd61d20b	-0.055131953
116	0x3c4b9167	0.012424803
117	0xbe771924	-0.24130684
118	0xbe59f6a8	-0.21285498
119	0xbdfe74d9	-0.12424631
120	0xbe2239d0	-0.15842366
121	0x3e18d6ba	0.14925662
122	0x3dd7d9e8	0.10539609
123	0xbd9f6491	-0.077828534
124	0x3e38cd61	0.18047096
125	0xbd51383f	-0.05107903
126	0xbcf6a78a	-0.030109186
127	0xbe26b14a	-0.16278568
128	0x3dbcbd9e	0.09215854
129	0x3c027a7d	0.007963774
130	0x3e3b16d0	0.18270421
131	0xbd854863	-0.06507947
132	0x3dc9ec13	0.09859481
133	0xbe4b7550	-0.1986897
134	0x3ca85b66	0.020551395
135	0xbc96c2b8	-0.018403396
136	0xbd773080	-0.060348988
137	0x3c59d7f3	0.013296115
138	0xbe8eb2b5	-0.27870718
139	0x3e894c06	0.26815814
140	0xbe3703be	-0.17872521
141	0x3dfb3851	0.12266601
142	0x3e11685e	0.14199969
143	0xbddb32c7	-0.107030444
144	0x3e86cd98	0.2632873
145	0xbd43ff23	-0.04785074
146	0xbe0a52a5	-0.13508089
147	0xbdd9984b	-0.10624751
148	0x3e6dc842	0.23220924
149	0x3e760f72	0.2402933
150	0xbcf1aee6	-0.029502343
151	0x3e44ea6a	0.19230047
152	0xbe71e54f	-0.2362263
153	0x3e1c6be5	0.15275533
154	0x3ebc6a2b	0.3679975
155	0x3e26a699	0.1627449
156	0xbe0cb3ea	-0.13740507
157	0x3dbd3ec3	0.092404865
158	0x3ddecc00	0.10878754
159	0x3e20f9d8	0.15720308
160	0xbe23c9cd	-0.1599495
161	0x3dc30c51	0.095238335
162	0x3e74740e	0.23872396
163	0x3d30285a	0.043007232
164	0x3dafd8d1	0.08586276
165	0x3d712adb	0.05887876
166	0x3d928f59	0.07156248
167	0xbccb06d3	-0.024783527
168	0xbd33daac	-0.043909714
169	0xbbcd242c	-0.0062604155
170	0x3e077890	0.13229585
171	0x3e227a59	0.15866984
172	0x3d73b227	0.05949607
173	0x3cb91156	0.022591274
174	0xbdf9fafb	-0.12206074
175	0x3cb36255	0.021897474
176	0xbc989ca6	-0.018629383
177	0xbd5db666	-0.054129027
178	0xbe6f8ef5	-0.23394378
179	0x3eab037f	0.33401105
180	0x3e2cf3e1	0.16889907
181	0x3e282ebf	0.16424082
182	0xbe25d67d	-0.16195102
183	0xbdadbfbc	-0.08483836
184	0x3d98a91b	0.07454129
185	0x3e06bba0	0.13157511
186	0xbdf5703a	-0.11984296
187	0xbe26f0f0	-0.16302848
188	0xbe0366d4	-0.12832195
189	0x3dbccb0a	0.09218414
190	0xbd244653	-0.04010613
191	0x3e73b6af	0.23800157
192	0x3e5c6621	0.21523334
193	0xbdfa7fe4	-0.122314245
194	0xbd3e336c	-0.04643576
195	0x3e56a61a	0.209618
196	0xbe5f5e1a	-0.2181324
197	0xbb153b97	-0.0022771114
198	0xbdfe3b9d	-0.12413714
199	0xbcc75710	-0.024333507
200	0x3e4878fb	0.195774
201	0x3d013257	0.03154215
202	0xbe5efae0	-0.21775389
203	0x3e66f6e8	0.22555125
204	0xbc4b6e51	-0.012416438
205	0xbe861181	-0.2618523
206	0xbd9b7346	-0.07590346
207	0x3bd2bdb9	0.006431308
208	0xbe69ce69	-0.22832645
209	0xbd9f7f9c	-0.077880114
210	0x3d9b0346	0.07568984
211	0x3df4af1d	0.11947463
212	0xbd7fcbae	-0.062450103
213	0x3dbc508f	0.09195053
214	0xbd85dbac	-0.0653604
215	0xbd8afc5b	-0.06786414
216	0x3d233a52	0.03985054
217	0x3e32afee	0.17449924
218	0x3d8d3ea4	0.068967134
219	0xbdc64d23	-0.096826814
220	0x3e050ebd	0.12993903
221	0x3e09b428	0.1344763
222	0x3dc892d1	0.09793628
223	0x3e763e92	0.24047306
224	0xbd17022d	-0.03686731
225	0x3caabbbf	0.020841477
226	0x3dacaac8	0.084310114
227	0x3e00acff	0.12565993
228	0x3cf6191c	0.03004127
229	0x3d169e93	0.036772322
230	0x3d93ea06	0.07222371
231	0xbdf15a5f	-0.11784815
232	0x3e00429d	0.12525411
233	0x3ddfc7a3	0.109267496
234	0x3ea36d28	0.31919217
235	0xbe13bb28	-0.14426863
236	0xbe723053	-0.23651247
237	0x3cae61f0	0.021286935
238	0xbc1fb9e5	-0.009748911
239	0x3e2cc10b	0.16870515
240	0x3d0f6a44	0.035013452
241	0xbddff19d	-0.10934756
242	0x3e193c38	0.14964378
243	0x3e281226	0.16413173
244	0xbe2cb82f	-0.16867135
245	0x3dca56b5	0.09879819
246	0x3e8ae519	0.27127913
247	0xbdfb6181	-0.12274457
248	0xbe81dfae	-0.25365967
249	0x3cdb1343	0.026742583
250	0x3de49042	0.111603275
251	0x3e2d0362	0.16895822
252	0xbe8dda5d	-0.2770566
253	0x3ea03c11	0.31295827
254	0xbd1975d9	-0.037465904
255	0xbdc3177c	-0.09525964

encoder.model.encoder_conv_layer_1.bias f4 [128]
0	0xb99a9ea5	-0.00029491368
1	0x39aca229	0.00032927215
2	0x37346574	1.07524575e-05
3	0x3b42aedf	0.0029706282
4	0xba0ee4e3	-0.0005450977
5	0xbb8f6e55	-0.0043771663
6	0x38dd697d	0.0001055775
7	0xbae3569e	-0.001734454
8	0xba196efb	-0.0005853024
9	0xb8d8b3f4	-0.000103332015
10	0x3af8ce6d	0.0018982418
11	0xbb346352	-0.002752502
12	0xb8cbf640	-9.725662e-05
13	0xbb65b842	-0.0035052453
14	0x3acb85b5	0.0015527519
15	0xbb248fef	-0.0025110205
16	0xbadf01ef	-0.0017014126
17	0x3ac35ed3	0.0014905579
18	0x3a15542e	0.00056964427
19	0x3a79b5ea	0.00095257035
20	0xb9cafac6	-0.00038715283
21	0xbae5cc9d	-0.0017532293
22	0x3b49cd18	0.0030792411
23	0xba78f92c	-0.0009497579
24	0x3ae01df9	0.0017098776
25	0xbae8bc31	-0.0017756281
26	0x3a9b89ae	0.0011866593
27	0x3835c450	4.3336593e-05
28	0x3a7292eb	0.000925346
29	0xba073ef0	-0.000515922
30	0x3abc20f2	0.001435308
31	0x397f880e	0.0002436938
32	0xbaa98549	-0.0012933399
33	0x39dd54a4	0.00042215467
34	0xbb36c5b3	-0.0027888834
35	0x399c8d55	0.0002985994
36	0xbad670e3	-0.0016360547
37	0xbb7e878e	-0.003883812
38	0x3b5b1d95	0.003343438
39	0xbb129ba2	-0.0022370596
40	0x3ad3142a	0.0016104032
41	0x3aceae55	0.0015768508
42	0x39ab37ff	0.00032657382
43	0x3b22292e	0.0024743783
44	0x3a7007e8	0.00091564516
45	0xbabf79aa	-0.0014608402
46	0x3a8179b3	0.0009878188
47	0x3a3c4568	0.0007181973
48	0x3b407499	0.0029366373
49	0x3ad164c3	0.0015975464
50	0x3a0a37d1	0.00052725995
51	0x3acf5c57	0.0015820366
52	0x39e963de	0.0004451563
53	0x3728dcbd	1.0064975e-05
54	0xb7e3f32a	-2.717374e-05
55	0x3a992e77	0.0011686821
56	0xba05a058	-0.00050974404
57	0xba14ab44	-0.00056712725
58	0xbb86c10b	-0.004112368
59	0xbb0324e1	-0.0020010995
60	0x3aa39a53	0.0012481905
61	0x3b415bd5	0.00295042
62	0xbafd5562	-0.0019327814
63	0x3ab25342	0.0013605135
64	0xba6e2776	-0.00090848596
65	0xb989ad44	-0.0002625977
66	0xba78e4f6	-0.0009494567
67	0xbb999eff	-0.0046881433
68	0xba592471	-0.0008283323
69	0xbb63e808	-0.0034775753
70	0x3b0b4a4e	0.0021254006
71	0x3b2fdd02	0.0026834612
72	0x394e856b	0.00019695393
73	0x3b22147e	0.0024731453
74	0x3ad11e3b	0.0015954444
75	0xbb9dc813	-0.0048151105
76	0xba966661	-0.0011474603
77	0x3a9a2cc5	0.001176261
78	0x39e1f19d	0.0004309536
79	0xbae4102b	-0.0017399838
80	0x3a851c68	0.001015556
81	0x3a061ee1	0.00051162957
82	0xb99e054d	-0.00030140058
83	0xbaaa36a3	-0.0012986254
84	0xbb9c621b	-0.0047724373
85	0x39eacbe3	0.00044783865
86	0xbb290bf4	-0.0025794478
87	0x3a212ced	0.0006148357
88	0xba1febb5	-0.0006100492
89	0xbb811eeb	-0.0039404533
90	0xb9ba6cf2	-0.00035557855
91	0xbae8a881	-0.0017750413
92	0xb9863005	-0.0002559425
93	0xbb52507e	-0.0032091434
94	0xbb767198	-0.0037604328
95	0xbaae6386	-0.0013304807
96	0x39765af1	0.00023494266
97	0x3acbccda	0.0015548721
98	0xbabfe801	-0.0014641286
99	0xb886d5d2	-6.429445e-05
100	0xbb67498d	-0.0035291642
101	0xbb0bd296	-0.0021335236
102	0xbad8b3fb	-0.001653313
103	0xbabf0793	-0.0014574401
104	0x3ad61dc6	0.0016335777
105	0xbb399543	-0.0028317727
106	0x3a674782	0.0008822606
107	0x39fb616b	0.00047947033
108	0x3aa525e6	0.0012599796
109	0x3896dff9	7.1942755e-05
110	0x38a8eb0c	8.054645e-05
111	0xba9e1904	-0.0012061899
112	0x3b3854c9	0.0028126708
113	0xba8ad7ed	-0.0010592915
114	0x39fe1379	0.00048461164
115	0x3a8c5c5f	0.0010708681
116	0x3a4aef90	0.0007741386
117	0xb90a8e48	-0.0001321371
118	0x3b07fd99	0.0020750521
119	0xb93ce917	-0.0001801591
120	0xbab16f66	-0.0013537228
121	0x39c7c0bb	0.00038099833
122	0xbb536c3d	-0.003226056
123	0xbb2cb6b6	-0.0026354021
124	0x3a950356	0.0011368792
125	0x3ab0bbdf	0.0013483724
126	0xba42d026	-0.0007431529
127	0x397f21e5	0.00024331322

encoder.model.encoder_linear_output.weight f4 [32, 1536]
0	0xbbddb483	-0.0067659034
1	0xbc57f215	-0.013180275
2	0xbcdbc5c2	-0.026827697
3	0x3c7027ff	0.014657973
4	0xbccad97a	-0.024761904
5	0xbbcff678	-0.00634652
6	0xbc941f8d	-0.01808145
7	0xbcc12b56	-0.023580234
8	0xbd0c500d	-0.03425603
9	0xbc862dcc	-0.01637926
10	0xbcabc3e4	-0.020967431
11	0xbd0c5aa6	-0.034266137
12	0x3cecfa10	0.028927833
13	0x3c8117b6	0.015758377
14	0xbd09458e	-0.0335136
15	0xbcc0d2b0	-0.023537964
16	0x3d2c3a8c	0.042048022
17	0x3b492b46	0.003069596
18	0x3cd2541e	0.025674876
19	0x3b9beb56	0.004758279
20	0x3ab1fc6e	0.0013579258
21	0xbc9a7abb	-0.01885735
22	0xbd3fb19b	-0.046800237
23	0xbc5e5178	-0.013569228
24	0xbd15e346	-0.036593698
25	0xbc326c8a	-0.010890136
26	0x3bab7173	0.00523203
27	0x3c01b482	0.007916572
28	0x3bd7e3c9	0.0065884334
29	0x3c956056	0.018234413
30	0xbc8b6d26	-0.01701982
31	0xbd1a581e	-0.03768169
32	0xbb79bac1	-0.0038105699
33	0x3a10cb68	0.0005523474
34	0x38974a1d	7.214046e-05
35	0x3d3049f9	0.043039296
36	0xbbad636f	-0.0052913944
37	0xbccd2b68	-0.025045112
38	0xbb2bca53	-0.0026213124
39	0x3c96101e	0.018318232
40	0x3b34e7ab	0.0027603905
41	0xbc27d029	-0.0102425
42	0x3cc33fe6	0.02383418
43	0x3c11ab17	0.008890889
44	0xbc8d8c28	-0.017278746
45	0x3d0eb743	0.03484274
46	0x3ba9d8c8	0.005183313
47	0xbbee03d3	-0.0072636395
48	0xbb3c2b72	-0.002871242
49	0x3d18e3bf	0.03732657
50	0xbc4eea5e	-0.01262912
51	0x3c5ac29f	0.013352065
52	0x3bb27900	0.005446553
53	0xbd11427a	-0.035463788
54	0xbc9e5802	-0.019329075
55	0x3ba6e53c	0.005093245
56	0xbd114cd8	-0.035473675
57	0x3bce1ef6	0.006290312
58	0x3c639ae7	0.013891912
59	0xbcccc9f4	-0.024998643
60	0xbc9eba79	-0.019376026
61	0xbd132447	-0.03592327
62	0x3b0545c6	0.0020335778
63	0x39e506bc	0.000436833
64	0xbbb64f36	-0.005563642
65	0x3c65538b	0.013996969
66	0xbc27cc2a	-0.010241548
67	0xbba1e5c6	-0.004940721
68	0x3cbd3beb	0.02309986
69	0xbca377ca	-0.01995458
70	0xbc5a44a4	-0.013322029
71	0x3aa01f42	0.0012216347
72	0xbc256bdb	-0.0100965155
73	0xbcfd79d7	-0.030941887
74	0xbd031678	-0.03200385
75	0x3c860ab7	0.016362531
76	0x3c83673b	0.016040435
77	0xbc3af22a	-0.0114102755
78	0xbc0b3f80	-0.008499026
79	0xbc8dce99	-0.017310428
80	0xbc1860ef	-0.0093004545
81	0x3c586fad	0.013210219
82	0xbb4c581b	-0.0031180445
83	0x3cc3cb07	0.023900522
84	0x3bde40d4	0.0067826305
85	0xbb3a0303	-0.0028383143
86	0xbc29d1f8	-0.010365002
87	0xbbdb33b1	-0.0066895117
88	0x3ad2d027	0.0016083763
89	0xbcd235c9	-0.025660412
90	0xbd00d678	-0.031454533
91	0x3bce4898	0.006295275
92	0xbca7c301	-0.020478727
93	0xbc96012b	-0.018311104
94	0x3cd3314a	0.025780339
95	0xbbe1f149	-0.0068952185
96	0xbb880891	-0.004151412
97	0x3cc3839a	0.023866463
98	0xbba3f6b2	-0.0050037736
99	0xbb6b6e83	-0.0035924024
100	0x3bd4a062	0.0064888457
101	0xbc09c2b2	-0.008408235
102	0xbc39afab	-0.011333386
103	0x39f41a50	0.0004655891
104	0x3cd0a13c	0.025467508
105	0x3ced0a2f	0.02893552
106	0xbc054c48	-0.008135863
107	0x3a4fe363	0.00079303066
108	0x3c983faa	0.018585045
109	0xbc5cfdf3	-0.013488281
110	0x3c974768	0.018466666
111	0x3c11902d	0.008884472
112	0xbbd7d6c5	-0.006586882
113	0xbcf78e64	-0.030219264
114	0x3986ee9d	0.00025736252
115	0x3bb9c0a1	0.005668715
116	0xba5ff89b	-0.000854382
117	0x3bc1792b	0.005904337
118	0xbc53fcd7	-0.0129387
119	0xbca402f3	-0.020020938
120	0xbc4ebc6a	-0.012618164
121	0x3d05eed4	0.032698467
122	0x3c64e440	0.013970435
123	0x3c583d9e	0.013198284
124	0xbc43a475	-0.011941065
125	0x3a1e3e92	0.00060365454
126	0xbb8a4874	-0.004220063
127	0x3d51190a	0.05104927
128	0x3c753695	0.014966627
129	0xbcb2c422	-0.021822039
130	0x3ce4a058	0.02790849
131	0x3d585129	0.052811775
132	0xbbc29540	-0.005938202
133	0x3c2ce3b3	0.010552335
134	0xbce871cf	-0.02837458
135	0x3bf4e453	0.0074735074
136	0x3d44b892	0.048027582
137	0xbc5e9cd1	-0.013587193
138	0xbb2562c0	-0.0025235862
139	0xbd36ed41	-0.044659857
140	0x3cdc719f	0.026909648
141	0x3ce0d462	0.027445022
142	0xbcfeba13	-0.031094586
143	0x3b8bbc46	0.0042643873
144	0xbd828801	-0.06373597
145	0xbabf0174	-0.0014572577
146	0x3b123780	0.0022310913
147	0x3be8501e	0.007089629
148	0x3b7836ee	0.0037874538
149	0x3c85523b	0.016274562
150	0xbc25e74a	-0.010125944
151	0xbb88e6a5	-0.0041778856
152	0xbd0f8963	-0.03504313
153	0xbcf9f0d3	-0.030510342
154	0x3b304052	0.0026893807
155	0x39520509	0.00020029036
156	0x3c4c3362	0.0124634225
157	0xbc28d481	-0.010304571
158	0x3c46cab2	0.012133287
159	0xbb71320c	-0.0036803512
160	0xbca1ff4e	-0.01977506
161	0x3c0f0c1d	0.008730915
162	0x3c5f599a	0.0136322025
163	0x3c9bb1f0	0.019005746
164	0x3cab20a5	0.02088959
165	0xbc8ccdf3	-0.017188048
166	0x3ccdc38b	0.025117656
167	0x3cabc92b	0.020969948
168	0x3d310962	0.04322184
169	0xbbb88af1	-0.0056317975
170	0xbcade2ba	-0.021226276
171	0x3bb3c46e	0.0054860627
172	0x3c083228	0.008312739
173	0x3c8f5c9e	0.017500218
174	0x3ca0f9bb	0.01965033
175	0xbd1827e0	-0.037147403
176	0xbad7b2a4	-0.0016456437
177	0x3c352640	0.011056483
178	0x3d332e35	0.04374524
179	0x3cf36f66	0.029716205
180	0xbb3a0704	-0.002838553
181	0x3bcf9a00	0.006335497
182	0x3ccf5d95	0.025313178
183	0x3c06e024	0.00823215
184	0x3d1841f7	0.037172284
185	0x3945a381	0.00018848294
186	0x3b731b37	0.0037095079
187	0xbc237cd8	-0.009978496
188	0xbcf8b545	-0.030359874
189	0x3c94cb38	0.018163309
190	0x3cb1c7bc	0.021701686
191	0xbc8040c9	-0.015655892
192	0x3c7df27a	0.015499705
193	0xbc986f85	-0.018607864
194	0xbd1e9807	-0.038719203
195	0x3c2cd206	0.01054812
196	0xbcc97af3	-0.02459476
197	0xbc6d08c2	-0.01446742
198	0x3b97ca55	0.004632274
199	0xbc916de0	-0.017752588
200	0x3ca22600	0.01979351
201	0xbbab8c7f	-0.0052352543
202	0xbc6cd9de	-0.01445624
203	0xbc977957	-0.018490477
204	0x3c957ab0	0.018246979
205	0x3c77042c	0.015076678
206	0x3cc05594	0.023478307
207	0x3cd13d59	0.025541948
208	0x3c5e12ce	0.013554288
209	0xbc8f933f	-0.017526267
210	0xbc5662e3	-0.0130851
211	0xbc6e5d81	-0.01454866
212	0xbd1d4b3b	-0.038401823
213	0xbc2fda4f	-0.010733201
214	0xbcd79956	-0.026318233
215	0xbbd73d6e	-0.0065686023
216	0x3c6e62db	0.014549936
217	0x3c7630ad	0.015026254
218	0xbb8e8e22	-0.0043504396
219	0x3b5159ff	0.003194451
220	0x3ce7b242	0.028283242
221	0xbae3ae83	-0.0017370734
222	0xbcc52ccb	-0.02406921
223	0x3c73ad56	0.0148728695
224	0xbd42848c	-0.047489688
225	0x3cdf7380	0.027276754
226	0x3c1ceab8	0.009577446
227	0xbc34576e	-0.011007173
228	0x3c6a0d01	0.014285327
229	0x3ce82417	0.028337521
230	0x3c68c278	0.014206521
231	0x3cb90d5b	0.022589376
232	0x3c9343bc	0.017976634
233	0xbc8e2b7d	-0.017354721
234	0xba62c04e	-0.00086498715
235	0xbc283a15	-0.010267754
236	0xbd082d35	-0.033246238
237	0xbc71ba6d	-0.01475392
238	0xbd0e9224	-0.03480734
239	0xbcbfe808	-0.02342607
240	0x3c4b9e2e	0.01242785
241	0x3b1c8144	0.002388076
242	0xbd5632bf	-0.05229449
243	0xbc4cf885	-0.012510424
244	0x3bd19c13	0.0063967793
245	0xbc1a3e38	-0.009414248
246	0xbcda93d7	-0.026681824
247	0xbb96c9fd	-0.0046017156
248	0xbc47c6be	-0.01219338
249	0xbcaf9183	-0.02143169
250	0xbc34261e	-0.010995416
251	0x3c950901	0.01819277
252	0xbb92b958	-0.004477661
253	0xba3f6978	-0.0007301788
254	0x3b2493f2	0.0025112596
255	0x3b36c6ba	0.0027889446

encoder.model.encoder_linear_output.bias f4 [32]
0	0x3b7df6cc	0.0038751839
1	0x3a9432fa	0.0011306696
2	0x3c872f2f	0.016501991
3	0x3bbcf289	0.005766217
4	0xbc1fc46a	-0.009751419
5	0xbc93b8d4	-0.018032469
6	0xbc8ed30a	-0.017434616
7	0xbb9af5a8	-0.0047289915
8	0x3c22d817	0.009939215
9	0xbc03be00	-0.008040905
10	0x3c7a14d3	0.015263754
11	0x3b252461	0.0025198685
12	0x3bbe283e	0.005803137
13	0x3c1f8528	0.009736337
14	0x3c483e9a	0.012221957
15	0xb8bda5ad	-9.043082e-05
16	0x3c867c68	0.016416743
17	0xbc267acf	-0.010161116
18	0x3bb4cc25	0.0055175
19	0xbc8e3762	-0.017360393
20	0x3c4fb255	0.012676795
21	0x3c4a7d0b	0.012358914
22	0x3aa42e78	0.0012526056
23	0x3c53f64c	0.01293714
24	0x3bad22a1	0.005283669
25	0xbc0d3620	-0.008618861
26	0x3b619aef	0.0034424623
27	0x3c84fb4d	0.01623311
28	0xbca90aee	-0.020635094
29	0x3c612dc8	0.013743825
30	0x3c1f58d5	0.009725769
31	0xba91bcd6	-0.00111189

head_net.model.value_linear_layer_1.weight f4 [64, 32]
0	0xbd0b42a6	-0.033999108
1	0xbd34fd98	-0.04418716
2	0xbece1311	-0.40248922
3	0xbe3112ca	-0.17292324
4	0x3d132bdb	0.035930496
5	0x3ea2f372	0.3182636
6	0x3e6dda34	0.23227769
7	0x3df7693e	0.1208062
8	0xbd492fe9	-0.049117956
9	0x3d984d22	0.07436587
10	0x3e4ccde5	0.20000418
11	0x3e4c2c11	0.19938685
12	0xbdde03b2	-0.108405486
13	0xbe83234d	-0.2561287
14	0xbe90ee37	-0.28306744
15	0xbe45bc4a	-0.19310108
16	0xbd680bd7	-0.056651916
17	0xbcade71c	-0.021228366
18	0x3dc556bb	0.09635683
19	0x3eb24838	0.34820724
20	0x3cdf198e	0.027233865
21	0xbe2e83e2	-0.17042497
22	0x3db5114a	0.08841188
23	0x3e9c332c	0.3050779
24	0x3c2969c0	0.010340154
25	0xbe16b3b6	-0.14716992
26	0x3e11a9a9	0.14224876
27	0xbe38c79d	-0.18044896
28	0xbe24274f	-0.1603062
29	0x3a9076f4	0.0011021779
30	0xbe59ad63	-0.21257548
31	0x3e975a31	0.29560998
32	0x3dd12bd6	0.10213439
33	0xbd9403a5	-0.07227258
34	0x3e097c96	0.13426432
35	0xbcea1992	-0.028576646
36	0xbe2f0e81	-0.17095377
37	0xbe36ddc6	-0.17858037
38	0xbe06742a	-0.1313025
39	0xbd86c599	-0.065806575
40	0xbca7858a	-0.020449419
41	0xbd092e5a	-0.03349147
42	0xbcde385b	-0.027126482
43	0xbdb1246b	-0.08649524
44	0x3e380600	0.17971039
45	0xbea516ad	-0.32243863
46	0xbe3ebba6	-0.1862627
47	0xbd3fbceb	-0.046811026
48	0xbeaac938	-0.33356643
49	0x3ed9f719	0.42571333
50	0x3e52c864	0.20584255
51	0xbe806ee0	-0.2508459
52	0xbe8dfc78	-0.2773168
53	0xbc648393	-0.013947385
54	0x3e58383a	0.21115199
55	0xbe65ef23	-0.22454505
56	0x3da5ae33	0.080898665
57	0xbe151904	-0.14560324
58	0xbe988888	-0.29791665
59	0xbe215e7e	-0.15758702
60	0xbe2b732a	-0.1674315
61	0xbdb04c78	-0.08608335
62	0xbe3db9ff	-0.18527983
63	0x3daf770a	0.08567627
64	0x3e2e0e54	0.16997653
65	0x3df33fad	0.118773796
66	0xbd33aeb2	-0.043867774
67	0xbe514013	-0.20434599
68	0x3b624360	0.0034525022
69	0x3c044c19	0.008074784
70	0xbdf63811	-0.120224126
71	0x3e20a0cd	0.1568634
72	0x3e84247a	0.2580908
73	0xbd318701	-0.04334164
74	0xbe6899a4	-0.22714859
75	0x3deef016	0.116668865
76	0xbdd8537b	-0.10562798
77	0xbd999ed1	-0.07500995
78	0x3d281f7f	0.041045662
79	0xbeabd539	-0.33561113
80	0xbcadcbe9	-0.021215396
81	0x3e2382cf	0.15967868
82	0x3d68a67c	0.056799397
83	0xbe0c56a8	-0.13704932
84	0xbe47a086	-0.19494829
85	0x3ebe4e42	0.3716908
86	0xbdb53d2b	-0.088495575
87	0x3dfc62d1	0.12323535
88	0x3ea1ee41	0.31627086
89	0xbe783f2d	-0.2424285
90	0x3d5fbf8a	0.054626025
91	0x3ce0afe9	0.02742763
92	0x3e153f46	0.14574918
93	0x3de05508	0.109537184
94	0xbe5d3738	-0.21603096
95	0x3c54dce9	0.012992122
96	0x3ebc312a	0.3675626
97	0xbebf0bc5	-0.37313667
98	0xbeaa41ee	-0.33253425
99	0x3dc7b155	0.0975062
100	0x3bc500fc	0.0060120802
101	0x3d498f05	0.04920866
102	0x3df01aad	0.11723838
103	0xbbbf0087	-0.0058289203
104	0x3e89f112	0.26941735
105	0xbd5a9232	-0.05336208
106	0xbe0f5974	-0.13998967
107	0xbde9e6e5	-0.11420993
108	0xbe767611	-0.24068476
109	0x3d16fcc9	0.03686217
110	0x3d0e5aab	0.034754436
111	0x3eab908e	0.33508724
112	0xbd6f1d2b	-0.058377426
113	0xbc247e5a	-0.01003989
114	0x3e4e5351	0.2014897
115	0xbd13bff4	-0.036071733
116	0xbe21e981	-0.15811731
117	0x3de3ff34	0.111326605
118	0x3cca5f87	0.024703754
119	0x3eabc98d	0.3355221
120	0x3e0f8bfd	0.14018245
121	0x3eafb4e6	0.34317702
122	0x3dc21c58	0.094780624
123	0xbd9487bf	-0.07252454
124	0xbe10b580	-0.14131737
125	0x3e2c5cba	0.16832247
126	0x3cff3b36	0.031156164
127	0xbc9d2c59	-0.019186186
128	0xbe23ab3d	-0.15983291
129	0x3e5228bf	0.20523356
130	0x3cb522b8	0.022111282
131	0xbe867e04	-0.26268017
132	0xbe03bc6f	-0.1286485
133	0xbe127108	-0.1430093
134	0x3bfa6f15	0.0076426365
135	0xbe102824	-0.14077812
136	0xbe7ddadf	-0.24790524
137	0x3e59f876	0.21286187
138	0xbd9b08a1	-0.07570005
139	0x3e38f0a8	0.18060553
140	0x3e4ccbfc	0.19999689
141	0x3db0e7dc	0.08637974
142	0xbd0604d8	-0.032719463
143	0x3e51ce66	0.20488891
144	0xbeaeaeb3	-0.3411766
145	0xbdaeba92	-0.08531679
146	0xbe6aaff0	-0.22918677
147	0x3d0ab722	0.033866055
148	0xbdee4fa9	-0.11636288
149	0x3e8d0c44	0.2754842
150	0x3e268611	0.1626208
151	0x3d95ac7a	0.07308288
152	0xbd83928f	-0.06424438
153	0xbcd439c6	-0.025906455
154	0x3e7133da	0.23554936
155	0x3dd3acc9	0.103356905
156	0xbe17474a	-0.14773288
157	0xbeb7edd0	-0.35923624
158	0xbc48baac	-0.012251537
159	0x3d0c146f	0.034199174
160	0xbe28a764	-0.16470104
161	0xbe04135f	-0.12898014
162	0xbef587dd	-0.47955218
163	0xbe781025	-0.24224909
164	0x3df21929	0.11821205
165	0xbdc7c377	-0.09754079
166	0xbeb9c7c2	-0.36285216
167	0xbe1096ed	-0.14120074
168	0x3dd2504b	0.10269221
169	0x3d5d93d6	0.054096065
170	0xbdee3c65	-0.11632613
171	0x3e274df4	0.1633833
172	0xbcf1e598	-0.029528424
173	0xbd80acc2	-0.06282951
174	0x3ca0b4e5	0.019617507
175	0x3ea703e4	0.32620156
176	0x3e8b7817	0.2724006
177	0xbcfd63bd	-0.030931348
178	0x3dd47390	0.10373604
179	0x3d491365	0.04909076
180	0x3d7037f1	0.0586471
181	0x3e0706c4	0.13186175
182	0xbe42ed95	-0.19035943
183	0xbce04b4e	-0.027379658
184	0x3d7fcc77	0.062450852
185	0x3e736215	0.23767884
186	0xbe7a5200	-0.24445343
187	0xbdb9803f	-0.09057664
188	0x3bb2c520	0.005455628
189	0x3d133b73	0.035945367
190	0x3e1cd5d8	0.1531595
191	0x3e656bb3	0.22404365
192	0x3c485590	0.012227431
193	0xbe9cb02d	-0.3060316
194	0x3ddd990d	0.10820208
195	0xbe563408	-0.20918286
196	0xbd8c33d6	-0.068458244
197	0x3e7468a3	0.2386804
198	0xbd7c09c2	-0.061532743
199	0x3ea180bc	0.3154353
200	0xbdc826c2	-0.097730175
201	0xbe9e1cb3	-0.3088127
202	0xbcd48130	-0.025940508
203	0xbe258904	-0.16165549
204	0xbc9bedde	-0.019034322
205	0x3e2079fa	0.1567153
206	0x3d2c2374	0.042026
207	0x3dc96b84	0.0983496
208	0x3eb1942f	0.34683368
209	0xbe15c383	-0.14625363
210	0x3e898b7a	0.26864225
211	0x3d30e2f6	0.043185197
212	0xbd04ab4e	-0.03238993
213	0x3d285fa5	0.04110684
214	0x3ec1ba66	0.37837523
215	0xbd9bf41b	-0.07614919
216	0xbd8d755e	-0.06907152
217	0xbd3c2f5d	-0.045943607
218	0x3cbfdd72	0.023421023
219	0xbd3c095a	-0.045907356
220	0x3d7f3bf5	0.06231304
221	0xbdeb4ff2	-0.11489858
222	0xbe4968e3	-0.19668917
223	0x3d52a5ee	0.051427774
224	0x3e1157ed	0.14193697
225	0x3e4acce9	0.1980473
226	0xbd4d51c0	-0.05012679
227	0x3d34ec04	0.044170395
228	0x3e87f8ad	0.26556912
229	0x3ba3c8aa	0.0049982863
230	0x3dc4acc8	0.09603268
231	0xbed285f0	-0.4111781
232	0xbdc49d0f	-0.09600269
233	0xbe885e45	-0.26634422
234	0xbe430bd7	-0.19047485
235	0x3df2a588	0.11847979
236	0xbc843045	-0.016136298
237	0xbdd9ef8f	-0.10641395
238	0x3d1c98a9	0.038231526
239	0x3bb46cc9	0.0055061323
240	0xbde7dc3d	-0.11321304
241	0xbcfbb573	-0.03072617
242	0x3c8a303e	0.016868707
243	0xbe204b82	-0.15653804
244	0x3e0b7845	0.13620098
245	0x3e4e638b	0.2015516
246	0x3e284732	0.16433409
247	0x3e5fd11e	0.21857116
248	0xbea6719e	-0.32508558
249	0x3e0224cc	0.1270935
250	0x3d781f91	0.06057698
251	0xbda5fb3e	-0.08104561
252	0xbe3a7a09	-0.18210615
253	0x3e55ec8d	0.20891018
254	0xbe33a02d	-0.17541571
255	0x3d70bb0e	0.05877214

head_net.model.value_linear_layer_1.bias f4 [64]
0	0x3ce3c943	0.02780593
1	0x3c516c69	0.012782195
2	0x3a9b2f57	0.001183967
3	0x3bb9a363	0.005665229
4	0x3c333498	0.010937832
5	0x3b048da5	0.0020226028
6	0x3b602ac5	0.003420518
7	0x3a74b55d	0.00093348866
8	0x3b143eb3	0.002262038
9	0x3b58fd4a	0.0033109956
10	0xbbbd75b3	-0.005781853
11	0x3afded41	0.0019373075
12	0x3b80b1e2	0.0039274553
13	0x3c46b37f	0.012127756
14	0x3bbb2cd8	0.005712133
15	0x3c811b60	0.015760124
16	0x3be6c9ca	0.007043098
17	0x3b44d64d	0.003003496
18	0xba2f6020	-0.0006690044
19	0x3c148e74	0.009067167
20	0x398740a3	0.00025797365
21	0x3cdb69a6	0.026783776
22	0x3b905032	0.0044040913
23	0x38e6f291	0.00011012436
24	0xbaa47700	-0.0012547672
25	0x3b8d73d1	0.004316785
26	0x3a90c3a9	0.0011044639
27	0xbb1a1e80	-0.0023516715
28	0xba310ed9	-0.00067542266
29	0x3c4ccc5f	0.012499898
30	0x3ba16898	0.0049257986
31	0x3b849d13	0.004047045
32	0xbbc28834	-0.005936647
33	0x3c1b5d62	0.009482713
34	0x3cc06cbe	0.023489352
35	0xbad071ab	-0.0015903016
36	0x3aa74a3c	0.0012763212
37	0x3bf939d9	0.007605773
38	0x3c9ffac7	0.01952876
39	0x3bd090c8	0.0063649155
40	0x3bb7b8c9	0.005606745
41	0x3bb3441d	0.005470766
42	0x39706aa5	0.00022927912
43	0xba9de040	-0.0012044981
44	0x3b3fd008	0.0029268283
45	0x3c340d5e	0.010989515
46	0x3ba5cbca	0.005059694
47	0x3b2093a1	0.0024502056
48	0x3b25439f	0.0025217307
49	0x3c45e4fe	0.012078522
50	0x3c2a95a3	0.010411653
51	0x3bffba8d	0.007804221
52	0x3b197226	0.0023413985
53	0xbaa82dc4	-0.0012831022
54	0x3a1e4b0d	0.0006038405
55	0x3c5448fd	0.012956855
56	0x3c89dd1c	0.016829066
57	0xba3fcbc2	-0.0007316434
58	0x392fbb83	0.00016759154
59	0x3adf1ebc	0.0017022709
60	0xbb6a7e70	-0.003578093
61	0x3a2109fe	0.00061431515
62	0x3bb76acb	0.0055974475
63	0x3c332983	0.01093519

head_net.model.value_layer_norm_1.weight f4 [64]
0	0x3f79fb4a	0.9764906
1	0x3f750995	0.95717746
2	0x3f7e5108	0.99342394
3	0x3f8217b9	1.016349
4	0x3f7e12ad	0.99247247
5	0x3f822f7a	1.0170739
6	0x3f8302ca	1.0235226
7	0x3f803154	1.0015054
8	0x3f7ad43d	0.979801
9	0x3f7d8d7a	0.99044
10	0x3f7e8129	0.9941583
11	0x3f73de22	0.9526082
12	0x3f7efb21	0.9960194
13	0x3f79e775	0.976188
14	0x3f80944a	1.0045254
15	0x3f79a50c	0.97517467
16	0x3f7aa581	0.9790879
17	0x3f83562f	1.0260676
18	0x3f7deae3	0.99186534
19	0x3f7ca571	0.98689944
20	0x3f7e25a2	0.99276173
21	0x3f7a92c0	0.9788017
22	0x3f82ed60	1.0228691
23	0x3f7fbe19	0.9989944
24	0x3f7f8ff5	0.99829036
25	0x3f7c3d11	0.9853068
26	0x3f8132ba	1.0093606
27	0x3f7fefcd	0.9997528
28	0x3f820d01	1.0160218
29	0x3f767bcc	0.9628265
30	0x3f812e0c	1.0092177
31	0x3f7b7473	0.9822456
32	0x3f7edc64	0.9955504
33	0x3f7e758c	0.9939811
34	0x3f7cee36	0.9880098
35	0x3f7ca40a	0.98687804
36	0x3f83f0be	1.0307844
37	0x3f7a38df	0.9774303
38	0x3f7b14a4	0.9807837
39	0x3f880a2b	1.0628103
40	0x3f8173e7	1.0113496
41	0x3f80d07f	1.0063628
42	0x3f821a4b	1.0164274
43	0x3f7cc6be	0.98740757
44	0x3f7aee78	0.98020124
45	0x3f82ab8a	1.02086
46	0x3f715c1b	0.94281167
47	0x3f7feba8	0.9996896
48	0x3f7d66e2	0.9898511
49	0x3f74c136	0.95607316
50	0x3f766c03	0.9625856
51	0x3f7fdd78	0.9994731
52	0x3f7ef59d	0.99593526
53	0x3f7e203c	0.99267936
54	0x3f83d26b	1.029859
55	0x3f808c5e	1.0042837
56	0x3f7804d0	0.96882343
57	0x3f7e9a32	0.99454033
58	0x3f7f26d3	0.99668616
59	0x3f802ec8	1.0014277
60	0x3f805369	1.0025455
61	0x3f7d4b6c	0.9894321
62	0x3f8191eb	1.0122656
63	0x3f7b5d20	0.9818897

head_net.model.value_layer_norm_1.bias f4 [64]
0	0xbcf44d2f	-0.02982196
1	0xbd49ea9f	-0.049296018
2	0xbbabc3e3	-0.0052418574
3	0xbc2d473c	-0.010576066
4	0xbc93e365	-0.018052766
5	0xbc48ca75	-0.012255301
6	0xba5aa220	-0.00083401985
7	0xbb97fa36	-0.0046379818
8	0xbd042c43	-0.032268774
9	0xbbaaadb7	-0.0052086967
10	0xbbeda125	-0.007251876
11	0xbd223fb1	-0.039611522
12	0xbbc245d8	-0.005928736
13	0xbccf3c31	-0.025297256
14	0xbb41ed1d	-0.0029590793
15	0xbcd80c2c	-0.026372992
16	0xbd25a716	-0.04044255
17	0xbb7af167	-0.003829086
18	0xbc18564a	-0.009297917
19	0xbcbd6a7f	-0.02312207
20	0xbc2c3ddb	-0.010512794
21	0xbd0f1977	-0.034936395
22	0xbb22211c	-0.0024738973
23	0xbc0ac758	-0.008470379
24	0xbbdc24d1	-0.006718256
25	0xbbaac503	-0.005211474
26	0xbbf2848b	-0.0074010543
27	0xbc2407fc	-0.010011669
28	0xbbf072a5	-0.0073378854
29	0xbd11b9c0	-0.035577536
30	0xbbfab896	-0.007651399
31	0xbc9ff6e2	-0.019526903
32	0xbc0af3c0	-0.008480966
33	0xbc9c7a85	-0.01910139
34	0xbd23040e	-0.03979879
35	0xbbfce8a0	-0.0077181607
36	0xbc0b2c30	-0.008494422
37	0xbce9d0b9	-0.02854191
38	0xbd1bf89e	-0.038078897
39	0xbc11de51	-0.008903102
40	0xbbb1b2b7	-0.005422916
41	0xbbed4b5e	-0.0072416505
42	0xbc08f313	-0.008358735
43	0xbc04393e	-0.008070288
44	0xbce7e24a	-0.028306145
45	0xbc220e5f	-0.009891122
46	0xbc96cd6d	-0.018408502
47	0xbbf64f6c	-0.007516792
48	0xbbaa8fa1	-0.00520511
49	0xbd2760d5	-0.04086383
50	0xbd1478f0	-0.036248147
51	0xba2285e6	-0.0006199762
52	0xbc154362	-0.009110304
53	0xbbae0990	-0.0053111985
54	0xbbc1ff87	-0.005920354
55	0xbcdd0c77	-0.026983483
56	0xbca7c95a	-0.020481754
57	0xbbf72539	-0.007542279
58	0xbbf504ee	-0.0074773943
59	0xbb9b91bb	-0.004747597
60	0xbbc677b7	-0.0060567516
61	0xbbf74c38	-0.007546928
62	0xbc0641cb	-0.008194397
63	0xbcff140e	-0.031137493

head_net.model.value_linear_layer_2.weight f4 [64, 64]
0	0xbdf16faa	-0.11788876
1	0x3d5ae6a0	0.053442597
2	0x3e8cef77	0.27526447
3	0xbd84770a	-0.064680174
4	0x3d89ae13	0.06722655
5	0xbe66ee4a	-0.22551838
6	0xbde2c73a	-0.11073156
7	0x3dd02104	0.10162547
8	0x3e73e9bc	0.23819631
9	0xbcb376e6	-0.021907281
10	0x3e4e60f8	0.20154178
11	0x3d828446	0.063728854
12	0x3e08d65e	0.13363025
13	0xbea00326	-0.31252402
14	0xbe500428	-0.20314085
15	0xbcbdcc10	-0.023168594
16	0xbe1c616b	-0.15271537
17	0xbdfe03d0	-0.12403071
18	0x3dedf125	0.1161826
19	0xbd9d5a01	-0.076831825
20	0xbe271986	-0.1631833
21	0xbdd3e152	-0.10345711
22	0xbe1ad72e	-0.15121147
23	0xbd299c3b	-0.04140876
24	0x3de8c7f0	0.1136626
25	0x3d8f700f	0.07003795
26	0xbe40820d	-0.1879961
27	0xbec9fcc5	-0.3945066
28	0x3daffde2	0.08593346
29	0x3df42ba1	0.11922384
30	0x3e409c48	0.18809617
31	0xbe7efd0d	-0.24901219
32	0x3d9c3089	0.07626445
33	0x3d30386a	0.04302255
34	0x3d450cdf	0.048107978
35	0x3db58b97	0.08864515
36	0x3ea52f83	0.3226281
37	0x3dc4a12e	0.09601055
38	0x3e98717b	0.2977408
39	0x3de8f716	0.11375253
40	0x3e3fac17	0.18717991
41	0x3e3f0bec	0.18656892
42	0x3d6be292	0.05758912
43	0xbc863403	-0.016382223
44	0x3ec91fc5	0.3928205
45	0xbec4144e	-0.3829674
46	0x3d36607e	0.044525616
47	0x3d96b9b6	0.0735964
48	0xbe839d5a	-0.25705987
49	0x3e9b359a	0.30314332
50	0x3e14b543	0.14522271
51	0x3e3d487b	0.1848468
52	0x3da98eed	0.08279214
53	0x3d5b46e3	0.0535344
54	0xbcb707ac	-0.022342525
55	0xbb8ff339	-0.004393008
56	0x3ddee37a	0.108832315
57	0x3dd299fc	0.102832764
58	0x3dbfc3ba	0.09363504
59	0xbc9f6e3f	-0.01946175
60	0xbd48a31b	-0.048983674
61	0xbe207270	-0.15668654
62	0xbd04edd6	-0.03245338
63	0x3d08cf62	0.0334009
64	0x3e3eb5a0	0.18623972
65	0x3cbbb3ff	0.022912977
66	0x3e1f6953	0.15567522
67	0xbb1b8d9f	-0.0023735536
68	0x3d90c2f1	0.07068432
69	0x3eb0f8b1	0.34564736
70	0x3df9ebee	0.12203203
71	0x3e9cc75a	0.30620843
72	0xbe62a0c8	-0.22131646
73	0xbe53bf5b	-0.20678465
74	0x3e9cc811	0.3062139
75	0xbe0f058e	-0.13966963
76	0x3eb31048	0.3497336
77	0x3cef06f5	0.029178122
78	0x3cdc39d4	0.026883043
79	0xbdabd572	-0.08390321
80	0xbe6b1d58	-0.22960413
81	0x3e5f08ca	0.21780697
82	0x3da9ddcf	0.0829426
83	0xbd759f8c	-0.05996661
84	0xbd976fe9	-0.07394392
85	0xbdc57bcc	-0.09642753
86	0xbdac44a0	-0.08411527
87	0xbead4704	-0.33843243
88	0x3d0b26f7	0.033972707
89	0x3e44e659	0.19228496
90	0x3dcf0748	0.10108811
91	0xbec82ff6	-0.3909909
92	0x3cd5a84a	0.026081223
93	0xbdadcd87	-0.08486467
94	0xbe7af005	-0.24505623
95	0xbe9a878e	-0.30181545
96	0x3eb05eda	0.34447366
97	0xbe04ee09	-0.12981428
98	0x3cb83f9d	0.02249127
99	0xbe70b04b	-0.2350475
100	0xbdfcf81f	-0.12352013
101	0x3e2e72ed	0.17036028
102	0x3d8debcf	0.069297425
103	0xbd8bf027	-0.06832915
104	0xbdee013b	-0.116213284
105	0xbd139346	-0.036029123
106	0xbd4b0c53	-0.0495723
107	0xbcf0b5f8	-0.029383644
108	0x3c89a55f	0.016802488
109	0x3e04016f	0.12891172
110	0x3d9b99be	0.07597683
111	0x3c87b5c7	0.01656617
112	0x3e1aa8c0	0.15103436
113	0xbe2bece3	-0.16789584
114	0xbd1f5504	-0.038899437
115	0x3e011141	0.12604238
116	0xbede2775	-0.43389478
117	0x3cb6ca3f	0.022313235
118	0x3d6828b4	0.056679443
119	0x3c702452	0.014657097
120	0x3e733093	0.23748998
121	0xbc9cdd85	-0.019148597
122	0xbddb2210	-0.10699856
123	0x3e25cf1c	0.16192287
124	0xbdc5954c	-0.09647617
125	0xbd261989	-0.040551696
126	0x3e0140d6	0.12622389
127	0x3c2d59e3	0.010580513
128	0x3d9ce95e	0.07661699
129	0x3ddf6091	0.109070905
130	0xbe05343a	-0.13008204
131	0x3da11853	0.078659676
132	0xbd1ad00b	-0.03779606
133	0x3e5c49bf	0.21512507
134	0xbe1fb85a	-0.15597668
135	0xbdef2e89	-0.11678798
136	0x3d7a3763	0.061087977
137	0xbe9de3ed	-0.30837956
138	0x3e2b19bd	0.16709037
139	0x3df54ddd	0.11977742
140	0x3e0ddf48	0.13854706
141	0xbe89cc3b	-0.26913628
142	0xbe9a0b91	-0.3008695
143	0xbe6e7941	-0.23288442
144	0xbd2bf012	-0.041976996
145	0xbe046f2f	-0.12933038
146	0xbd3e93cf	-0.04652768
147	0x3d270035	0.04077168
148	0x3e5fc9cf	0.21854328
149	0xbe81931d	-0.2530755
150	0x3d5c2885	0.05374958
151	0xbe84bc1a	-0.2592476
152	0x3e8aa8a3	0.27081785
153	0xbdf4a028	-0.1194461
154	0x3caaddbd	0.020857686
155	0x3e3f1fbe	0.18664452
156	0x3d461b8e	0.048366122
157	0x3cd30182	0.025757555
158	0x3eb4e85c	0.35333526
159	0x3da47c2e	0.08031498
160	0xbdfa3516	-0.122171566
161	0x3e0dd04a	0.13848987
162	0x3e4b0135	0.19824679
163	0x3da1cf88	0.079009116
164	0x3eb61659	0.35563925
165	0x3d3afe18	0.04565248
166	0x3d9b786b	0.07591327
167	0xbe306f02	-0.17229846
168	0x3bb05dfb	0.005382297
169	0xbe40076f	-0.18752836
170	0x3c8e8de0	0.017401636
171	0x3e935fd9	0.28784063
172	0xbe1ad026	-0.15118465
173	0x3dd174d9	0.10227365
174	0x3d0b1765	0.033957858
175	0x3ddd55cb	0.10807379
176	0x3e78873c	0.24270338
177	0xbd517313	-0.051135134
178	0x39864d49	0.00025616054
179	0x3d9e562d	0.077312805
180	0x3c46616b	0.012108187
181	0xbd890095	-0.06689564
182	0xbd9b5b6b	-0.07585796
183	0xbc80cf75	-0.015723923
184	0x3df8dd2b	0.121515594
185	0xbdc53824	-0.096298486
186	0x3dee8df6	0.11648171
187	0xbe48c47b	-0.19606201
188	0xbe126e56	-0.14299902
189	0xbe26cb6c	-0.16288537
190	0xbe52b8b2	-0.20578268
191	0x3da2f0c0	0.07956076
192	0xbec5d74f	-0.3864083
193	0x3d42a121	0.047516946
194	0x3d1b60ea	0.03793422
195	0xbc8fc99d	-0.017552191
196	0x3e30d673	0.17269306
197	0x3e08841b	0.13331644
198	0xbdd12d2d	-0.10213695
199	0xbd89b5e1	-0.06724144
200	0xbe6691b5	-0.2251652
201	0x3e18a3f4	0.14906293
202	0xbe15bed3	-0.14623575
203	0xbe000ed4	-0.12505656
204	0xbe0b1581	-0.13582422
205	0xbc9b7572	-0.0189769
206	0xbe086c32	-0.13322523
207	0xbe9c0b80	-0.30477524
208	0xbc84d4bd	-0.016214723
209	0x3de8fd31	0.113764174
210	0x3e6526fe	0.22378156
211	0xbea6952e	-0.3253569
212	0x3ed97315	0.42470613
213	0x3e5d46ba	0.21609011
214	0x3daa4fd8	0.0831601
215	0xbe2b90b6	-0.16754422
216	0x3e3c6b5a	0.18400326
217	0x3e6771da	0.22602025
218	0xbc8dc842	-0.017307404
219	0xbe946281	-0.28981403
220	0x3cea09b0	0.028569072
221	0xbcb21ad4	-0.021741308
222	0x3e197c24	0.14988762
223	0x3e6d5a1e	0.23178908
224	0xbe2c7d47	-0.16844665
225	0x3e026956	0.12735495
226	0xbdd96297	-0.10614508
227	0xbdb05e91	-0.08611787
228	0xbda66442	-0.081245914
229	0x3db9745e	0.090553984
230	0xbc448720	-0.011995107
231	0x3df2087c	0.118180245
232	0x3e93b95e	0.2885236
233	0xbda47765	-0.08030585
234	0x3dbbdce5	0.09172992
235	0x3ee5b260	0.44862652
236	0x3dcbca22	0.09950663
237	0xbc414c51	-0.01179798
238	0xbd5295a4	-0.05141224
239	0x3e471945	0.19443233
240	0x3e3cf220	0.18451738
241	0x3b0ae8e2	0.0021195938
242	0xbc101b58	-0.008795582
243	0xbeb74296	-0.3579299
244	0xbe6692eb	-0.22516982
245	0x3e7fa787	0.2496625
246	0x3e848d3a	0.25888997
247	0xbd002d51	-0.031293217
248	0xbd4223df	-0.04739749
249	0xbc6a7bfb	-0.014311786
250	0xbcd2b04e	-0.025718834
251	0x3e31f4d5	0.17378552
252	0x3e742ae6	0.2384449
253	0x3e51d269	0.20490421
254	0xbcffb939	-0.03121625
255	0x3b31bc76	0.0027120388

head_net.model.value_linear_layer_2.bias f4 [64]
0	0xbd39b28d	-0.045336295
1	0x3c30f018	0.01079943
2	0x3db09dc3	0.08623841
3	0xbca6381c	-0.020290427
4	0x3c2c5162	0.01051745
5	0x3d35cd87	0.04438546
6	0x3d11fc50	0.035641015
7	0x3be03145	0.006841811
8	0x3d0756f7	0.03304192
9	0xbcb4a61d	-0.022051865
10	0xbca63ee4	-0.02029366
11	0xb96b84d4	-0.00022460829
12	0xbc8debf8	-0.017324433
13	0xba8b5724	-0.0010630828
14	0xbba4300f	-0.005010612
15	0x3cac7559	0.02105205
16	0xbc6e1820	-0.014532119
17	0xbb0810d5	-0.0020761986
18	0x3cd22ef3	0.025657153
19	0x3d4d0214	0.05005081
20	0x3cfd6c4d	0.03093543
21	0x3da4c07a	0.080445245
22	0x3da25c34	0.079277426
23	0x3cfd96e3	0.030955737
24	0x3d08a5ac	0.033361122
25	0xbb3a909b	-0.002846754
26	0x3d623b7c	0.05523251
27	0xbc57c224	-0.013168845
28	0x3c0e9ae5	0.008703922
29	0xbc55ea65	-0.013056372
30	0xbadc768f	-0.0016820001
31	0xbd4a2cea	-0.04935924
32	0xbbf640bb	-0.0075150407
33	0xb82b84ad	-4.089314e-05
34	0x3ca094ed	0.019602263
35	0xbc908b41	-0.017644526
36	0x3c50c8b1	0.012743161
37	0xbbe49b56	-0.0069765253
38	0x3b1daac7	0.002405809
39	0x3cea812a	0.028626043
40	0x3b696eb1	0.0035618956
41	0x3d7dadb4	0.061933234
42	0x3b9e2421	0.0048260842
43	0x3c8cddc4	0.01719559
44	0x3c44cc5e	0.012011616
45	0x3c83241b	0.016008427
46	0xb74cd74f	-1.2209478e-05
47	0x3c11f60c	0.00890876
48	0x39a5055d	0.00031475248
49	0x3c06dc2f	0.008231207
50	0x3c4721a7	0.012154019
51	0x3c5d4dca	0.013507316
52	0xbc4822f5	-0.012215366
53	0x3b96ebc8	0.004605744
54	0x3d85724d	0.06515942
55	0x3b943907	0.0045233998
56	0xbc51aec4	-0.012798015
57	0x3c2f2582	0.010690095
58	0xbc4f7083	-0.012661102
59	0x3c9fcb3e	0.019506093
60	0xbd1b145a	-0.037861206
61	0x3d6d9d6b	0.058011454
62	0xbccaa3dc	-0.024736337
63	0x3b64f681	0.0034936967

head_net.model.value_layer_norm_2.weight f4 [64]
0	0x3f818833	1.011969
1	0x3f858f2a	1.0434315
2	0x3f844455	1.0333353
3	0x3f83ea4c	1.0305877
4	0x3f896c45	1.0736166
5	0x3f92b17e	1.1460416
6	0x3f8ffa28	1.1248217
7	0x3f829e37	1.0204533
8	0x3f906e03	1.1283573
9	0x3f8d94ad	1.1060997
10	0x3f8322cd	1.0244995
11	0x3f913cb3	1.1346649
12	0x3f825642	1.0182574
13	0x3f8a714e	1.0815828
14	0x3f8c6102	1.0967104
15	0x3f8bb0df	1.0913352
16	0x3f87be51	1.0604955
17	0x3f84f67b	1.038772
18	0x3f8099c4	1.0046926
19	0x3f8d5335	1.1041018
20	0x3f805376	1.002547
21	0x3f8e2f64	1.1108212
22	0x3f86b58c	1.0524154
23	0x3f8d9d51	1.1063634
24	0x3f8431b1	1.0327665
25	0x3f864c19	1.0491973
26	0x3f8be512	1.0929282
27	0x3f878236	1.0586612
28	0x3f875c5c	1.0575061
29	0x3f874451	1.0567724
30	0x3f82658c	1.018724
31	0x3f83f4d2	1.0309088
32	0x3f811e3e	1.0087354
33	0x3f85153f	1.0397109
34	0x3f88e9fe	1.0696409
35	0x3f83138d	1.0240341
36	0x3f8bb6a5	1.0915114
37	0x3f7f219c	0.9966066
38	0x3f8d35c9	1.1032039
39	0x3f846f1b	1.0346407
40	0x3f84e843	1.0383381
41	0x3f907fff	1.1289061
42	0x3f873323	1.0562481
43	0x3f89c332	1.0762694
44	0x3f84af78	1.0366049
45	0x3f9051b4	1.1274934
46	0x3f895be1	1.0731164
47	0x3f886b79	1.0657798
48	0x3f83d590	1.0299549
49	0x3f87e01f	1.0615271
50	0x3f8cef0e	1.1010454
51	0x3f8ad653	1.0846657
52	0x3f8837f8	1.064208
53	0x3f8a3fc2	1.0800707
54	0x3f90e5b0	1.1320095
55	0x3f824b39	1.0179206
56	0x3f81f4ff	1.0152892
57	0x3f8b3f74	1.0878739
58	0x3f851fe0	1.0400352
59	0x3f89b63e	1.0758741
60	0x3f838051	1.0273534
61	0x3f8d259d	1.1027104
62	0x3f82387f	1.0173491
63	0x3f8418df	1.032009

head_net.model.value_layer_norm_2.bias f4 [64]
0	0x3be7defd	0.007076143
1	0x3cc68f43	0.024238234
2	0x3c4355ee	0.011922343
3	0x3ca950f3	0.020668482
4	0x3cc48636	0.023989778
5	0x3d3e5488	0.046467334
6	0x3d2b516e	0.041825704
7	0x3c81db9c	0.015851788
8	0x3d6f5dc5	0.058439035
9	0x3cbd4b43	0.023107177
10	0x3c34d664	0.011037443
11	0x3cc134a8	0.023584679
12	0x3c2adb49	0.010428258
13	0x3cd9f1aa	0.026604492
14	0x3cf7e1df	0.03025907
15	0x3ca8a7fa	0.02058791
16	0x3c7f32d8	0.015576087
17	0x3c9aa10e	0.018875625
18	0xbbcda3e0	-0.006275639
19	0x3c2c3d8a	0.010512719
20	0xbc81037a	-0.015748728
21	0x3d5c29a2	0.05375064
22	0x3bb870e9	0.0056286943
23	0x3d42f600	0.047597885
24	0x3baf389c	0.0053473245
25	0x3caba08d	0.02095058
26	0x3d2d802e	0.04235857
27	0x3cc6aee7	0.024253322
28	0x3c5f1818	0.013616584
29	0x3cadc798	0.021213338
30	0x3c6218d6	0.013799867
31	0x3c1ea4a2	0.009682806
32	0x3bea1d23	0.0071445866
33	0x3c8315a1	0.016001524
34	0x3c16a88f	0.009195461
35	0x3bb9d977	0.005671676
36	0x3ce98c14	0.028509177
37	0x3bbabc53	0.0056987195
38	0x3cdb32f7	0.0267577
39	0xbb68a319	-0.0035497604
40	0x3bec5c2f	0.0072131376
41	0x3db7d23e	0.089756474
42	0x3c3c76b8	0.011502914
43	0x3c933888	0.017971292
44	0x3c7a073d	0.015260515
45	0x3d0ea68d	0.034826804
46	0x3ce4cac3	0.027928716
47	0x3c7a767a	0.015287036
48	0x3c8f34e3	0.017481273
49	0x3cceaeac	0.025229774
50	0x3b805a37	0.0039170044
51	0x3c5cb062	0.013469787
52	0x3ca6f975	0.020382622
53	0x3ca3a938	0.01997815
54	0x3d7a230a	0.061068572
55	0x3bb2a534	0.0054518227
56	0x3c078a5b	0.008272733
57	0x3c2e896f	0.010652884
58	0x3c86e7b9	0.016467916
59	0x3ccf7291	0.025323184
60	0x3bca2ba8	0.006169755
61	0x3d3a8e15	0.045545656
62	0x3c026d68	0.007960655
63	0x3ca216dc	0.01978629

head_net.model.value_linear_layer_output.weight f4 [7, 64]
0	0xbba4ee80	-0.005033314
1	0xbd195f42	-0.03744436
2	0x3ce3ae57	0.027793093
3	0x3d4b7b13	0.04967792
4	0xbd1db174	-0.03849931
5	0xbda806ee	-0.08204447
6	0x3d2e1708	0.042502433
7	0x3c4c1a17	0.012457392
8	0x3d1eaeaf	0.03874081
9	0xbccc5f33	-0.024947738
10	0xbbc870be	-0.0061169555
11	0xbd3705f1	-0.0446834
12	0xbcab19e1	-0.020886363
13	0xbcb84496	-0.022493642
14	0xbc1555fd	-0.0091147395
15	0x3ca95540	0.020670533
16	0x3c6a860f	0.014314189
17	0xbc95f462	-0.018305007
18	0xbbc91fba	-0.0061378153
19	0xbdb1014e	-0.08642827
20	0xbc9915e7	-0.018687202
21	0x3cd6eeca	0.02623691
22	0xbcfdf882	-0.031002287
23	0xbd1e912d	-0.03871267
24	0x3c1de1d4	0.009636361
25	0x3d2a1f8c	0.04153399
26	0xbcc548aa	-0.0240825
27	0xbd11d17d	-0.035600174
28	0x3d6d8892	0.05799157
29	0xbd8f2601	-0.069896705
30	0xbd1f24cf	-0.038853463
31	0x3c831613	0.016001737
32	0x39d16bc4	0.00039943878
33	0x3d29c3b1	0.04144639
34	0x3be6d136	0.007043983
35	0x3d12c1c0	0.035829306
36	0x3c567a13	0.013090628
37	0xbbe36e6b	-0.006940653
38	0x3cc60319	0.024171399
39	0x3d288a3b	0.04114745
40	0x3b0b444f	0.0021250432
41	0x3d51de63	0.051237475
42	0xbd5929e9	-0.053018484
43	0x3d2868eb	0.041115683
44	0xbb850889	-0.0040598554
45	0xbc92e363	-0.017930692
46	0x3d3e6a7b	0.046488266
47	0x3d4cc98b	0.049996894
48	0x3d5311d1	0.051530663
49	0xbbaa9b4e	-0.005206502
50	0xbcbc9a0d	-0.023022676
51	0xbd3731d7	-0.044725265
52	0xbd1770ef	-0.036972936
53	0x3db3c038	0.08776897
54	0xbd2d97c5	-0.042381067
55	0xbc46adba	-0.012126381
56	0x3c4e3a8c	0.012587201
57	0x3ba0578b	0.0048932484
58	0xbcb73d26	-0.022368025
59	0xbcc5815b	-0.024109533
60	0xbc091118	-0.008365892
61	0xbda5cb40	-0.080954075
62	0x3c0139eb	0.007887344
63	0x3c8bc8c0	0.017063498
64	0x3c3eb14c	0.011638951
65	0xbcae43b1	-0.021272512
66	0x3cd5b850	0.026088864
67	0xbd1e798c	-0.038690135
68	0xbd993928	-0.07481605
69	0x3d0c9cd8	0.034329265
70	0x3c84f183	0.016228443
71	0xbb9fc25c	-0.0048754644
72	0xbdf4829f	-0.119389765
73	0x3c9938a4	0.018703766
74	0xbd5e3534	-0.054249957
75	0xbc992b95	-0.01869754
76	0x3c5c72b5	0.013455083
77	0x3d8676a7	0.065656
78	0xbd6e4f67	-0.058181193
79	0x3dad9e93	0.08477511
80	0xbc875cb8	-0.016523704
81	0xbcdf7c22	-0.02728087
82	0xbd4c9df5	-0.049955327
83	0x3ba8adba	0.005147663
84	0xbd1ce956	-0.038308464
85	0x3dbe5dbb	0.092952214
86	0x3d851d5f	0.06499743
87	0x3db33857	0.0875098
88	0x3c9373f8	0.017999634
89	0xbd23a381	-0.03995085
90	0xbbd89abb	-0.006610242
91	0x3cceb978	0.025234923
92	0x3d353282	0.04423762
93	0x3d6572b4	0.056017593
94	0x3d0420e3	0.032257926
95	0x3d3118e1	0.043236617
96	0x3c63a062	0.013893219
97	0x3cb39a87	0.02192427
98	0xbd49c469	-0.049259577
99	0xba21ab6a	-0.0006167205
100	0xbc00a1e3	-0.007851097
101	0xbc7ea954	-0.015543301
102	0x3d3b0952	0.045663185
103	0x3c9234a5	0.017847368
104	0x3c6b1f73	0.01435076
105	0x3dbf08e7	0.0932787
106	0xbc772c4b	-0.015086244
107	0xbd4d4318	-0.050112814
108	0xbc3a49de	-0.01137015
109	0xbdc1843d	-0.094490506
110	0xbd704e8b	-0.058668654
111	0xbcd5a1ef	-0.026078193
112	0x3c70ab68	0.014689304
113	0x3ce255b8	0.027628765
114	0xbd45108b	-0.04811148
115	0xbc8804da	-0.016603876
116	0x3abc3778	0.0014359793
117	0x3c7fede8	0.015620686
118	0xbd46d1e7	-0.048540022
119	0xbccf30cf	-0.025291828
120	0xbca3c8a9	-0.019993143
121	0xbc7d28a3	-0.015451583
122	0xbba636e1	-0.00507246
123	0x3d023bcf	0.03179532
124	0x3c2b0b3e	0.010439692
125	0x3cf20cf4	0.029547192
126	0xbc525c88	-0.012839444
127	0x3c9a656f	0.018847195
128	0x3aa8472f	0.0012838597
129	0xbc62e736	-0.01384907
130	0xbd68019e	-0.056642167
131	0x3ccdeff8	0.02513884
132	0xbd6571f9	-0.056016896
133	0x3c092f95	0.008373161
134	0xbd84b4b8	-0.06479782
135	0xbc18f22f	-0.009335085
136	0x3d998fda	0.07498141
137	0xbd552bef	-0.05204385
138	0x3c9d45e4	0.019198366
139	0xbd89affb	-0.06723019
140	0xbcaeeaf8	-0.021352276
141	0x3d72e951	0.05930454
142	0x3ce4482f	0.027866451
143	0xbdd15093	-0.102204464
144	0xbc6d11be	-0.014469562
145	0x3afa0380	0.0019074529
146	0xbc0dd917	-0.008657715
147	0xbcb12972	-0.021626208
148	0xbcb98aed	-0.022649253
149	0xbd511a05	-0.051050205
150	0x3c365332	0.011128234
151	0x3d9edac8	0.07756573
152	0x3c0d3118	0.008617662
153	0x3c5fe12d	0.013664526
154	0x3d2f8aef	0.042857107
155	0x3d5c5d4b	0.05379991
156	0x3c055ce1	0.00813982
157	0x3c1ad489	0.009450086
158	0xbd2afa46	-0.041742586
159	0xbce1e589	-0.027575271
160	0x3bf3f117	0.0074445116
161	0x3cb93c6b	0.022611817
162	0xbcbbeb7d	-0.022939438
163	0xbcd253b1	-0.025674673
164	0x3d085057	0.033279743
165	0xbbdcab51	-0.0067342897
166	0xbb659bc5	-0.0035035473
167	0xbc25d815	-0.010122319
168	0x3c866702	0.01640654
169	0xbc5c206e	-0.013435466
170	0x3c2fcc37	0.010729841
171	0x3bbf02cc	0.005829191
172	0xbd45b398	-0.048266977
173	0x3d7a25c5	0.061071176
174	0xbcd39e09	-0.025832193
175	0x3ca01cba	0.019544948
176	0xbd1974af	-0.037464794
177	0xbd0d8a58	-0.034555763
178	0x3dbc511f	0.0919516
179	0xbdbcac0a	-0.09212501
180	0x3dbcecdd	0.092248656
181	0x3d3fc652	0.046819992
182	0x3d656c51	0.0560115
183	0x3c76632a	0.015038291
184	0x3c5b2df7	0.013377658
185	0xba93f0ef	-0.0011287014
186	0x3cfbee11	0.030753167
187	0x39f4b496	0.00046673854
188	0x3cd13b16	0.02554087
189	0xbd224744	-0.039618745
190	0xbcaf971b	-0.021434357
191	0xbc8915b5	-0.016733984
192	0xbce1b928	-0.02755411
193	0xbd33145a	-0.04372058
194	0x3d3791ee	0.044816904
195	0x3a95b95e	0.0011423042
196	0xbc8f1e7c	-0.01747059
197	0x3de85827	0.11344939
198	0x3d1b406e	0.03790324
199	0x3d394085	0.045227546
200	0x3c293bef	0.010329231
201	0x3d5430c8	0.051804334
202	0xbc801a14	-0.015637435
203	0x3df1a22d	0.11798511
204	0x3d533023	0.05155958
205	0xbce6662c	-0.028124891
206	0xbc8bc7a3	-0.017062968
207	0x3d338449	0.04382733
208	0xbcdb96b1	-0.026805254
209	0x3d4fdbac	0.050746605
210	0x3d31d278	0.04341361
211	0xbd5297fc	-0.051414475
212	0xbcd426ae	-0.02589735
213	0xbd24c028	-0.040222317
214	0x3bd1245a	0.0063825073
215	0x3cc83461	0.024439039
216	0x3cacd163	0.021095937
217	0xbd033a00	-0.032037735
218	0xbdaafc6a	-0.083489254
219	0x3cdd730a	0.027032394
220	0xbc75276d	-0.014963013
221	0x3c0dde4b	0.008658956
222	0x3c1697a2	0.0091914255
223	0xbc5f865d	-0.013642875
224	0xbcac7e86	-0.021056425
225	0x3b131b90	0.0022446848
226	0x3d01fe8f	0.031736907
227	0xbc53e053	-0.012931901
228	0xbdc243c4	-0.094855815
229	0xbbf019d8	-0.0073272996
230	0x3d353163	0.044236552
231	0x3d224904	0.039620414
232	0x3c9fb264	0.019494243
233	0xbcc8daeb	-0.02451845
234	0xbd2190f6	-0.039444886
235	0xbd6a69ca	-0.057229795
236	0x3d0c6872	0.034279294
237	0x3c20fb74	0.009825576
238	0xbcc12803	-0.02357865
239	0x3c3809d5	0.011232813
240	0x3cc57a1f	0.024106083
241	0xbd956b35	-0.07295839
242	0x3c428ce0	0.0118744075
243	0xbd770dde	-0.06031596
244	0x3a0bf8fe	0.0005339532
245	0x3b459af6	0.0030152178
246	0xbd1d61ae	-0.038423233
247	0xbd5c0cc7	-0.053723123
248	0xbb5c4322	-0.003360935
249	0x3dc337ce	0.09532128
250	0x3d271e86	0.040800594
251	0xbd1b130b	-0.037859958
252	0xbd4e25da	-0.050329067
253	0x3d4b908f	0.04969841
254	0xbcbbc709	-0.022922056
255	0xbd04d9f9	-0.032434437

head_net.model.value_linear_layer_output.bias f4 [7]
0	0xba97a5de	-0.0011569818
1	0xbb084c5f	-0.0020797474
2	0x3b017aa1	0.001975693
3	0x3adffb37	0.0017088418
4	0xba3c5515	-0.0007184309
5	0x3aaedc46	0.0013340793
6	0xbb169e7f	-0.0022982655
