tutorials/AgileRL/models/DQN/lesson1_trained_agent.pt (torch, 749836 bytes, 44 tensors)

sample_input f4 [1, 2, 6, 7]
0.0 0.0 0.0 0.0 0.0 0.0 0.0 0.0
0.0 0.0 0.0 0.0 0.0 0.0 0.0 0.0
0.0 0.0 0.0 0.0 0.0 0.0 0.0 0.0
0.0 0.0 0.0 0.0 0.0 0.0 0.0 0.0
0.0 0.0 0.0 0.0 0.0 0.0 0.0 0.0
0.0 0.0 0.0 0.0 0.0 0.0 0.0 0.0
0.0 0.0 0.0 0.0 0.0 0.0 0.0 0.0
0.0 0.0 0.0 0.0 0.0 0.0 0.0 0.0
0.0 0.0 0.0 0.0 0.0 0.0 0.0 0.0
0.0 0.0 0.0 0.0 0.0 0.0 0.0 0.0
0.0 0.0 0.0 0.0
00000000: 0000 0000 0000 0000 0000 0000 0000 0000
00000010: 0000 0000 0000 0000 0000 0000 0000 0000
00000020: 0000 0000 0000 0000 0000 0000 0000 0000
00000030: 0000 0000 0000 0000 0000 0000 0000 0000
00000040: 0000 0000 0000 0000 0000 0000 0000 0000
00000050: 0000 0000 0000 0000 0000 0000 0000 0000
00000060: 0000 0000 0000 0000 0000 0000 0000 0000
00000070: 0000 0000 0000 0000 0000 0000 0000 0000
00000080: 0000 0000 0000 0000 0000 0000 0000 0000
00000090: 0000 0000 0000 0000 0000 0000 0000 0000
000000a0: 0000 0000 0000 0000 0000 0000 0000 0000
000000b0: 0000 0000 0000 0000 0000 0000 0000 0000
000000c0: 0000 0000 0000 0000 0000 0000 0000 0000
000000d0: 0000 0000 0000 0000 0000 0000 0000 0000
000000e0: 0000 0000 0000 0000 0000 0000 0000 0000
000000f0: 0000 0000 0000 0000 0000 0000 0000 0000
00000100: 0000 0000 0000 0000 0000 0000 0000 0000
00000110: 0000 0000 0000 0000 0000 0000 0000 0000
00000120: 0000 0000 0000 0000 0000 0000 0000 0000
00000130: 0000 0000 0000 0000 0000 0000 0000 0000
00000140: 0000 0000 0000 0000 0000 0000 0000 0000

encoder.model.encoder_conv_layer_1.weight f4 [128, 2, 4, 4]
0.1298027 -0.008153561 -0.13913916 0.09291586 -0.15817235 -0.16733317 -0.09174006 -0.054092035
0.09410413 0.11828499 0.09109427 -0.08571547 0.047712307 0.22784247 0.040358555 0.0043336493
0.02034471 -0.18440907 -0.16966581 0.14250411 -0.056040876 -0.026829796 -0.2876195 0.1733404
0.025150878 -0.1649666 -0.23592173 0.43922186 -0.049218122 -0.12923832 -0.3984512 0.024062205
-0.00432905 0.26851642 0.20892768 0.15703541 0.044378933 -0.06439765 0.188182 -0.10490785
0.028224435 -0.09872902 -0.06669289 -0.027374918 0.0529704 -0.026023036 -0.077012174 -0.099434435
-0.012021562 0.10100196 -0.25258717 -0.2301593 -0.1295589 0.08741909 0.041566223 0.26526496
-0.16356118 0.11855958 -0.069453865 0.07567502 0.002384961 -0.09270443 0.21559715 -0.057346523
0.3098204 -0.04661334 -0.060726505 0.1297865 0.09574939 0.3206984 -0.13957775 0.12317612
-0.12279191 0.06889185 0.11839759 -0.06320627 -0.19448312 -0.0905578 -0.10265978 0.16261987
-0.059217054 0.016021388 -0.16299535 -0.055758163 -0.19856744 -0.12493786 -0.20937091 -0.1891814
-0.04629655 0.07015598 -0.18061656 0.0849501 0.27250013 0.11195135 0.20163986 -0.2534177
-0.27047917 -0.19525324 0.17520556 0.0028524343 -0.13972563 -0.24676667 -0.08401331 0.19737048
-0.0023562922 -0.115896516 -0.29832634 0.1867362 -0.00582644 -0.124855384 -0.09078149 0.19312109
-0.12137536 -0.22327794 -0.01979417 -0.059269026 0.02480072 -0.2383508 -0.20776193 -0.12032222
-0.14994669 0.15768303 0.10503388 -0.0786054 0.18437311 -0.058961622 -0.030650834 -0.17253058
0.09766126 0.016021568 0.18439505 -0.07030977 0.10905719 -0.19426878 0.020508735 -0.017522514
-0.055828188 0.0134360725 -0.28547215 0.25783318 -0.17892295 0.117111854 0.13763213 -0.099639416
0.2558447 -0.054845873 -0.14075422 -0.104672335 0.24001986 0.24214698 -0.020499416 0.1953565
-0.22654566 0.15069345 0.3631159 0.16349731 -0.12376542 0.08714643 0.10808007 0.14745015
-0.15984488 0.0910379 0.23672947 0.042371485 0.087246336 0.06320814 0.07188541 -0.021854937
-0.04352329 -0.002449078 0.13418731 0.1639079 0.06278105 0.02470818 -0.11750742 0.02540288
-0.017549444 -0.049223676 -0.22964215 0.33489093 0.17261505 0.16606237 -0.16013817 -0.08274665
0.07686264 0.1372757 -0.11384725 -0.16265751 -0.12754625 0.09753574 -0.03777936 0.24107592
0.20155567 -0.11819418 -0.057296373 0.19213547 -0.20713934 0.003929802 -0.1206546 -0.023738392
0.1900369 0.040101998 -0.21629329 0.22405773 -0.012013793 -0.25574064 -0.082072824 0.00976042
-0.24033982 -0.08156053 0.085899055 0.11726861 -0.05871554 0.10453029 -0.06522634 -0.06555985
0.040396143 0.17901772 0.06526882 -0.10457562 0.115438454 0.1311405 0.089222886 0.22688006
-0.03797578 0.02047533 0.0816028 0.11410714 0.048434492 0.04362052 0.06272197 -0.13498877
0.13606802 0.10407433 0.30974308 -0.15391847 -0.23022828 0.02039818 -0.0045559634 0.15713759
0.04701372 -0.107678145 0.1445867 0.15742488 -0.162269 0.09341853 0.27135712 -0.13762377
-0.24105792 0.028582375 0.115641125 0.1597877 -0.27043587 0.30825898 -0.047912866 -0.1029266
00000000: 00eb 043e 8396 05bc 7f7a 0ebe ac4a be3d
00000010: eff7 21be 6359 2bbe 36e2 bbbd 9c8f 5dbd
00000020: abb9 c03d 673f f23d a28f ba3d 988b afbd
00000030: fb6d 433d 894f 693e 034f 253d 4901 8e3b
00000040: f3a9 a63c bbd5 3cbe e0bc 2dbe 99ec 113e
00000050: 1e8b 65bd 29ca dbbc dd42 93be 2580 313e
00000060: 3709 ce3c 01ed 28be 7795 71be b0e1 e03e
00000070: f198 49bd 0d57 04be cc01 ccbe 1a1e c53c
00000080: b4da 8dbb fc7a 893e 23f1 553e e4cd 203e
00000090: afc6 353d eae2 83bd c8b2 403e edd9 d6bd
000000a0: ee36 e73c 7132 cabd 4896 88bd 5d41 e0bc
000000b0: 7df7 583d 432e d5bc 8fb8 9dbd 48a4 cbbd
000000c0: 16f6 44bc 1eda ce3d 1b53 81be e1ae 6bbe
000000d0: 17ab 04be c808 b33d 5841 2a3d cfd0 873e
000000e0: 957c 27be 5dcf f23d d43d 8ebd 81fb 9a3d
000000f0: 014d 1c3b d2db bdbd 80c5 5c3e 30e4 6abd
00000100: c8a0 9e3e a1ed 3ebd 5bbc 78bd c1e6 043e
00000110: 4218 c43d 9532 a43e 78ed 0ebe c343 fc3d
00000120: 537a fbbd 2c17 8d3d 707a f23d 4a72 81bd
00000130: 9526 47be 5e76 b9bd 4a3f d2bd d385 263e
00000140: 958d 72bd 493f 833c 41e8 26be ac62 64bd
00000150: 4355 4bbe 6cdf ffbd 5465 56be c5b8 41be
00000160: 74a1 3dbd f0ad 8f3d 8cf3 38be 51fa ad3d
00000170: 2385 8b3e c046 e53d ae7a 4e3e f7bf 81be
00000180: 3f7c 8abe 77f0 47be 1669 333e e8ef 3a3b
00000190: 3c14 0fbe 67b0 7cbe 2c0f acbd 7d1b 4a3e
000001a0: 066c 1abb 275b edbd 3bbe 98be c637 3f3e
000001b0: b9eb bebb 2eb4 ffbd a5eb b9bd 89c1 453e
000001c0: a593 f8bd f9a2 64be 6227 a2bc 14c4 72bd
000001d0: e12a cb3c 3b12 74be 8bbf 54be 7f6b f6bd
000001e0: a08b 19be a977 213e 011c d73d defb a0bd
000001f0: 4ecc 3c3e be81 71bd 7517 fbbc dbab 30be
00000200: a002 c83d aa3f 833c 0ed2 3c3e 92fe 8fbd
00000210: 6059 df3d 65ee 46be ef01 a83c 608b 8fbc
00000220: 19ac 64bd f922 5c3c 6829 92be b602 843e
00000230: 9437 37be 57d8 ef3d 70ef 0c3e c00f ccbd
00000240: 14fe 823e 11a6 60bd e021 10be 735e d6bd
00000250: c4c7 753e 61f5 773e 64ee a7bc 890b 483e
00000260: 96fb 67be 624f 1a3e 54ea b93e d76b 273e
00000270: b978 fdbd d479 b23d 1559 dd3d 2cfd 163e
00000280: 60ae 23be 1472 ba3d 3669 723e b98d 2d3d
00000290: 35ae b23d 4573 813d a838 933d 2009 b3bc
000002a0: 7a45 32bd b680 20bb 6668 093e 79d7 273e
000002b0: 5a93 803d cf68 ca3c bba7 f0bd b319 d03c
000002c0: dac3 8fbc c49e 49bd 5027 6bbe d376 ab3e
000002d0: 00c2 303e 410c 2a3e 43fb 23be 1377 a9bd
000002e0: 296a 9d3d 0092 0c3e bf28 e9bd b18f 26be
000002f0: 7c9b 02be d1c0 c73d 88be 1abd 9bdc 763e
00000300: 9c64 4e3e ca0f f2bd 9aaf 6abd 29bf 443e
00000310: 561c 54be 92c5 803b c219 f7bd 0477 c2bc
00000320: 0899 423e fe41 243d fd7b 5dbe 646f 653e
00000330: 80d5 44bc 70f0 82be cc15 a8bd 2bea 1f3c
00000340: a41b 76be 3509 a7bd d8eb af3d 862a f03d
00000350: b57f 70bd fa13 d63d 6395 85bd 3e44 86bd
00000360: 6d76 253d 6c50 373e a9ab 853d be2b d6bd
00000370: ff6a ec3d b249 063e 7dba b63d 3f53 683e
00000380: 7e8c 1bbd e1bb a73c 5e1f a73d 01b1 e93d
00000390: 3f63 463d 6eab 323d 6074 803d 7f3a 0abe
000003a0: 6a55 0b3e ec24 d53d a596 9e3e ce9c 1dbe
000003b0: f6c0 6bbe 151a a73c 314a 95bb ade8 203e
000003c0: 7591 403d 5c86 dcbd 890e 143e fd33 213e
000003d0: d829 26be 3752 bf3d 52ef 8a3e 3fed 0cbe
000003e0: e3d7 76be 9625 ea3c 41d5 ec3d 639f 233e
000003f0: 9276 8abe 1fd4 9d3e 4840 44bd 2ecb d2bd

encoder.model.encoder_conv_layer_1.bias f4 [128]
0.00048367574 -0.00041449416 -0.0005780381 0.001189022 -0.0012394651 -0.00077342393 -0.00097033667 -0.000978905
0.00033862027 -0.0013764412 0.0005240159 -0.0009954493 -0.00023598345 -0.0025548004 0.0011927355 -0.0013400636
-0.00033646257 -0.0010358955 -0.0013546374 -0.000985843 -0.0017097704 -9.940428e-05 0.0013874013 0.0013816208
-0.0007488046 -0.0017756281 0.00056271005 -0.0006795238 -0.0009806314 5.350313e-05 -0.0010470055 -0.0010560371
-0.0020079166 -0.0024073473 0.00015008665 -0.0020665966 -0.0017203705 -0.0007217993 0.0014813804 0.0003492801
-0.0019736094 -0.00044645063 -0.00057009945 -5.378622e-06 -0.00094993814 -0.000638705 -0.001174667 -0.0006185751
-1.8544677e-05 -0.0016052871 0.0011184314 -0.00082369184 -0.0016665255 -0.00022718028 -0.0013441116 0.00036317832
-0.0011131313 -0.0020754258 -0.001521002 -0.0010895084 -0.00026671632 0.00083679863 -0.0013780217 -0.0011680315
-0.0010889457 -0.0013196863 -0.0008316784 -0.0010877559 -0.00042804194 -0.0009474529 0.0014326153 0.0014639128
-0.0017386113 -2.6723752e-05 -0.000109522785 -0.0013341396 -0.00048145247 -0.0009637632 -9.668197e-05 -0.0018817113
-6.4421033e-06 -0.000341181 -0.00081656536 -0.0009871108 -0.0018072604 -0.0009907697 -0.0019565802 -0.0012383601
-0.0004995225 -0.00071866956 -0.00027359292 -0.0017750413 0.0005038666 -0.0014905484 -0.0011764744 -0.0019171094
0.0012198512 -0.0014401514 -0.0027423173 -0.0008489948 -0.00041311662 -0.0018259378 -0.0028273314 -0.00095437333
0.0008807255 -0.0010464479 0.00016603731 -0.0010415675 -0.0006971197 -0.0015866597 -0.00064390904 -0.0012061899
0.001327491 0.0001956012 -0.0016742975 1.033502e-05 -0.00038772638 -0.002575361 0.0014295105 -0.0007536128
-0.0011883216 -0.0011951815 -0.0011246436 -0.001404763 -0.00076582324 0.00037032145 -0.0007765782 -0.0010398945
00000000: dc95 fd39 7750 d9b9 7b87 17ba f5d8 9b3a
00000010: 8c75 a2ba 9abf 4aba 315e 7eba 9a4e 80ba
00000020: d888 b139 b469 b4ba 1d5e 093a bc79 82ba
00000030: 5372 77b9 706e 27bb 9055 9c3a 13a5 afba
00000040: 3e67 b0b9 e3c6 87ba 178e b1ba 6737 81ba
00000050: 601a e0ba 4477 d0b8 76d9 b53a 8017 b53a
00000060: 6d4b 44ba 31bc e8ba d582 133a 1222 32ba
00000070: 8888 80ba 8c68 6038 ad3b 89ba ba6a 8aba
00000080: 4097 03bb 96c4 1dbb 9460 1d39 bd6f 07bb
00000090: 0e7e e1ba 2237 3dba e12a c23a 951f b739
000000a0: ac57 01bb 9711 eab9 ba72 15ba 037a b4b6
000000b0: 4505 79ba c46e 27ba 49f7 99ba df27 22ba
000000c0: 6490 9bb7 7f68 d2ba 5598 923a 06ed 57ba
000000d0: 516f daba 3e37 6eb9 e72c b0ba f868 be39
000000e0: 7de6 91ba de03 08bb 5c5c c7ba d6cd 8eba
000000f0: 0fd6 8bb9 9b5c 5b3a bc9e b4ba a218 99ba
00000100: f4ba 8eba 53f9 acba fe04 5aba 0893 8eba
00000110: d16a e0b9 7d5e 78ba 98c6 bb3a c3e0 bf3a
00000120: 1de2 e3ba d22c e0b7 99af e5b8 4cde aeba
00000130: 756b fcb9 0ea5 7cba bdc1 cab8 c1a3 f6ba
00000140: 3f29 d8b6 8ae0 b2b9 c60e 56ba f161 81ba
00000150: 99e1 ecba b7dc 81ba f839 00bb 7850 a2ba
00000160: 63f2 02ba 1965 3cba 0571 8fb9 81a8 e8ba
00000170: ea15 043a 815e c3ba ee33 9aba 8447 fbba
00000180: 6ae3 9f3a 76c3 bcba 73b8 33bb 148f 5eba
00000190: 9397 d8b9 4e54 efba c04a 39bb e92e 7aba
000001a0: 7de0 663a f728 89ba 4d1a 2e39 3585 88ba
000001b0: e9be 36ba 77f7 cfba 01cc 28ba 0419 9eba
000001c0: 35ff ad3a 4c1a 4d39 1a74 dbba 9364 2d37
000001d0: c147 cbb9 63c7 28bb 6a5e bb3a 198e 45ba
000001e0: 75c1 9bba a3a7 9cba c768 93ba 0620 b8ba
000001f0: 87c1 48ba b427 c239 4893 4bba 124d 88ba

encoder.model.encoder_linear_output.weight f4 [32, 1536]
-0.0034092602 -0.0056994343 -0.026435643 0.014024169 -0.020683484 -0.0022248868 -0.016897023 -0.019971795
-0.028097095 -0.016212754 -0.024735112 -0.042541783 0.02598625 0.013754408 -0.026770221 -0.026752962
0.029009819 0.014267516 0.010957604 0.003444298 0.0002225057 -0.016161408 -0.045334294 -0.009152572
-0.03566824 -0.013872301 0.00034492614 0.012688693 -0.0026375514 0.008659829 -0.024258576 -0.033823594
-0.0037237809 0.00089826476 -0.005520311 0.033597637 -0.006706911 -0.028797552 -0.009398268 0.012197195
-0.0013383224 -0.01787073 0.014273985 0.002290765 -0.02190572 0.027643511 -0.0050524664 -0.013053262
0.0125736 0.047970816 -0.0014787994 0.011589701 0.011380241 -0.029091218 -0.012684702 0.0060622245
-0.03836046 0.0012132765 0.017447708 -0.015184194 -0.018323556 -0.03592327 0.0028129742 -0.00014674816
-0.0019089744 0.017270984 -0.010667516 -0.008673253 0.017640948 -0.017625747 -0.012903544 0.0052042017
-0.00970888 -0.029697228 -0.030513324 0.01708093 0.015673235 -0.018270208 -0.009368061 -0.0081639625
-0.010209262 0.0073058843 -0.0065747616 0.024460148 0.0148789715 0.0004902986 -0.014435686 -0.012982178
2.171044e-05 -0.014455633 -0.026535518 0.008940016 -0.011342981 -0.024943184 0.021041377 -0.003909031
-0.007234329 0.023451626 -0.012706751 -0.01197975 0.0038063282 0.0034265467 -0.012992037 -0.0011736767
0.031241506 0.020494176 0.002925825 -0.00055827724 0.017691463 -0.001235139 0.017473796 -0.0030470814
0.00825716 -0.014668595 0.0021474797 -0.00390964 -0.0008898159 0.008807076 -0.0064581116 -0.024598181
-0.010768166 0.027929483 0.0054914583 0.0055361157 -0.012768247 -0.010299447 -0.013315084 0.036062755
0.0023180402 -0.02106099 0.021141106 0.03420394 -0.00396107 0.009767719 -0.02462568 0.008826383
0.045367893 -0.013818618 0.0066656917 -0.040696464 0.027019385 0.019031493 -0.036903154 -0.0013807175
-0.054945324 -0.004397772 -0.006149557 0.0070214495 -0.005233602 0.017189143 -0.009054244 0.004017653
-0.03510023 -0.023519779 0.005932822 -0.0050741257 0.0124634225 -0.010304571 0.012133287 -0.0036803512
-0.01977506 0.008730915 0.0136322025 0.019005746 0.02088959 -0.017188048 0.025117656 0.020969948
0.034348663 -0.005019007 -0.019825146 0.012097689 0.012710596 0.012673328 0.012994633 -0.035244778
0.0017041247 0.01282357 0.031239705 0.0291259 -0.004952651 -0.00019697774 0.0218766 0.008275315
0.036448877 -0.0029471864 0.00830881 0.00054414663 -0.03991015 0.009718943 0.016909845 -0.010677892
0.017595418 -0.010626477 -0.026356306 0.011069531 -0.026586043 -0.016809339 -0.0075047016 -0.016941782
0.018954601 -0.01558013 -0.02983151 -0.01223056 0.012859462 -0.0020970337 0.017496966 0.01547272
0.0054184757 -0.009212788 -0.010267172 -0.02686321 -0.040472127 0.0058865747 -0.018603778 -0.003346831
0.018301163 0.019933803 -0.0056109955 0.008223557 0.017314183 -0.007900411 -0.018226368 0.011233152
-0.045826055 0.035798807 0.015578485 -0.0052611474 0.012559007 0.011489538 0.0161991 0.0029951655
0.014189967 -0.0120386435 0.0039369673 -0.010859202 -0.039109528 -0.0040323636 -0.033835806 -0.014089861
-0.0009213201 0.013325877 -0.040201493 0.0019484464 0.010208776 -0.008997831 -0.02634014 -0.014873276
0.0062396456 -0.029667763 -0.02401277 0.015365322 -0.004577647 -0.0025677062 0.0012683992 0.003373695
00000000: e56d 5fbb 52c2 babb 908f d8bc a1c5 653c
00000010: 6970 a9bc 68cf 11bb a06b 8abc e49b a3bc
00000020: e12b e6bc 9cd0 84bc 4aa1 cabc 4b40 2ebd
00000030: 1ee1 d43c 2b5a 613c 394d dbbc 0729 dbbc
00000040: 00a6 ed3c 4dc2 693c 8687 333c bbb9 613b
00000050: 6b50 6939 ee64 84bc 74b0 39bd abf4 15bc
00000060: dc18 12bd a648 63bc 34d7 b439 3ce4 4f3c
00000070: c5da 2cbb f5e1 0d3c ecb9 c6bc 9c8a 0abd
00000080: ad0a 74bb 8779 6b3a bae3 b4bb ad9d 093d
00000090: a6c5 dbbb d8e8 ebbc 31fb 19bc bed6 473c
000000a0: a66a afba a365 92bc 6fdd 693c a920 163b
000000b0: a073 b3bc a574 e23c 298f a5bb 59dd 55bc
000000c0: 8001 4e3c 0c7d 443d 46d4 c1ba bbe2 3d3c
000000d0: 3174 3a3c b550 eebc 7fd3 4fbc a0a5 c63b
000000e0: dc1f 1dbd ce06 9f3a 7fee 8e3c 20c7 78bc
000000f0: 481b 96bc 4724 13bd e059 383b 69e0 19b9
00000100: 8d36 faba e17b 8d3c cec6 2ebc 421a 0ebc
00000110: c083 903c df63 90bc 6369 53bc 0288 aa3b
00000120: ff11 1fbc 9a47 f3bc 14f7 f9bc 4eed 8b3c
00000130: 2865 803c 67ab 95bc 7f7c 19bc 24c2 05bc
00000140: c044 27bc 3366 ef3b 1971 d7bb a660 c83c
00000150: eec6 733c 6287 003a a883 6cbc 33b3 54bc
00000160: d11e b637 52d7 6cbc 0461 d9bc 2579 123c
00000170: e9d7 39bc a655 ccbc f75e ac3c 5417 80bb
00000180: f30d edbb a01d c03c fa2f 50bc b746 44bc
00000190: 9773 793b ea8f 603b 8edc 54bc 0ed6 99ba
000001a0: 30ee ff3c 67e3 a73c 33bf 3f3b 5a59 12ba
000001b0: b0ed 903c 63e4 a1ba 3525 8f3c 8bb1 47bb
000001c0: 0a49 073c 8c54 70bc bbbc 0c3b 701c 80bb
000001d0: 8942 69ba 8e4b 103c 919e d3bb 2082 c9bc
000001e0: f66c 30bc 5fcc e43c b1f1 b33b 4e68 b53b
000001f0: e931 51bc 03bf 28bc 8327 5abc 8ab6 133d
00000200: 43ea 173b 1988 acbc 1d30 ad3c 6e19 0c3d
00000210: ddcb 81bb c808 203c cbbb c9bc 899c 103c
00000220: afd3 393d 7c67 62bc e06b da3b 56b1 26bd
00000230: c257 dd3c efe7 9b3c c327 17bd 31f9 b4ba
00000240: 590e 61bd 2f1b 90bb 3982 c9bb 3014 e63b
00000250: a37e abbb 3fd0 8c3c 4058 14bc 84a6 833b
00000260: 42c5 0fbd 8dac c0bc 1e68 c23b da44 a6bb
00000270: 6233 4c3c 81d4 28bc b2ca 463c 0c32 71bb
00000280: 4eff a1bc 1d0c 0f3c 9a59 5f3c f0b1 9b3c
00000290: a520 ab3c f3cd 8cbc 8bc3 cd3c 2bc9 ab3c
000002a0: 2fb1 0c3d 7b76 a4bb 5868 a2bc 6335 463c
000002b0: 1b40 503c caa3 4f3c 71e7 543c d45c 10bd
000002c0: f05c df3a f319 523c 69ea ff3c 7099 ee3c
000002d0: d949 a2bb cf8b 4eb9 8e36 b33c 3095 073c
000002e0: 6b4b 153d 9525 41bb ad21 083c 10a5 0e3a
000002f0: d378 23bd 343c 1f3c 8486 8a3c 53f2 2ebc
00000300: 4424 903c ad1a 2ebc 2ee9 d7bc fa5c 353c
00000310: f9ca d9bc bdb3 89bc 00ea f5bb 7ec9 8abc
00000320: ae46 9b3c cd43 7fbc 3661 f4bc b062 48bc
00000330: 7eb0 523c 636e 09bb cc55 8f3c 4b81 7d3c
00000340: 788d b13b 3cf1 16bc a437 28bc 3c10 dcbc
00000350: 1ac6 25bd 2be4 c03b f366 98bc 8256 5bbb
00000360: 52ec 953c 374c a33c 71dc b7bb 19bc 063c
00000370: 79d6 8d3c ba70 01bc 774f 95bc 410b 383c
00000380: 1ab4 3bbd c5a1 123d e73c 7f3c b465 acbb
00000390: 4bc4 4d3c 9d3e 3c3c fab3 843c 8a4a 443b
000003a0: 097d 683c bb3d 45bc ad01 813b cbea 31bc
000003b0: 5031 20bd eb21 84bb 6a97 0abd 29d9 66bc
000003c0: bf84 71ba c754 5a3c 52aa 24bd 0363 ff3a
000003d0: b642 273c a36b 13bc 47c7 d7bc 0baf 73bc
000003e0: f175 cc3b cf09 f3bc 6eb6 c4bc d5be 7b3c
000003f0: 1600 96bb f646 28bb 6a40 a63a 3619 5d3b

encoder.model.encoder_linear_output.bias f4 [32]
-0.00036837155 0.00078839617 0.017090293 0.006361708 -0.009751419 -0.018032469 -0.017434616 -0.003804633
0.008782776 -0.008040905 0.01452757 0.0011041104 0.005979423 0.010105155 0.012376634 1.2708885e-05
0.01701147 -0.010161116 0.0056705256 -0.017360393 0.013015079 0.013964717 -0.0011782678 0.012677436
0.004625091 -0.008618861 0.004052518 0.015877075 -0.020635094 0.013944408 0.0068900734 0.0009212771
00000000: fe21 c1b9 5fac 4e3a f100 8c3c e075 d03b
00000010: 6ac4 1fbc d4b8 93bc 0ad3 8ebc 2657 79bb
00000020: a2e5 0f3c 00be 03bc 0c05 6e3c ccb7 903a
00000030: 09ef c33b 1890 253c 5ec7 4a3c 3f38 5537
00000040: a35b 8b3c cf7a 26bc d1cf b93b 6237 8ebc
00000050: 333d 553c 45cc 643c 1b70 9aba 05b5 4f3c
00000060: 138e 973b 2036 0dbc fcca 843b a410 823c
00000070: ee0a a9bc 1677 643c 20c6 e13b dc81 713a

head_net.model.value_linear_layer_1.weight f4 [64, 32]
-0.036587764 -0.04338032 -0.40305057 -0.17372636 0.035930496 0.3182636 0.23227769 0.12175813
-0.050038673 0.07436587 0.19922924 0.2042526 -0.10977121 -0.2568407 -0.283124 -0.18722577
-0.05706242 -0.021228366 0.095035605 0.34820724 0.026364563 -0.17201866 0.088927396 0.3025843
0.003911655 -0.14716992 0.13744915 -0.18220307 -0.1603062 0.00035814336 -0.2129422 0.29621333
0.10291054 -0.074887976 0.13144669 -0.03203524 -0.17095377 -0.17858037 -0.1313025 -0.063868746
-0.024058217 -0.03349147 -0.030350229 -0.094762184 0.17628792 -0.32569888 -0.1891305 -0.04419204
-0.3361241 0.42571333 0.20370902 -0.2508459 -0.27949032 -0.017326174 0.2061458 -0.22833936
0.07765255 -0.14560324 -0.2982635 -0.16011962 -0.1674315 -0.0892511 -0.18818198 0.08491044
0.17019543 0.11458765 -0.043601647 -0.20387328 0.0034525022 0.008074784 -0.120224126 0.158776
0.25811327 -0.04334164 -0.22697222 0.11703804 -0.10507458 -0.07537116 0.041388247 -0.3364173
-0.021016873 0.15967868 0.057527572 -0.13704932 -0.19501038 0.3711825 -0.08769493 0.12284769
0.315318 -0.2424285 0.054125845 0.027383655 0.14574918 0.10967029 -0.21557939 0.014395869
0.35888377 -0.37367645 -0.3319867 0.096664846 0.0060120802 0.04920866 0.11723838 -0.008407185
0.26912555 -0.05336208 -0.14002486 -0.115140066 -0.2412756 0.03744341 0.034796447 0.33324218
-0.0578045 -0.01003989 0.20143935 -0.036071733 -0.15854226 0.11106571 0.024589578 0.3344964
0.13812868 0.34317702 0.091198556 -0.07292536 -0.14131737 0.16830195 0.031515107 -0.01784637
-0.15567409 0.19802308 0.019334642 -0.26487124 -0.1286485 -0.1430093 0.0076426365 -0.138862
-0.25191396 0.21286187 -0.07973479 0.17030041 0.19558965 0.08046226 -0.036635794 0.20401296
-0.34360912 -0.08531679 -0.22820902 0.033866055 -0.12032492 0.2716454 0.15941432 0.070139736
-0.06684643 -0.025906455 0.23438492 0.1013523 -0.14773288 -0.3620083 -0.015844071 0.03451691
-0.16387993 -0.13110603 -0.48060414 -0.24420443 0.11821205 -0.09754079 -0.36285216 -0.13927639
0.10074942 0.054096065 -0.1180124 0.15731868 -0.0313692 -0.06465443 0.018556325 0.32946852
0.27191055 -0.030931348 0.103625454 0.04909076 0.0581958 0.13047904 -0.19476934 -0.029546537
0.0608214 0.23767884 -0.24387743 -0.09154559 0.005455628 0.034789853 0.15205505 0.22495623
0.011761458 -0.30290362 0.10791735 -0.20838794 -0.068458244 0.2386804 -0.061532743 0.3128084
-0.09641581 -0.3088127 -0.025758196 -0.15944989 -0.018425329 0.15589924 0.041871395 0.09061575
0.34654796 -0.14625363 0.2694474 0.043185197 -0.032909628 0.041884903 0.38150975 -0.074347146
-0.06688952 -0.045943607 0.023079144 -0.045713037 0.06231304 -0.11433386 -0.19747828 0.04928443
0.1488606 0.19618732 -0.051173877 0.043146446 0.26556912 0.0049982863 0.09603268 -0.40927526
-0.09712454 -0.26634422 -0.19038391 0.11362127 -0.015812932 -0.10756782 0.037243247 0.0034805587
-0.113867715 -0.03072617 0.016296288 -0.15653804 0.13593096 0.20056204 0.166729 0.21706676
-0.32546324 0.1270935 0.061622832 -0.08144605 -0.18210615 0.20770885 -0.17562288 0.056391377
00000000: 0ddd 15bd 90af 31bd a55c cebe 53e5 31be
00000010: db2b 133d 72f3 a23e 34da 6d3e 545c f93d
00000020: 5af5 4cbd 224d 983d c002 4c3e 9827 513e
00000030: bacf e0bd a080 83be a1f5 90be 1db8 3fbe
00000040: 49ba 69bd 1ce7 adbc 07a2 c23d 3848 b23e
00000050: 7ffa d73c a925 30be 911f b63d 54ec 9a3e
00000060: 572d 803b b6b3 16be 78bf 0c3e 7193 3abe
00000070: 4f27 24be 30c5 bb39 850d 5abe 46a9 973e
00000080: c3c2 d23d de5e 99bd f699 063e 6237 03bd
00000090: 810e 2fbe c6dd 36be 2a74 06be 9ecd 82bd
000000a0: bd15 c5bc 5a2e 09bd 0ba1 f8bc ad12 c2bd
000000b0: d284 343e 01c2 a6be 6dab 41be b602 35bd
000000c0: 7518 acbe 19f7 d93e 1999 503e e06e 80be
000000d0: 5b19 8fbe 9fef 8dbc e217 533e cbd1 69be
000000e0: 4d08 9f3d 0419 15be feb5 98be 66f6 23be
000000f0: 2a73 2bbe 48c9 b6bd c7b2 40be 86e5 ad3d
00000100: b647 2e3e eeac ea3d a497 32bd 28c4 50be
00000110: 6043 623b 194c 043c 1138 f6bd 2d96 223e
00000120: 6c27 843e 0187 31bd 686b 68be a4b1 ef3d
00000130: 5731 d7bd 325c 9abd b986 293d e33e acbe
00000140: 942b acbc cf82 233e 08a2 6b3d a856 0cbe
00000150: cdb0 47be a20b be3e 6699 b3bd 9297 fb3d
00000160: 5c71 a13e 2d3f 78be 10b3 5d3d b053 e03c
00000170: 463f 153e d19a e03d d8c0 5cbe a7dc 6b3c
00000180: 9dbf b73e 8552 bfbe 29fa a9be 38f8 c53d
00000190: fc00 c53b 058f 493d ad1a f03d 4abe 09bc
000001a0: d3ca 893e 3292 5abd ad62 0fbe 8ece ebbd
000001b0: f310 77be 435e 193d b886 0e3d b89e aa3e
000001c0: 69c4 6cbd 5a7e 24bc 1e46 4e3e f4bf 13bd
000001d0: e758 22be 6b76 e33d 1570 c93c 1d43 ab3e
000001e0: 9b71 0d3e e6b4 af3e 4fc6 ba3d e459 95bd
000001f0: 80b5 10be 5957 2c3e fc15 013d 8d32 92bc
00000200: 0769 1fbe 90c6 4a3e af63 9e3c 349d 87be
00000210: 6fbc 03be 0871 12be 156f fa3b d731 0ebe
00000220: defa 80be 76f8 593e fe4b a3bd 3b63 2e3e
00000230: a748 483e 66c9 a43d 6a0f 16bd c6e8 503e
00000240: 89ed afbe 92ba aebd a0af 69be 22b7 0a3d
00000250: e96c f6bd 1b15 8b3e 823d 233e 6ca5 8f3d
00000260: c8e6 88bd c639 d4bc 9a02 703e cb91 cf3d
00000270: 4a47 17be 2759 b9be 6dcb 81bc 9a61 0d3d
00000280: 24d0 27be a940 06be bf11 f6be ba10 7abe
00000290: 2919 f23d 77c3 c7bd c2c7 b9be 789e 0ebe
000002a0: b655 ce3d d693 5d3d 7cb0 f1bd 2618 213e
000002b0: fe7c 00bd 8b69 84bd 6f03 983c 19b0 a83e
000002c0: dc37 8b3e bd63 fdbc 9539 d43d 6513 493d
000002d0: b85e 6e3d 4c9c 053e 9d71 47be 940b f2bc
000002e0: dc1f 793d 1562 733e 01bb 79be 417c bbbd
000002f0: 20c5 b23b ce7f 0e3d 52b4 1b3e ed5a 663e
00000300: 21b3 403c 2f16 9bbe c603 dd3d a663 55be
00000310: d633 8cbd a368 743e c209 7cbd 6c28 a03e
00000320: a775 c5bd b31c 9ebe da02 d3bc d546 23be
00000330: b7f0 96bc 0da4 1f3e 5781 2b3d c094 b93d
00000340: bc6e b13e 83c3 15be 02f5 893e f6e2 303d
00000350: 3fcc 06bd 818f 2b3d 3f55 c33e 5143 98bd
00000360: 5ffd 88bd 5d2f 3cbd 7910 bd3c 983d 3bbd
00000370: f53b 7f3d df27 eabd bf37 4abe 78de 493d
00000380: ea6e 183e 54e5 483e b39b 51bd 54ba 303d
00000390: adf8 873e aac8 a33b c8ac c43d 878c d1be
000003a0: 3be9 c6bd 455e 88be 00f4 42be 45b2 e83d
000003b0: 1f8a 81bc 844c dcbd 608c 183d 161a 643b
000003c0: 7a33 e9bd 73b5 fbbc cb7f 853c 824b 20be
000003d0: 7c31 0b3e 2360 4d3e 02bb 2a3e c046 5e3e
000003e0: 1ea3 a6be cc24 023e 3968 7c3d 30cd a6bd
000003f0: 097a 3abe a1b1 543e 7cd6 33be a5fa 663d

head_net.model.value_linear_layer_1.bias f4 [64]
0.027091617 0.010153581 0.0013359638 0.0054985317 0.0082617365 0.0012365294 0.0035219686 0.00019474092
0.0033776567 0.002479981 -0.0061905496 0.0038671661 -0.0009963646 0.005838949 0.0055072284 0.015294155
0.008144335 0.00081351446 -0.0020703846 0.007225223 0.0024490245 0.025999393 0.0017652644 -0.0025132704
-0.0015959024 0.003935045 -4.8897462e-05 -0.0032208874 -0.0008466015 0.008618053 0.0024424877 0.0070034633
-0.008486544 0.010884987 0.023173204 -0.0034154544 0.002126465 0.0049089747 0.019905536 0.0034591786
0.005926658 0.0016697961 0.0005616146 -0.0016036339 0.0018969696 0.005898199 0.007003055 -0.00011669795
0.0014531695 0.011598505 0.012678609 0.0068642134 0.00318781 -0.0020936402 -0.00015786804 0.014079834
0.012157285 -0.0008727566 -0.0025125095 0.0007476677 -0.0039430046 -0.0041656927 0.006745127 0.010741569
00000000: 3def dd3c 355b 263c 821b af3a 072d b43b
00000010: 3c5c 073c 0b13 a23a d4d0 663b 5e33 4c39
00000020: ad5b 5d3b 2d87 223b 18da cabb 4870 7d3b
00000030: 7398 82ba a754 bf3b fb75 b43b 5694 7a3c
00000040: d16f 053c 0842 553a 4aaf 07bb 90c1 ec3b
00000050: d07f 203b aefc d43c 7260 e73a aeb5 24bb
00000060: 992d d1ba 8df1 803b 4017 4db8 8615 53bb
00000070: 77ee 5dba bc32 0d3c 2512 203b 4f7d e53b
00000080: 250b 0bbc f256 323c bbd5 bd3c d1d5 5fbb
00000090: 2a5c 0b3b 77db a03b ef10 a33c 63b3 623b
000000a0: 6934 c23b 0fdd da3a 5139 133a 0631 d2ba
000000b0: bda3 f83a ae45 c13b e279 e53b bcbb f4b8
000000c0: 4778 be3a a807 3e3c f1b9 4f3c 32ed e03b
000000d0: 94ea 503b 7435 09bb 6189 25b9 1baf 663c
000000e0: 592f 473c b4c9 64ba eaa8 24bb 21ff 433a
000000f0: 5234 81bb 5d80 88bb 3a06 dd3b 68fd 2f3c

head_net.model.value_layer_norm_1.weight f4 [64]
0.97595507 0.95717746 0.9907118 1.0130512 0.9833814 1.0197691 1.0219502 0.99698216
0.98066026 0.99032277 0.9932114 0.9544844 0.9957823 0.96509624 0.9977919 0.97541165
0.9820527 1.0271726 0.9950346 0.9885754 0.9945723 0.9781554 1.01852 0.9989944
0.99685967 0.9880391 1.0068707 0.9989516 1.0211262 0.96269363 1.0106604 0.9843683
0.9943079 0.99426615 0.9872208 0.9869683 1.0315243 0.9774303 0.9808856 1.0548917
1.012825 0.9979788 1.018064 0.99049914 0.97538686 1.0169247 0.9441708 0.9996896
0.9877807 0.95598656 0.9647393 0.9995327 0.99670535 0.99262136 1.0297376 1.0067968
0.96611875 0.99511486 0.99668616 1.0005945 1.0022799 0.988591 1.0093441 0.98073363
00000000: 31d8 793f 9509 753f 4a9f 7d3f a9ab 813f
00000010: e2be 7b3f cb87 823f 44cf 823f 393a 7f3f
00000020: 8d0c 7b3f cb85 7d3f 1a43 7e3f 1759 743f
00000030: 97eb 7e3f 8c10 773f 4a6f 7f3f 94b4 793f
00000040: ce67 7b3f 647a 833f 96ba 7e3f 4713 7d3f
00000050: 4a9c 7e3f 6468 7a3f dd5e 823f 19be 7f3f
00000060: 3232 7f3f 21f0 7c3f 24e1 803f 4bbb 7f3f
00000070: 43b4 823f 1773 763f 525d 813f 90ff 7b3f
00000080: f68a 7e3f 3a88 7e3f 81ba 7c3f f4a9 7c3f
00000090: fd08 843f df38 7a3f 521b 7b3f b106 873f
000000a0: 40a4 813f 8a7b 7f3f ec4f 823f 5a91 7d3f
000000b0: f4b2 793f 972a 823f 2db5 713f a8eb 7f3f
000000c0: 32df 7c3f 89bb 743f 28f9 763f 60e1 7f3f
000000d0: 1528 7f3f 6f1c 7e3f 71ce 833f b8de 803f
000000e0: 8f53 773f d9bf 7e3f d326 7f3f 7b13 803f
000000f0: b54a 803f 4d14 7d3f 3032 813f 5c11 7b3f

head_net.model.value_layer_norm_1.bias f4 [64]
-0.030379776 -0.049296018 -0.0045519373 -0.010601482 -0.019197037 -0.008952246 -0.0005550208 -0.0040221172
-0.03110148 -0.0058598816 -0.007631258 -0.03762287 -0.008448001 -0.034096614 -0.0030408949 -0.026767364
-0.037481528 -0.004105117 -0.007207521 -0.02129889 -0.008030799 -0.036018554 -0.0029482255 -0.008470379
-0.0069433856 -0.0051797233 -0.008408883 -0.010650281 -0.003573702 -0.036294773 -0.004632243 -0.016539667
-0.010997492 -0.017503437 -0.04014557 -0.0081983125 -0.00753407 -0.02854191 -0.03766029 -0.009534836
-0.0038382283 -0.009802479 -0.0067834714 -0.008124868 -0.02894479 -0.014042482 -0.016145155 -0.007516792
-0.0062144236 -0.041318 -0.03265703 -0.0015265342 -0.008007697 -0.005782226 -0.00639798 -0.02576063
-0.024008084 -0.0077017997 -0.0074773943 -0.0056010187 -0.00636632 -0.011412148 -0.006848038 -0.031282477
00000000: 02df f8bc 9fea 49bd 6b28 95bb d7b1 2dbc
00000010: 1b43 9dbc 71ac 12bc d17e 11ba f7cb 83bb
00000020: 88c8 febc 4004 c0bb a20f fabb 701a 1abd
00000030: 7c69 0abc e4a8 0bbd c049 47bb 3b47 dbbc
00000040: 3b86 19bd 3884 86bb 112d ecbb 027b aebc
00000050: 9d93 03bc 3188 13bd 0437 41bb 58c7 0abc
00000060: 5785 e3bb abba a9bb 69c5 09bc 847e 2ebc
00000070: c534 6abb d4a9 14bd 12ca 97bb 327e 87bc
00000080: d32e 34bc 5e63 8fbc ae6f 24bd 3752 06bc
00000090: 5ce0 f6bb b9d0 e9bc ad41 1abd 0038 1cbc
000000a0: c98a 7bbb 949a 20bc e247 debb 2b1e 05bc
000000b0: a01d edbc 7012 66bc d842 84bc 6c4f f6bb
000000c0: 5da2 cbbb 103d 29bd 61c3 05bd fd15 c8ba
000000d0: b732 03bc d478 bdbb 25a6 d1bb f507 d3bc
000000e0: 9aac c4bc 615f fcbb ee04 f5bb c088 b7bb
000000f0: 909c d0bb 05fa 3abc 8265 e0bb 0e22 00bd

head_net.model.value_linear_layer_2.weight f4 [64, 64]
-0.117914975 0.053442597 0.27624214 -0.06404516 0.07066319 -0.22798727 -0.108133316 0.10133319
0.23950237 -0.021088703 0.20583856 0.065466456 0.13841277 -0.319444 -0.19792613 -0.02190819
-0.1572027 -0.12594086 0.11792841 -0.07639074 -0.16492072 -0.10210013 -0.15214746 -0.04140876
0.11444977 0.074934445 -0.1829049 -0.389538 0.0921739 0.12031318 0.18776412 -0.24546471
0.0729914 0.047719892 0.048924908 0.09365747 0.3232554 0.09601055 0.2989863 0.11843315
0.18900384 0.19128162 0.0580687 -0.0093216235 0.3920173 -0.382321 0.046744503 0.0735964
-0.2539741 0.30454895 0.13929339 0.18460488 0.08516587 0.05528122 -0.020924022 -0.0023487846
0.11139516 0.10340129 0.09363504 -0.018200874 -0.048117314 -0.16228868 -0.036557946 0.034769196
0.1861084 0.022912977 0.15402892 -0.0018767598 0.064441904 0.3447546 0.12821032 0.30574608
-0.2203451 -0.20140204 0.30750397 -0.13844503 0.3524817 0.021875223 0.028263498 -0.08260643
-0.22616431 0.21981464 0.08252932 -0.05939262 -0.07432769 -0.09824731 -0.08299917 -0.33843243
0.027362872 0.19232175 0.10022536 -0.39187512 0.031054571 -0.07755739 -0.24453518 -0.3019374
0.34318548 -0.12864476 0.021673396 -0.24293543 -0.12274671 0.17036028 0.06845599 -0.073970035
-0.11452012 -0.039332654 -0.049220074 -0.02565273 0.025463106 0.13093893 0.077041954 0.01656617
0.15447485 -0.16831115 -0.033444148 0.12709734 -0.4321152 0.0230133 0.057485737 0.01352575
0.22869399 -0.016518887 -0.10699856 0.16036244 -0.098088145 -0.045491505 0.12946963 0.011180745
0.07707941 0.109070905 -0.12810895 0.079299934 -0.041844748 0.21293768 -0.15668784 -0.11322496
0.061491936 -0.3093431 0.16550729 0.12065158 0.1369049 -0.2799197 -0.30204016 -0.23277162
-0.042418674 -0.12728994 -0.047280695 0.040952906 0.21560617 -0.2531213 0.05094609 -0.2592476
0.26145387 -0.12074681 0.019028366 0.18577282 0.05196275 0.029905723 0.35342833 0.07967855
-0.123116985 0.14074509 0.19831637 0.07897565 0.35618952 0.04565248 0.07567845 -0.17085846
0.007071176 -0.1909537 0.018100148 0.2877208 -0.14944933 0.108051926 0.033946987 0.10807379
0.24269842 -0.05125877 -0.0011888078 0.07861905 0.010958508 -0.06692324 -0.076628715 -0.016596977
0.12011543 -0.099083014 0.11648171 -0.19785239 -0.14447235 -0.159106 -0.20657142 0.0794951
-0.38579527 0.047516946 0.039223883 -0.019131258 0.1666197 0.13090353 -0.105432816 -0.06684171
-0.22311775 0.14738682 -0.14425646 -0.123434216 -0.13496408 -0.0319673 -0.1371921 -0.30504584
-0.019873241 0.11578409 0.2230013 -0.32654488 0.42381108 0.21550356 0.07891284 -0.16754422
0.17794159 0.22282405 -0.019567454 -0.2932532 0.030781066 -0.018204637 0.14997807 0.23225072
-0.16922541 0.12615448 -0.106978804 -0.08825026 -0.08031369 0.090553984 -0.01348522 0.10580476
0.28827634 -0.08774816 0.09103899 0.44471574 0.0970919 -0.015881643 -0.05257094 0.19443233
0.18360752 0.0017022562 -0.016222062 -0.35631773 -0.22682591 0.25069088 0.25998947 -0.03461028
-0.052405003 -0.011385621 -0.025718834 0.17731813 0.2391278 0.20816934 -0.039152216 0.0039466373
00000000: 687d f1bd a0e6 5a3d 9c6f 8d3e 1c2a 83bd
00000010: ddb7 903d 7f75 69be 0075 ddbd c787 cf3d
00000020: 1c40 753e 37c2 acbc 58c7 523e 4713 863d
00000030: 14bc 0d3e 2a8e a3be 26ad 4abe ce78 b3bc
00000040: bff9 20be a4f6 00be 7384 f13d c072 9cbd
00000050: fae0 28be df19 d1bd 8bcc 1bbe 3b9c 29bd
00000060: a464 ea3d 3b77 993d 6c4b 3bbe 8671 c7be
00000070: abc5 bc3d c266 f63d 3d45 403e 1a5b 7bbe
00000080: 847c 953d ef75 433d 7c65 483d 7dcf bf3d
00000090: bb81 a53e 2ea1 c43d bb14 993e 148d f23d
000000a0: 398a 413e 54df 433e 72d9 6d3d b9b9 18bc
000000b0: 7eb6 c83e 94bf c3be 2a77 3f3d b6b9 963d
000000c0: e508 82be d7ed 9b3e eda2 0e3e 1009 3d3e
000000d0: 726b ae3d 8f6e 623d db68 abbc 11ee 19bb
000000e0: 2523 e43d 0ec4 d33d bac3 bf3d 001a 95bc
000000f0: a916 45bd 012f 26be c9bd 15bd 256a 0e3d
00000100: 3393 3e3e ffb3 bb3c c2b9 1d3e 9cfd f5ba
00000110: 1efa 833d ad83 b03e 9149 033e c08a 9c3e
00000120: 25a2 61be 563c 4ebe 2971 9d3e 89c4 0dbe
00000130: 7b78 b43e ab33 b33c da88 e73c 8f2d a9bd
00000140: 9e97 67be 1717 613e 2205 a93d ad45 73bd
00000150: 1e39 98bd e335 c9bd 78fb a9bd 0447 adbe
00000160: 1a28 e03c feef 443e f442 cd3d dba3 c8be
00000170: 2866 fe3c 69d6 9ebd 6e67 7abe 8a97 9abe
00000180: 02b6 af3e 74bb 03be 688c b13c 11c4 78be
00000190: a162 fbbd ed72 2e3e a732 8c3d 9a7d 97bd
000001a0: 8689 eabd 471b 21bd fd9a 49bd ad25 d2bc
000001b0: 0198 d03c db14 063e 2cc8 9d3d c7b5 873c
000001c0: a82e 1e3e c259 2cbe bbfc 08bd ce25 023e
000001d0: 343e ddbe 6386 bc3c 2a76 6b3d 1b9b 5d3c
000001e0: c22e 6a3e 9e52 87bc 1022 dbbd 0d36 243e
000001f0: 70e2 c8bd 4d55 3abd b093 043e 722f 373c
00000200: cfdb 9d3d 9160 df3d fe2e 03be 0168 a23d
00000210: 6665 2bbd 560c 5a3e c772 20be 7de2 e7bd
00000220: f8de 7b3d 3862 9ebe be7a 293e 2d18 f73d
00000230: cc30 0c3e a351 8fbe 02a5 9abe af5b 6ebe
00000240: 34bf 2dbd 4b58 02be 67a9 41bd 3cbe 273d
00000250: ddc7 5c3e 1d99 81be d9ac 503d 1abc 84be
00000260: 48dd 853e 1b4a f7bd 60e1 9b3c 3b3b 3e3e
00000270: e4d6 543d d9fc f43c 8ff4 b43e 822e a33d
00000280: c224 fcbd 7b1f 103e 7213 4b3e fcbd a13d
00000290: 795e b63e 18fe 3a3d 4efd 9a3d 85f5 2ebe
000002a0: 53b5 e73b 5e89 43be c346 943c 2450 933e
000002b0: 3f09 19be 544a dd3d ff0b 0b3d cb55 dd3d
000002c0: ef85 783e b7f4 51bd c5d1 9bba 0603 a13d
000002d0: 508b 333c 0d0f 89bd 84ef 9cbd 62f6 87bc
000002e0: 14ff f53d 09ec cabd f68d ee3d d199 4abe
000002f0: 8ff0 13be afec 22be 7587 53be 54ce a23d
00000300: f586 c5be 21a1 423d 39a9 203d 28b9 9cbc
00000310: 5b9e 2a3e 930b 063e 29ed d7bd 4ee4 88bd
00000320: fb78 64be 92ec 163e f7b7 13be 14cb fcbd
00000330: 0634 0abe 25f0 02bd 167c 0cbe f82e 9cbe
00000340: 35cd a2bc 3520 ed3d 745a 643e e430 a7be
00000350: c4fd d83e f7ac 5c3e 0e9d a13d b690 2bbe
00000360: 5236 363e fd2b 643e ed4b a0bc 4925 96be
00000370: 9328 fc3c e421 95bc da93 193e 22d3 6d3e
00000380: 6d49 2dbe a42e 013e b417 dbbd 8dbc b4bd
00000390: 817b a4bd 5e74 b93d 1df1 5cbc 2ab0 d83d
000003a0: f598 933e 4fb5 b3bd a672 ba3d c8b1 e33e
000003b0: 1ed8 c63d 381a 82bc a054 57bd 4519 473e
000003c0: 9c03 3c3e 3d1e df3a 21e4 84bc 476f b6be
000003d0: 0d45 68be 8e5a 803e 571d 853e 82c3 0dbd
000003e0: a1a6 56bd c18a 3abc 4eb0 d2bc e292 353e
000003f0: ebdd 743e 582a 553e 135e 20bd cb52 813b

head_net.model.value_linear_layer_2.bias f4 [64]
-0.043840393 0.010681908 0.08614055 -0.020923011 0.009047368 0.041373085 0.034930456 0.006495822
0.025064697 -0.022555346 -0.021611823 -0.00021887933 -0.017539263 -0.0026935225 -0.0015884967 0.022577208
-0.018016547 -0.0033596135 0.02267458 0.05126528 0.030625282 0.08394713 0.07993811 0.032696374
0.033776943 -0.003675259 0.053178336 -0.011549791 0.0070155184 -0.012783087 -0.001506499 -0.04793317
-0.0076393066 -0.0034264582 0.018649774 -0.018377233 0.014009818 -0.009302382 0.0019334678 0.0263275
0.0018922432 0.0626137 0.0063595846 0.016267102 0.015762484 0.014654048 -0.0051436787 0.008280725
-0.0017228627 0.008649681 0.012960824 0.015832115 -0.007221391 0.0044417847 0.06553084 0.0030578945
-0.009808833 0.008625998 -0.011135865 0.018284773 -0.03570198 0.058130175 -0.025473122 -0.00089096813
00000000: fc91 33bd 2b03 2f3c 756a b03d bc66 abbc
00000010: 693b 143c d376 293d 3d13 0f3d e8da d43b
00000020: 7b54 cd3c fdc5 b8bc 470b b1bc f982 65b9
00000030: 80ae 8fbc cf85 30bb 1b35 d0ba d6f3 b83c
00000040: 7097 93bc f62c 5cbb 0ac0 b93c 8bfb 513d
00000050: dfe1 fa3c 79ec ab3d 98b6 a33d a2ec 053d
00000060: b159 0a3d 9ddc 70bb 87d1 593d 563b 3dbc
00000070: 6fe2 e53b 2770 51bc b875 c5ba 9255 44bd
00000080: 2653 fabb 6e8e 60bb 69c7 983c da8b 96bc
00000090: 7089 653c 0569 18bc 6a6c fd3a c5ac d73c
000000a0: 2505 f83a 9d3b 803d 1064 d03b 9642 853c
000000b0: 5320 813c 8817 703c 4e8c a8bb e1ab 073c
000000c0: aed1 e1ba 64b7 0d3c a359 543c 5ab2 813c
000000d0: 6ba1 ecbb 648c 913b 0835 863d f566 483b
000000e0: 3ab5 20bc 0f54 0d3c 3473 36bc f3c9 953c
000000f0: 3d3c 12bd e819 6e3d 02ad d0bc dc8f 69ba

head_net.model.value_layer_norm_2.weight f4 [64]
1.012416 1.044535 1.0370814 1.0293125 1.0736166 1.1480615 1.1256975 1.0219502
1.1273868 1.1042928 1.0201914 1.1360521 1.0220091 1.0792451 1.0967104 1.092476
1.0580214 1.0381676 1.0026058 1.1067616 1.001279 1.1128213 1.0528117 1.1063634
1.0327665 1.0545441 1.0834192 1.0589819 1.0575061 1.0580882 1.0201694 1.0309088
1.0115802 1.0464844 1.0730096 1.0250185 1.0931796 0.9935897 1.0969183 1.0329659
1.0368004 1.1284542 1.052202 1.0736773 1.0366049 1.1286334 1.0670834 1.0665041
1.0244176 1.0651275 1.1037515 1.089115 1.064208 1.0799885 1.1253996 1.019002
1.0152892 1.0842252 1.0421422 1.0746311 1.0306647 1.1024364 1.0173957 1.0323774
00000000: d996 813f 53b3 853f 15bf 843f 83c0 833f
00000010: 456c 893f aef3 923f db16 903f 44cf 823f
00000020: 364e 903f 7759 8d3f a295 823f 286a 913f
00000030: 32d1 823f b424 8a3f 0261 8c3f 41d6 8b3f
00000040: 3f6d 873f ade2 843f 6355 803f 5daa 8d3f
00000050: e929 803f ee70 8e3f 89c2 863f 519d 8d3f
00000060: b131 843f 4dfb 863f 7bad 8a3f b88c 873f
00000070: 5c5c 873f 6f6f 873f e994 823f d2f4 833f
00000080: 767b 813f 33f3 853f 6158 893f ce33 833f
00000090: 4fed 8b3f e55b 7e3f d267 8c3f 3a38 843f
000000a0: e0b5 843f 3071 903f 8eae 863f 426e 893f
000000b0: 78af 843f 0f77 903f 3096 883f 3583 883f
000000c0: 1e20 833f 1956 883f bb47 8d3f 1f68 8b3f
000000d0: f837 883f 103d 8a3f 180d 903f a86e 823f
000000e0: fff4 813f e4c7 8a3f ea64 853f 838d 893f
000000f0: d2ec 833f a31c 8d3f 063a 823f f124 843f

head_net.model.value_layer_norm_2.bias f4 [64]
0.00927147 0.023294626 0.014811755 0.01737552 0.023989778 0.044347152 0.041320458 0.016168505
0.0485442 0.02267551 0.010604596 0.023686461 0.011013895 0.025322264 0.03025907 0.022487296
0.013832038 0.017822793 -0.00818004 0.012126111 -0.015053095 0.054825716 0.0069279415 0.047597885
0.0053473245 0.026565645 0.041798268 0.026224738 0.013616584 0.022051372 0.014463493 0.009682806
0.008437532 0.017898599 0.008855999 0.00543165 0.03013001 0.0025711716 0.027043607 -0.0047075353
0.0060085733 0.09045101 0.013450806 0.017466256 0.015260515 0.033956505 0.020388361 0.015312691
0.01586268 0.025921224 0.0053160144 0.015785284 0.020382622 0.020241803 0.06174612 0.0045994055
0.008272733 0.009063373 0.018869003 0.024354283 0.008919551 0.045850243 0.008186029 0.015371518
00000000: 5de7 173c 5fd4 be3c 01ad 723c 1b57 8e3c
00000010: 3686 c43c 5ca5 353d a43f 293d d073 843c
00000020: 48d6 463d fec1 b93c e6be 2d3c 1c0a c23c
00000030: a073 343c a370 cf3c dfe1 f73c 4737 b83c
00000040: c69f 623c 1b01 923c 9305 06bc 99ac 463c
00000050: 42a1 76bc ee90 603d c903 e33b 00f6 423d
00000060: 9c38 af3b 32a0 d93c a934 2b3d 43d5 d63c
00000070: 1818 5f3c 14a5 b43c 49f8 6c3c a2a4 1e3c
00000080: 933d 0a3c 15a0 923c c118 113c fcfb b13b
00000090: 36d3 f63c 1a81 283b 8e8a dd3c ab41 9abb
000000a0: 91e3 c43b 613e b93d c560 5c3c 6515 8f3c
000000b0: 3d07 7a3c fa15 0b3d 7e05 a73c 15e2 7a3c
000000c0: 73f2 813c bf58 d43c f631 ae3b 2450 813c
000000d0: 75f9 a63c 23d2 a53c 80e9 7c3d 9cb6 963b
000000e0: 5b8a 073c 8b7e 143c 2b93 9a3c a282 c73c
000000f0: 4f23 123c 77cd 3b3d b21e 063c d2d8 7b3c

head_net.model.value_linear_layer_output.weight f4 [7, 64]
-0.0045553474 -0.03121675 0.027398577 0.047741745 -0.03849931 -0.08204447 0.04117488 0.010359656
0.031699605 -0.028922273 -0.004893431 -0.047586773 -0.025644768 -0.02232885 -0.0091147395 0.016825438
0.006603964 -0.015608383 -0.00662112 -0.088674985 -0.018867334 0.022448484 -0.031120943 -0.03871267
0.009636361 0.047786098 -0.024391413 -0.037344426 0.05799157 -0.0672348 -0.04239472 0.016001737
-0.0019062014 0.03876731 0.0036897976 0.033862215 0.011993817 -0.005406739 0.02208972 0.03848868
-0.0044929204 0.049824126 -0.048895195 0.039643373 -0.0040598554 -0.017647926 0.044380527 0.049414683
0.046743542 -0.008917314 -0.022724632 -0.048321996 -0.036972936 0.0847099 -0.049460974 -0.011560899
0.012587201 -0.002999256 -0.021402624 -0.025063174 -0.008455346 -0.080642805 0.006642808 0.021353541
0.014909961 -0.012502104 0.02024965 -0.03822896 -0.07481605 0.034329265 0.019133307 -0.005500627
-0.11108099 0.018860573 -0.04368714 -0.022482812 0.010035456 0.065634295 -0.058181193 0.08087897
-0.021076713 -0.033336263 -0.04733817 0.0049169715 -0.03490076 0.09499558 0.06450369 0.0875098
0.017999634 -0.03542495 -0.006464964 0.024085296 0.04423762 0.060088944 0.029761504 0.043236617
0.017802434 0.021969326 -0.05171535 0.0007129088 -0.0058721383 -0.019748839 0.04308154 0.017792292
0.012588718 0.09180924 -0.011628538 -0.04649348 -0.01137015 -0.092544444 -0.060269646 -0.024619872
0.0115098795 0.029678453 -0.045517046 -0.015357687 0.0014359793 0.016715312 -0.04770856 -0.021468788
-0.019993143 -0.011422581 -0.0075228857 0.027503451 0.010953862 0.03217198 -0.009592272 0.01837135
0.003407753 -0.015734443 -0.06503011 0.026873542 -0.056016896 0.00647075 -0.06403345 -0.007410383
0.0672847 -0.05004821 0.024945587 -0.06853098 -0.025220755 0.05628097 0.027866451 -0.105297744
-0.02244744 0.0015890327 -0.0052776122 -0.02325183 -0.02126583 -0.051050205 0.011237861 0.07756573
0.008617662 0.009544644 0.05231234 0.05349789 0.00813982 0.013014932 -0.044976227 -0.027575271
0.00835283 0.028022459 -0.019307842 -0.02503283 0.035177436 -0.0072148335 -0.0069721397 -0.011061088
0.017441237 -0.012140295 0.014907306 0.0053084297 -0.048266977 0.0652838 -0.025832193 0.021008916
-0.038554717 -0.03551485 0.09714243 -0.09349732 0.092248656 0.04654112 0.054184943 0.015676584
0.013377658 -0.002576034 0.034179732 0.00036496183 0.029410023 -0.03833154 -0.019907508 -0.013203225
-0.02528814 -0.04532555 0.041144773 0.0011423042 -0.01747059 0.11344939 0.03802802 0.043239165
0.0032882395 0.049191784 -0.010228455 0.11496964 0.048072983 -0.029059011 -0.017062968 0.03921741
-0.03445282 0.05083296 0.044717167 -0.053595223 -0.026299845 -0.040222317 0.0058989087 0.024439039
0.021095937 -0.03085438 -0.06986483 0.026686821 -0.014963013 0.013018077 0.0058662384 -0.013642875
-0.022923803 0.0028444007 0.030307487 -0.013483218 -0.095098786 -0.0041143047 0.04844773 0.037920628
0.01713253 -0.02481557 -0.03669332 -0.05771418 0.034279294 0.010257117 -0.022577994 0.010555015
0.020701187 -0.07580228 0.013152546 -0.06263911 0.0005339532 0.0006705989 -0.04114773 -0.05920667
-0.003360935 0.09138745 0.041038092 -0.03559376 -0.051610526 0.04952808 -0.023732856 -0.031701807
00000000: 0645 95bb 45ba ffbc fb72 e03c d98c 433d
00000010: 74b1 1dbd ee06 a8bd fea6 283d 8cbb 293c
00000020: 72d7 013d 67ee ecbc 1359 a0bb 59ea 42bd
00000030: fa14 d2bc feea b6bc fd55 15bc 80d5 893c
00000040: 1166 d83b 4eba 7fbc fbf5 d8bb 3b9b b5bd
00000050: ab8f 9abc e2e5 b73c 59f1 febc 2d91 1ebd
00000060: d4e1 1d3c 5bbb 433d 80d0 c7bc 78f6 18bd
00000070: 9288 6d3d 66b2 89bd 16a6 2dbd 1316 833c
00000080: 81d9 f9ba 79ca 1e3d 88d0 713b 1bb3 0a3d
00000090: b781 443c 042b b1bb 80f5 b43c 4ea6 1d3d
000000a0: 5939 93bb 6214 4c3d 5446 48bd 1761 223d
000000b0: 8908 85bb 6292 90bc 5bc8 353d 0d67 4a3d
000000c0: 2876 3f3d ed19 12bc 0229 babc 49ed 45bd
000000d0: ef70 17bd 627c ad3d 9797 4abd ed69 3dbc
000000e0: 8c3a 4e3c 2a8f 44bb 8e54 afbc 4951 cdbc
000000f0: 4b88 0abc 0e28 a5bd eaab d93b 9fed ae3c
00000100: e948 743c a0d5 4cbc 98e2 a53c f895 1cbd
00000110: 2839 99bd d89c 0c3d 74bd 9c3c 9b3e b4bb
00000120: 6e7e e3bd 7d81 9a3c 49f1 32bd e02d b8bc
00000130: c16b 243c 466b 863d 674f 6ebd e0a3 a53d
00000140: 12a9 acbc 9b8b 08bd abe5 41bd 8c1e a13b
00000150: 19f4 0ebd 0b8d c23d 831a 843d 5738 b33d
00000160: f873 933c c119 11bd 0cd8 d3bb 874e c53c
00000170: 8232 353d d31f 763d 66ce f33c e118 313d
00000180: 69d6 913c 04f9 b33c 7ad3 53bd 80e2 3a3a
00000190: 116b c0bb 51c8 a1bc 4576 303d 24c1 913c
000001a0: e940 4e3c 7c06 bc3d a085 3ebc f36f 3ebd
000001b0: de49 3abc f187 bdbd 4edd 76bd 9daf c9bc
000001c0: ef93 3c3c 3a20 f33c 1570 3abd cf9e 7bbc
000001d0: 7837 bc3a 8dee 883c 0d6a 43bd 50df afbc
000001e0: a9c8 a3bc c725 3bbc 8a82 f6bb eb4e e13c
000001f0: d477 333c c4c6 033d e828 1dbc 837f 963c
00000200: 9c54 5f3b 85e5 80bc 822e 85bd e725 dc3c
00000210: f971 65bd 9608 d43b f823 83bd ccd2 f2bb
00000220: 90cc 893d 5aff 4cbd b05a cc3c f859 8cbd
00000230: c29b cebc e086 663d 2f48 e43c 58a6 d7bd
00000240: b2e3 b7bc 1747 d03a d2ef acbb 9f7a bebc
00000250: ae35 aebc 051a 51bd 011f 383c c8da 9e3d
00000260: 1831 0d3c 2361 1c3c 7745 563d 9a20 5b3d
00000270: e15c 053c 953c 553c fe38 38bd 89e5 e1bc
00000280: 4fda 083c 5b8f e53c 7b2b 9ebc a611 cdbc
00000290: 3716 103d 696a ecbb 8c76 e4bb 9139 35bc
000002a0: ede0 8e3c 16e8 46bc c63d 743c 56f2 ad3b
000002b0: 98b3 45bd 83b3 853d 099e d3bc e41a ac3c
000002c0: 8deb 1dbd 0578 11bd 9cf2 c63d 867b bfbd
000002d0: ddec bc3d e7a1 3e3d 08f1 5d3d 2e6c 803c
000002e0: f72d 5b3c aed2 28bb 0c00 0c3d 5958 bf39
000002f0: 4aed f03c 8801 1dbd 1215 a3bc 5752 58bc
00000300: 1329 cfbc 49a7 39bd 6c87 283d 5eb9 953a
00000310: 7c1e 8fbc 2758 e83d 45c3 1b3d 8d1b 313d
00000320: 817f 573b 537d 493d 4095 27bc 3475 eb3d
00000330: 2de8 443d 2a0d eebc a3c7 8bbc 6fa2 203d
00000340: 661e 0dbd 3936 503d 5929 373d aa86 5bbd
00000350: c672 d7bc 28c0 24bd a24b c13b 6134 c83c
00000360: 63d1 ac3c 53c2 fcbc 4b15 8fbd 529e da3c
00000370: 6d27 75bc c649 553c 9339 c03b 5d86 5fbc
00000380: b3ca bbbc 2069 3a3b 6847 f83c b7e8 5cbc
00000390: 27c3 c2bd 4ad1 86bb 2071 463d a952 1b3d
000003a0: 8559 8c3c 064a cbbc bc4b 16bd b465 6cbd
000003b0: 7268 0c3d 780d 283c 7cf5 b8bc f1ee 2c3c
000003c0: 8995 a93c 3a3e 9bbd c77d 573c ef48 80bd
000003d0: fef8 0b3a 21cb 2f3a 868a 28bd b182 72bd
000003e0: 2243 5cbb 5829 bb3d 8f17 283d c3ca 11bd
000003f0: 8f65 53bd f5dd 4a3d 686b c2bc c1d9 01bd

head_net.model.value_linear_layer_output.bias f4 [7]
-0.0026396604 -0.0007853293 0.003038276 0.00088904426 -0.00073931855 0.0013292951 -0.0033723665
00000000: 27fe 2cbb 8fde 4dba d01d 473b c00e 693a
00000010: d4ce 41ba be3b ae3a ec02 5dbb

sample_input f4 [1, 2, 6, 7]
0.0 0.0 0.0 0.0 0.0 0.0 0.0 0.0
0.0 0.0 0.0 0.0 0.0 0.0 0.0 0.0
0.0 0.0 0.0 0.0 0.0 0.0 0.0 0.0
0.0 0.0 0.0 0.0 0.0 0.0 0.0 0.0
0.0 0.0 0.0 0.0 0.0 0.0 0.0 0.0
0.0 0.0 0.0 0.0 0.0 0.0 0.0 0.0
0.0 0.0 0.0 0.0 0.0 0.0 0.0 0.0
0.0 0.0 0.0 0.0 0.0 0.0 0.0 0.0
0.0 0.0 0.0 0.0 0.0 0.0 0.0 0.0
0.0 0.0 0.0 0.0 0.0 0.0 0.0 0.0
0.0 0.0 0.0 0.0
00000000: 0000 0000 0000 0000 0000 0000 0000 0000
00000010: 0000 0000 0000 0000 0000 0000 0000 0000
00000020: 0000 0000 0000 0000 0000 0000 0000 0000
00000030: 0000 0000 0000 0000 0000 0000 0000 0000
00000040: 0000 0000 0000 0000 0000 0000 0000 0000
00000050: 0000 0000 0000 0000 0000 0000 0000 0000
00000060: 0000 0000 0000 0000 0000 0000 0000 0000
00000070: 0000 0000 0000 0000 0000 0000 0000 0000
00000080: 0000 0000 0000 0000 0000 0000 0000 0000
00000090: 0000 0000 0000 0000 0000 0000 0000 0000
000000a0: 0000 0000 0000 0000 0000 0000 0000 0000
000000b0: 0000 0000 0000 0000 0000 0000 0000 0000
000000c0: 0000 0000 0000 0000 0000 0000 0000 0000
000000d0: 0000 0000 0000 0000 0000 0000 0000 0000
000000e0: 0000 0000 0000 0000 0000 0000 0000 0000
000000f0: 0000 0000 0000 0000 0000 0000 0000 0000
00000100: 0000 0000 0000 0000 0000 0000 0000 0000
00000110: 0000 0000 0000 0000 0000 0000 0000 0000
00000120: 0000 0000 0000 0000 0000 0000 0000 0000
00000130: 0000 0000 0000 0000 0000 0000 0000 0000
00000140: 0000 0000 0000 0000 0000 0000 0000 0000
