tutorials/AgileRL/models/DQN/lesson3_trained_agent.pt (torch, 753164 bytes, 44 tensors)

sample_input f4 [1, 2, 6, 7]
000000 00 00 00 00 00 00 00 00 00 00 00 00 00 00 00 00
       0.0 0.0 0.0 0.0
000010 00 00 00 00 00 00 00 00 00 00 00 00 00 00 00 00
       0.0 0.0 0.0 0.0
000020 00 00 00 00 00 00 00 00 00 00 00 00 00 00 00 00
       0.0 0.0 0.0 0.0
000030 00 00 00 00 00 00 00 00 00 00 00 00 00 00 00 00
       0.0 0.0 0.0 0.0
000040 00 00 00 00 00 00 00 00 00 00 00 00 00 00 00 00
       0.0 0.0 0.0 0.0
000050 00 00 00 00 00 00 00 00 00 00 00 00 00 00 00 00
       0.0 0.0 0.0 0.0
000060 00 00 00 00 00 00 00 00 00 00 00 00 00 00 00 00
       0.0 0.0 0.0 0.0
000070 00 00 00 00 00 00 00 00 00 00 00 00 00 00 00 00
       0.0 0.0 0.0 0.0
000080 00 00 00 00 00 00 00 00 00 00 00 00 00 00 00 00
       0.0 0.0 0.0 0.0
000090 00 00 00 00 00 00 00 00 00 00 00 00 00 00 00 00
       0.0 0.0 0.0 0.0
0000a0 00 00 00 00 00 00 00 00 00 00 00 00 00 00 00 00
       0.0 0.0 0.0 0.0
0000b0 00 00 00 00 00 00 00 00 00 00 00 00 00 00 00 00
       0.0 0.0 0.0 0.0
0000c0 00 00 00 00 00 00 00 00 00 00 00 00 00 00 00 00
       0.0 0.0 0.0 0.0
0000d0 00 00 00 00 00 00 00 00 00 00 00 00 00 00 00 00
       0.0 0.0 0.0 0.0
0000e0 00 00 00 00 00 00 00 00 00 00 00 00 00 00 00 00
       0.0 0.0 0.0 0.0
0000f0 00 00 00 00 00 00 00 00 00 00 00 00 00 00 00 00
       0.0 0.0 0.0 0.0
000100 00 00 00 00 00 00 00 00 00 00 00 00 00 00 00 00
       0.0 0.0 0.0 0.0
000110 00 00 00 00 00 00 00 00 00 00 00 00 00 00 00 00
       0.0 0.0 0.0 0.0
000120 00 00 00 00 00 00 00 00 00 00 00 00 00 00 00 00
       0.0 0.0 0.0 0.0
000130 00 00 00 00 00 00 00 00 00 00 00 00 00 00 00 00
       0.0 0.0 0.0 0.0
000140 00 00 00 00 00 00 00 00 00 00 00 00 00 00 00 00
       0.0 0.0 0.0 0.0

encoder.model.encoder_conv_layer_1.weight f4 [128, 2, 4, 4]
000000 16 0d e4 3d c0 21 f5 bc a7 32 1b be 1c 99 cc 3d
       0.111353084 -0.02992332 -0.15156041 0.09990141
000010 c6 2e 30 be b1 08 0e be d3 0d 83 bd 52 6d 2e bd
       -0.17205343 -0.13870503 -0.06399121 -0.042584725
000020 13 4f ab 3d 3d 47 1c 3e 47 08 cf 3d 3a 10 b6 bd
       0.083646916 0.1526155 0.10109001 -0.08889814
000030 7c 88 95 3d 75 1e 88 3e a7 99 4e 3d ef 1d e9 3c
       0.07301423 0.26585737 0.050439503 0.028456656
000040 c9 55 fe 3c a2 85 3b be b2 ee 1d be 24 ee 0e 3e
       0.031046765 -0.18312696 -0.15423086 0.13958031
000050 b8 91 4a bd 71 0b 0d bd 5f 04 85 be da 25 20 3e
       -0.049455374 -0.03443474 -0.25979897 0.15639439
000060 e7 81 36 3d 11 af 2a be 70 63 62 be 44 b4 e0 3e
       0.04455748 -0.16668345 -0.22108245 0.43887532
000070 61 fd 77 bd 9c 63 18 be b9 31 d1 be b1 14 21 3c
       -0.060544375 -0.14881748 -0.40858248 0.009831593
000080 d1 ca 2c 3b 0b c8 8b 3e b9 ab 5d 3e dd bd 27 3e
       0.0026366005 0.27301058 0.21647538 0.16381021
000090 af 39 13 3d 2a 4d 90 bd be 10 43 3e f2 67 ea bd
       0.035943683 -0.07045968 0.19049355 -0.11445607
0000a0 06 d3 32 3d c0 98 de bd 74 d6 85 bd f6 e7 ad bc
       0.04365828 -0.108689785 -0.06535044 -0.021228772
0000b0 a8 d2 63 3d 78 8c 01 bd c7 d2 c1 bd 14 41 ed bd
       0.05562082 -0.031628102 -0.09464031 -0.11584678
0000c0 10 f7 99 bc 6e a7 d3 3d 5d cc 6f be 8d 94 5d be
       -0.018794566 0.10334669 -0.23417802 -0.21638699
0000d0 31 1f e9 bd 3d ac d1 3d 71 02 26 3d 61 ba 86 3e
       -0.113829024 0.1023793 0.040529672 0.2631407
0000e0 ae b8 1f be d2 f1 06 3e 71 e0 91 bd c5 f7 9a 3d
       -0.15597793 0.13178185 -0.07122887 0.075667895
0000f0 6d ac 79 3c 5d 18 a4 bd e7 30 79 3e 1f ee 29 bd
       0.015238863 -0.080124594 0.24335061 -0.041486856
000100 2d 06 a7 3e 86 6d f4 bc c2 86 59 bd ff d0 0c 3e
       0.326219 -0.029837381 -0.05310703 0.137516
000110 11 b8 c3 3d fc 78 a1 3e 0f 66 14 be f0 d9 fc 3d
       0.09556592 0.31537616 -0.14492057 0.12346256
000120 c4 5b d9 bd 51 37 8f 3d fd 06 12 3e 4e 67 79 bd
       -0.10613206 0.06992973 0.14260478 -0.060889535
000130 ac 91 6d be 98 4f d0 bd bf e9 d0 bd 6b af 1f 3e
       -0.232001 -0.10171431 -0.102008335 0.1559426
000140 f0 73 92 bd c7 c7 a9 bc fd db 3c be 70 88 88 bd
       -0.071510196 -0.020725144 -0.18443294 -0.066666484
000150 89 8e 42 be 30 e1 eb bd e1 ce 4f be e1 dd 4d be
       -0.18999685 -0.115175605 -0.20293762 -0.20104171
000160 40 bb da bc 55 d4 cd 3d 9b 9f 3e be 59 b0 b7 3d
       -0.026700616 0.10050265 -0.18615572 0.089691825
000170 d0 8a a2 3e dc 9c 17 3e ac 31 60 3e 35 8e 68 be
       0.3174653 0.14805931 0.21893948 -0.22710498
000180 06 de 81 be 24 29 3f be 58 f2 32 3e 20 ba 70 bc
       -0.25364703 -0.18668038 0.1747526 -0.014692813
000190 b9 b0 10 be 86 52 86 be ab 1a bf bd ae 5b 39 3e
       -0.14129914 -0.26234835 -0.093312584 0.1810138
0001a0 31 71 a5 bb cb 50 e4 bd e2 5e a1 be 83 87 3d 3e
       -0.005048894 -0.111482225 -0.31517702 0.18508725
0001b0 71 77 9e bc f1 b3 0d be 3c 77 ea bd 85 30 3e 3e
       -0.019344063 -0.13838173 -0.114485234 0.18573196
0001c0 f7 3d 08 be fa e6 64 be 5f 60 ed bc 0d be 9b bd
       -0.13304888 -0.22353736 -0.028976617 -0.07604609
0001d0 85 3b 4e 3c 09 a0 76 be d6 11 64 be 9d 97 03 be
       0.012587433 -0.24084486 -0.22272429 -0.12850805
0001e0 20 a6 1b be 86 5d 0d 3e d9 c2 c2 3d d4 7e bf bd
       -0.1520009 0.13805208 0.095098205 -0.093503624
0001f0 c8 95 44 3e c6 b3 38 bd b1 18 d3 bc 15 df 22 be
       0.19197762 -0.04509332 -0.02576861 -0.15905412
000200 f5 ce de 3d 8f 36 49 3c 87 78 40 3e 0f 03 52 bd
       0.10879318 0.012281074 0.18795978 -0.05127245
000210 af 0b c7 3d b9 e0 4d be dc 66 89 3c bf d4 d0 bc
       0.09719025 -0.20105256 0.01677268 -0.02549207
000220 93 a3 88 bd 7f 6f 71 3c fe fb 8e be 2a 99 92 3e
       -0.06671824 0.014736055 -0.2792663 0.2863248
000230 5d d0 44 be 4b d5 d7 3d 5c 47 05 3e 2a 1b e2 bd
       -0.1922011 0.10538729 0.13015503 -0.110403374
000240 14 be 89 3e 11 d1 32 bd 36 de 0e be fd 34 f8 bd
       0.2690283 -0.043656413 -0.13951954 -0.12119482
000250 54 04 6b 3e 2d 72 7e 3e 79 dd 66 bd a4 7e 4d 3e
       0.2295087 0.24848242 -0.056363557 0.20067841
000260 f3 59 70 be b7 f3 15 3e 7f 78 bc 3e fb 36 2b 3e
       -0.23471813 0.14643751 0.3681068 0.16720192
000270 26 aa 0a be 03 a9 f4 3d 2b 59 06 3e 76 2f 2e 3e
       -0.13541469 0.11946299 0.13119952 0.17010292
000280 8c 14 25 be 43 db c0 3d cd 1f 73 3e 5a 28 30 3d
       -0.1612112 0.09416821 0.237426 0.043007232
000290 84 33 b1 3d 14 99 6e 3d d6 e6 8f 3d 1e cb d3 bc
       0.08652404 0.058251455 0.0702645 -0.02585369
0002a0 ac da 33 bd 67 78 b7 bb 1f d4 06 3e 18 26 21 3e
       -0.043909714 -0.00559907 0.13166855 0.15737188
0002b0 2d 61 6e 3d 48 7c be 3c fb fa f9 bd 0a 9e aa 3c
       0.058198143 0.023252621 -0.12206074 0.020827312
0002c0 a6 9c 98 bc f8 00 5b bd f5 8e 6f be 14 88 aa 3e
       -0.018629383 -0.05346772 -0.23394378 0.33306944
0002d0 f1 7d 2b 3e 2f 16 27 3e 7d d6 25 be 09 65 ac bd
       0.16747262 0.16317056 -0.16195102 -0.084177084
0002e0 98 00 96 3d b0 45 05 3e 48 a1 f7 bd f0 f0 26 be
       0.07324332 0.13014865 -0.12091309 -0.16302848
0002f0 d4 66 03 be 31 df b9 3d 4d 97 29 bd 3e 12 73 3e
       -0.12832195 0.090757735 -0.041404057 0.23737428
000300 37 15 66 3e 92 a0 dd bd 4a d9 ec bc 43 6b 49 3e
       0.2246903 -0.10821642 -0.028912205 0.19669823
000310 eb 68 62 be ec 4c 36 bc 23 14 0a be 80 5b 25 bd
       -0.22110336 -0.011126738 -0.13484244 -0.040370464
000320 d8 9e 42 3e 63 4f 17 3d fb 54 50 be 6e d9 6c 3e
       0.19005907 0.036940943 -0.20344917 0.23129818
000330 d7 51 45 bd 26 97 8c be f6 d0 c3 bd 4f d9 e0 bb
       -0.04817375 -0.27459067 -0.095613405 -0.0068618427
000340 9f 28 68 be 7c 6b be bd 05 68 85 3d a6 95 dd 3d
       -0.22671746 -0.09297845 0.06513981 0.10819559
000350 50 96 9a bd 5d e1 f2 3d a4 0b 64 bd f6 7a 8e bd
       -0.07548201 0.11859391 -0.055675164 -0.06957047
000360 bb 2c 49 3d 06 b3 32 3e 50 5c 68 3d 07 b4 b1 bd
       0.049114924 0.17451105 0.05672866 -0.086769156
000370 72 73 27 3e fa 5d 23 3e 58 b0 02 3e 3b b9 89 3e
       0.16352633 0.15953818 0.12762582 0.26899132
000380 a0 3f 1a bd 83 ac dd 3c 4f 3c 88 3d dc 1d f4 3d
       -0.037658334 0.027059799 0.06652128 0.11919758
000390 b2 a6 1b 3d d4 36 30 3d 35 c2 9a 3d c1 f5 e2 bd
       0.03800077 0.04302104 0.07556573 -0.1108203
0003a0 f8 31 04 3e f5 15 e1 3d 06 c5 aa 3e 97 ec 05 be
       0.12909687 0.10990516 0.33353442 -0.13078533
0003b0 7d f7 6c be 5b 02 89 3c 24 c8 86 3c 12 03 3b 3e
       -0.23141284 0.016724756 0.016452856 0.1826289
0003c0 7a 4d 38 3d 28 01 c2 bd 77 5c 2f 3e c7 66 36 3e
       0.044995762 -0.09472877 0.17125116 0.17812644
0003d0 34 6c 24 be 4d 47 c3 3d c2 2d 94 3e 5d 49 02 be
       -0.16056901 0.09535084 0.2894116 -0.12723298
0003e0 d6 05 75 be 91 94 fd 3c cf 67 e9 3d 28 e5 36 3e
       -0.23928007 0.030954631 0.11396753 0.17860854
0003f0 3b 64 8b be e3 62 a4 3e b9 c7 42 bd 6a 3c c2 bd
       -0.27224907 0.32106695 -0.04755375 -0.09484179

encoder.model.encoder_conv_layer_1.bias f4 [128]
000000 64 53 90 3a 34 8d 98 3a 95 ac 24 ba c5 ad 75 3a
       0.001101118 0.0011638761 -0.000628182 0.0009371902
000010 cd 56 a5 39 3c 0e ba bb 7e bb a7 3a 36 a2 dd ba
       0.00031535924 -0.0056779664 0.0012796966 -0.0016909305
000020 ca 5e e6 3a 66 29 2d b9 2f 23 db b9 62 51 39 3a
       0.0017575857 -0.00016513988 -0.0004179715 0.0007069317
000030 69 ed d6 ba 42 b8 65 bb 86 ef 84 3a 25 bb d5 3a
       -0.0016397658 -0.0035052453 0.0010142184 0.0016306384
000040 d5 86 a3 3a 5e 76 0b 3b 74 a2 ff b8 e3 86 e0 3a
       0.0012476096 0.002128027 -0.00012189607 0.0017130043
000050 7b 98 7a b8 a1 72 21 bb 19 65 8a 3a 17 50 26 bb
       -5.9746653e-05 -0.0024634975 0.0010558694 -0.0025377327
000060 a5 fd 81 3a 31 bc e8 ba 9b cd 3a 3a 1a d3 2e 3a
       0.0009917511 -0.0017756281 0.00071259745 0.000666903
000070 d6 7c 81 bb 6d 09 36 ba fa 3b 8b 39 be bf d1 39
       -0.003951649 -0.00069441536 0.00026556832 0.00040006445
000080 98 42 7a b9 30 5b 28 39 0b 73 c5 39 d3 4c 91 ba
       -0.00023866666 0.00016055699 0.00037660482 -0.0011085517
000090 ba 15 c6 ba bd 71 94 bb 61 c9 22 3b 07 26 69 bb
       -0.0015112676 -0.00453016 0.002483927 -0.0035575645
0000a0 80 8d e7 3a c3 b2 2f b7 d1 43 f0 b9 43 24 68 3a
       0.0017666072 -1.0472434e-05 -0.00045826894 0.0008855501
0000b0 10 dd e9 39 50 2a 80 b8 bc 63 6e ba a8 c4 56 39
       0.00044605928 -6.111397e-05 -0.0009093841 0.0002048189
0000c0 2d 33 59 bb 30 ab 5a ba 93 58 11 bb ea a2 9f 3a
       -0.0033142075 -0.0008341549 -0.0022178038 0.001217929
0000d0 db 2b 78 ba cb 91 0b bb 8a 70 37 38 b1 d4 b6 39
       -0.0009466984 -0.0021296616 4.373541e-05 0.00034872213
0000e0 88 03 d4 39 bd e6 90 ba 7b ba 15 ba 5c 99 5b b8
       0.00040438422 -0.0011055093 -0.00057116867 -5.2356496e-05
0000f0 86 f3 88 3a 66 04 0f 3b ef 6f 0a ba 3f 7d d4 3a
       0.0010448552 0.002182269 -0.00052809616 0.0016211643
000100 fe a5 28 bb f9 4a a6 3a f4 76 09 ba 27 ca ef 39
       -0.0025733705 0.0012687139 -0.00052438607 0.00045736248
000110 56 e4 5b bb c6 15 8e bb 9c 18 0d 3a 9f 86 1b 3b
       -0.0033552847 -0.0043360917 0.000538239 0.0023731363
000120 e8 6a 39 39 0c 64 bf b8 32 a8 2a 3b 4b 77 35 3a
       0.000176828 -9.126225e-05 0.0026040194 0.0006922378
000130 54 bb 9d ba b0 58 13 bb 84 3d 9c 3a 37 5f c8 ba
       -0.0012033978 -0.0022483282 0.0011920189 -0.0015287165
000140 e4 5d 00 bb 9f 3b 03 3b 15 e2 24 3a a4 3d f5 ba
       -0.0019587213 0.002002455 0.00062897924 -0.0018710387
000150 83 2c 34 b9 76 9c 84 ba 7e 69 83 b8 91 47 6c 3a
       -0.0001718272 -0.001011743 -6.266216e-05 0.000901335
000160 89 a8 15 bb 44 1b 0b ba 01 2e 9b b9 0f 4c 76 bb
       -0.002283605 -0.0005306492 -0.0002959818 -0.0037581956
000170 10 04 01 3b 8e ae 31 ba 04 a0 9a bb c7 e5 64 ba
       0.001968626 -0.0006778025 -0.0047187824 -0.0008731749
000180 d4 9c 07 3b 7a 0f 67 b9 04 71 a5 ba 3c 64 ae ba
       0.0020692842 -0.00022035642 -0.0012622182 -0.0013305019
000190 07 a2 5d 39 16 a8 a8 bb 37 2d cc b9 a6 8a 38 bb
       0.00021136562 -0.0051469905 -0.000389436 -0.0028158813
0001a0 46 ab dc ba 77 6b aa bb d1 20 63 ba 23 d6 ff ba
       -0.0016835711 -0.005200799 -0.0008664253 -0.0019518774
0001b0 53 40 e9 3a 10 37 d5 ba 09 1c d9 b9 04 19 9e ba
       0.0017795659 -0.001626702 -0.00041410353 -0.0012061899
0001c0 d2 a9 29 3b b1 cb 2f bb 86 e5 40 3a 99 30 4a 3b
       0.0025888574 -0.002682429 0.00073584204 0.003085172
0001d0 dd 2b 70 3a 0f 93 16 bb 15 5b d0 3a a3 a2 4a bb
       0.00091618096 -0.0022975837 0.0015896285 -0.0030919693
0001e0 ba 85 3e ba b5 3d 71 ba da ba 99 bb 51 95 c8 ba
       -0.00072678516 -0.00092026155 -0.004691464 -0.0015303289
0001f0 9f 28 c0 b9 a5 b0 1f bb d6 10 ab b9 eb 17 3e 3a
       -0.0003665136 -0.0024366763 -0.00032628205 0.0007251489

encoder.model.encoder_linear_output.weight f4 [32, 1536]
000000 5d 41 00 bc 4e 76 a2 bc 8d ba 06 bd cf af 95 3c
       -0.007828084 -0.019831803 -0.032892752 0.018272309
000010 65 5a 05 bd a2 ad 83 bb ed 0a c2 bc c2 9e 89 bc
       -0.03255691 -0.0040185014 -0.02368685 -0.016799334
000020 e0 d9 0b bd 39 48 ee ba cb 84 cb bc e3 52 18 bd
       -0.03414333 -0.0018179483 -0.024843594 -0.037188422
000030 da 13 eb 3c 88 15 d8 3c 1d f2 1b bd 45 8f df bc
       0.02869599 0.026377454 -0.038072694 -0.027289996
000040 b2 fc 5c 3d e9 72 3e 3c be 12 f3 3c 4e 91 09 3c
       0.053951927 0.011624076 0.029672023 0.00839646
000050 dd f3 eb 3b d1 e8 b8 bc f0 b1 57 bd 7f 2c a7 b8
       0.0072007016 -0.022571953 -0.05265993 -7.9714686e-05
000060 ec 52 0d bd a2 86 b7 bb e4 99 8b 3c b8 86 17 3c
       -0.03450291 -0.0056007663 0.017041154 0.009248428
000070 7a 45 fa 3b e4 1a ba 3c 38 c6 00 bc 71 03 ff bc
       0.007637677 0.0227179 -0.007859759 -0.03112957
000080 b6 0e 0f bc 1c 3a 42 bc 1c 31 70 3c 09 96 47 3d
       -0.008731535 -0.011854675 0.014660146 0.04872707
000090 1d 5a 10 ba 3f b3 9b bc 2c 2d ea 39 3c c5 b2 3c
       -0.0005506592 -0.01900637 0.00044665614 0.021822564
0000a0 0f a7 22 3c 39 5a 16 bc b7 c9 ee 3c 56 a7 70 3c
       0.009927525 -0.009176784 0.02914892 0.0146883335
0000b0 69 8d f9 bb 52 31 11 3d 58 16 18 3c 68 11 78 3a
       -0.0076157344 0.035447426 0.009282671 0.0009463043
0000c0 60 8b 25 3b 78 d4 36 3d 90 61 40 bc 95 e3 3c 3c
       0.0025260076 0.04463622 -0.011742011 0.011528869
0000d0 09 af 10 3c 02 ec bd bc bb a7 bb bb 62 37 5a 3b
       0.008830794 -0.023183826 -0.005726782 0.003329717
0000e0 e3 49 ef bc 74 fd dd 3a 8d e2 82 3c d5 81 dd bc
       -0.029210037 0.0016936497 0.015977168 -0.027039448
0000f0 79 ba 9e bc 47 24 13 bd c6 45 05 3b fe 64 11 3b
       -0.019376026 -0.03592327 0.0020335778 0.002218544
000100 36 4f b6 bb 8b 53 65 3c 2a cc 27 bc c6 e5 a1 bb
       -0.005563642 0.013996969 -0.010241548 -0.004940721
000110 52 78 c7 3c ca 77 a3 bc a4 44 5a bc 85 3b d2 39
       0.024349365 -0.01995458 -0.013322029 0.00040098667
000120 15 f4 85 bc e6 5b b9 bc 95 c8 17 bd 16 02 76 3c
       -0.016351739 -0.022626828 -0.037056524 0.015015146
000130 96 6a eb 3c 33 cf ab 3a 3d f5 e1 bb 4c e9 07 bc
       0.028737348 0.0013108015 -0.0068956898 -0.008295368
000140 56 3f be bc d9 11 1f 3c db e4 30 bc e3 e7 6f 3c
       -0.02322356 0.009708845 -0.010796751 0.014642688
000150 1b bf b4 3c a1 95 c1 3a 51 02 c9 bc b7 1c 33 bc
       0.022063782 0.0014769324 -0.024537237 -0.010932139
000160 76 a5 be 3c 62 d5 8a bc 90 91 06 bd 93 ed 18 3c
       0.023272257 -0.016947452 -0.032853663 0.009333986
000170 44 a6 a0 bb e1 23 7f bc 3f 12 d2 3c ea 9d 12 ba
       -0.004902633 -0.015572519 0.025643466 -0.0005592989
000180 97 c7 86 bb 39 cc 04 3d 80 34 90 bb 1a 04 1c bc
       -0.0041131484 0.032421324 -0.0044007897 -0.009522462
000190 a4 5f e3 3b 29 56 e2 bb 1e c5 62 bb f1 1b 8e 3b
       0.0069388915 -0.0069072437 -0.0034602354 0.004336827
0001a0 a3 96 ec 3c a6 19 87 3c e2 8f 93 3a a6 52 04 bb
       0.028880423 0.016491722 0.001125809 -0.0020190864
0001b0 ef 85 c3 3c b0 e0 3b bc 31 69 34 3c 01 bb 63 3c
       0.023867575 -0.011467144 0.011011408 0.013899566
0001c0 d1 90 a1 3b 92 43 7a bc de 8c e5 bb 56 9b 0b 3c
       0.0049305935 -0.015274899 -0.007005318 0.008520922
0001d0 8d 94 30 3b b1 f8 86 3c 95 ec b5 bc 78 28 2f bc
       0.0026944012 0.016476007 -0.022207538 -0.010690801
0001e0 a4 0e 78 bc db 2d 02 3d 1d 7f 67 3c 7b 12 91 3c
       -0.015140209 0.031782012 0.014129427 0.017709007
0001f0 2e 07 ad bc e9 2d 7e 3b 19 a1 39 ba 61 66 73 3d
       -0.021121588 0.0038784689 -0.00070811954 0.059423808
000200 db 7f b5 3b 77 66 c9 bc 25 3a d4 3c 15 c7 6c 3d
       0.005538923 -0.024584992 0.025906632 0.057807047
000210 cd 62 a6 bc 88 ee ab 3c f0 2f e7 bc b4 bb 3d 3c
       -0.020310784 0.020987764 -0.0282211 0.011580396
000220 3e 93 df 3c a4 43 52 bb a0 f5 95 3b 1f 2d 65 bd
       0.02729189 -0.0032083774 0.0045764 -0.055951234
000230 46 7a 6c 3c e1 38 19 3d 9c 66 02 bd ca 51 d3 bb
       0.014433449 0.03740776 -0.031836137 -0.006448959
000240 60 28 73 bd 93 72 11 3a bf 44 66 3b 29 a5 03 3c
       -0.059364676 0.0005548384 0.003513619 0.008034983
000250 14 84 9f bb c5 09 6c 3c ab 51 ff 3b 06 66 97 3b
       -0.00486804 0.014406626 0.007791718 0.0046203164
000260 83 b9 56 bd 69 03 44 bd 17 46 70 3c 8e 14 dc bb
       -0.05242301 -0.047854815 0.014665148 -0.0067163175
000270 62 33 4c 3c 81 d4 28 bc b2 ca 46 3c 0c 32 71 bb
       0.0124634225 -0.010304571 0.012133287 -0.0036803512
000280 4e ff a1 bc 1d 0c 0f 3c 9a 59 5f 3c f0 b1 9b 3c
       -0.01977506 0.008730915 0.0136322025 0.019005746
000290 a5 20 ab 3c f3 cd 8c bc 8b c3 cd 3c 2b c9 ab 3c
       0.02088959 -0.017188048 0.025117656 0.020969948
0002a0 a9 64 30 3d 34 6a b7 bb a6 f3 ee bc 81 21 ca 3b
       0.043064747 -0.005597377 -0.029168915 0.0061685448
0002b0 60 be c1 3b 6c b0 b8 3c 43 34 91 3b 9a c3 fa bc
       0.005912587 0.022545062 0.004431279 -0.030610848
0002c0 fe 03 26 3c fa 03 ce 3c 93 67 1c 3d c0 d9 02 3d
       0.010132788 0.02514838 0.038184714 0.031945944
0002d0 1d cc 59 bb 71 69 81 3b f5 df ef 3c 2e a6 47 3c
       -0.0033233233 0.003949337 0.029281596 0.012185616
0002e0 87 d4 09 3d 0a 09 a5 3b e0 e7 c3 3c 01 44 0b bb
       0.033649947 0.005036478 0.023914278 -0.002125025
0002f0 32 b4 29 bd ff 7a 4a 3c c1 4f 18 3d 01 00 c1 bc
       -0.041431613 0.012358426 0.037185434 -0.023559572
000300 58 14 a8 3c 6c a1 87 bc dc 60 07 bd ce 75 27 3c
       0.020517513 -0.016556464 -0.033051357 0.010220958
000310 66 b2 34 bc 08 ce a5 bc d5 47 f9 bb bd 4f 80 bc
       -0.011028862 -0.020239845 -0.00760744 -0.015663022
000320 4e 26 41 3d 10 ba 51 bc fc 6d 34 3b 4c 08 9d 3b
       0.04715567 -0.012800708 0.0027531376 0.004792249
000330 49 43 9e 3c 54 c8 a2 3c 3f 45 d8 3c 8d 3c f7 3c
       0.019319193 0.019870915 0.026400207 0.03018024
000340 8c b6 ca 3c 41 03 58 bc fa a3 30 bc 2c c4 8e bc
       0.024745248 -0.01318437 -0.010781283 -0.017427526
000350 d7 e2 1b bd 14 38 91 bc 72 e9 04 bd b8 17 1c bc
       -0.03805813 -0.017726935 -0.032449193 -0.009527139
000360 43 c7 14 3c 94 b7 89 3c 50 15 29 3a 22 1d 62 bb
       0.009080711 0.01681117 0.0006450014 -0.0034502228
000370 8d 0c c4 3c 7c d7 1b 3b d6 8f 82 bc e0 83 81 3c
       0.023931766 0.0023779562 -0.015937727 0.015809953
000380 c1 4f 41 bd 37 94 f4 3c af 36 1f 3c 91 87 aa bc
       -0.0471952 0.02985583 0.009717627 -0.020816596
000390 c8 af 6e 3c 56 64 01 3d fa 39 32 3c 58 00 df 3c
       0.014568277 0.03158983 0.0108780805 0.027221844
0003a0 7b bc 9b 3c df 1d 36 bc c1 54 8c 3b 15 c6 69 bc
       0.019010773 -0.01111552 0.0042825644 -0.014268418
0003b0 f2 da 2e bd ec 46 fd bb 45 8c 25 bd 86 63 ec bc
       -0.04268927 -0.007729402 -0.040416975 -0.02885605
0003c0 87 18 24 3c 9c 6b 94 3b 75 35 31 bd 08 d2 0c bc
       0.010015613 0.0045294296 -0.04326387 -0.008594997
0003d0 3b 8e 09 3c 34 9e bc 3b ce 09 c1 bc d5 b8 15 3c
       0.008395727 0.005756164 -0.023564246 0.009138306
0003e0 d3 d7 8d bc f1 aa c6 bc ea 00 8d bb 2a 5b 1d 3d
       -0.017314827 -0.024251433 -0.0043030875 0.03841702
0003f0 83 10 d2 bb 2e 32 cd bb 19 1e 74 bb ae 06 df 3b
       -0.0064106598 -0.0062620854 -0.0037249385 0.006806216

encoder.model.encoder_linear_output.bias f4 [32]
000000 1c 2d f6 3b db 62 49 3b bd a8 7b 3c 8e 77 e7 3b
       0.0075127017 0.0030729088 0.015360055 0.0070638126
000010 5a de 43 bc d4 b8 93 bc 0a d3 8e bc a8 f5 9a bb
       -0.011954868 -0.018032469 -0.017434616 -0.0047289915
000020 dd a2 3d 3c 7f ac 29 bc 06 3a 85 3c 9d d7 5b 3b
       0.011574474 -0.010356068 0.01626302 0.0033545264
000030 ac 84 98 3b d8 17 08 3c f5 5e 24 3c 6c 19 11 bb
       0.0046544876 0.008306466 0.010032405 -0.0022140397
000040 46 eb 87 3c cf 7a 26 bc be ea a0 3b 62 37 8e bc
       0.01659168 -0.010161116 0.004910796 -0.017360393
000050 f0 a8 42 3c c2 4c 36 3c 76 ee c0 3b 7b f3 4c 3c
       0.011881098 0.011126699 0.0058878018 0.012509222
000060 d7 18 fc 3b 20 36 0d bc 34 0b 9a 3b 45 28 6b 3c
       0.007693391 -0.008618861 0.0047010425 0.014352863
000070 ee 0a a9 bc 7f 54 41 3c 0c f3 35 3c 75 79 1b 3b
       -0.020635094 0.011799931 0.01110531 0.0023723517

head_net.model.value_linear_layer_1.weight f4 [64, 32]
000000 a2 60 fa bc 37 43 56 bd 65 41 cd be b6 2d 30 be
       -0.030563656 -0.052310195 -0.40088955 -0.17204937
000010 f5 cc 14 3d 72 f3 a2 3e 34 da 6d 3e 3e 69 f7 3d
       0.036328275 0.3182636 0.23227769 0.1208062
000020 b8 2a 44 bd 8b 93 96 3d ae af 4d 3e ff ae 4b 3e
       -0.047892302 0.0735236 0.20086548 0.19890974
000030 06 9a da bd 93 2e 82 be d0 98 90 be e9 87 4b be
       -0.10673909 -0.25426158 -0.28241587 -0.19876064
000040 44 1d 63 bd 1c e7 ad bc d6 fc c9 3d 38 48 b2 3e
       -0.05544783 -0.021228366 0.09862678 0.34820724
000050 c5 40 e3 3c f6 17 2e be 5d 47 bd 3d 38 f1 9c 3e
       0.027740845 -0.17001328 0.09242127 0.30652785
000060 2b d9 78 3c b6 b3 16 be ea ae 10 3e f2 27 38 be
       0.015188496 -0.14716992 0.14129224 -0.17983988
000070 4f 27 24 be 12 9f 3a ba 8f 04 57 be 89 57 97 3e
       -0.1603062 -0.000711904 -0.20997833 0.29558972
000080 46 bc ca 3d a1 6d 96 bd b2 11 06 3e 03 9b cc bc
       0.098991916 -0.07345129 0.13092688 -0.02497626
000090 28 22 2f be c6 dd 36 be 2a 74 06 be 99 c5 86 bd
       -0.17102873 -0.17858037 -0.1313025 -0.065806575
0000a0 17 72 ab bc f5 82 07 bd 95 71 d8 bc 27 54 af bd
       -0.020928426 -0.033083875 -0.026421348 -0.08560973
0000b0 99 ef 39 3e 13 d7 a6 be 2c 6b 42 be 30 8e 48 bd
       0.18157806 -0.32585964 -0.18986195 -0.048963726
0000c0 f7 2f ac be 19 f7 d9 3e 29 cf 4d 3e e0 6e 80 be
       -0.33630344 0.42571333 0.20098557 -0.2508459
0000d0 25 08 8f be 9f 6d 8b bc c2 30 57 3e 65 28 67 be
       -0.279359 -0.017020045 0.21014693 -0.22574003
0000e0 54 f6 ab 3d 04 19 15 be de b4 99 be d1 a2 22 be
       0.08396593 -0.14560324 -0.30020803 -0.15882422
0000f0 2a 73 2b be 7b 75 b4 bd 59 ec 3c be 21 b3 92 3d
       -0.1674315 -0.0881147 -0.18449534 0.071630724
000100 d6 62 2e 3e 54 cf e5 3d 70 a9 2c bd a2 2b 56 be
       0.1702989 0.11221185 -0.042153776 -0.20915082
000110 d6 e8 5c 3b 19 4c 04 3c 11 38 f6 bd cd a0 20 3e
       0.0033708117 0.008074784 -0.120224126 0.1568634
000120 06 f2 82 3e 93 d5 2f bd 86 79 6b be dd aa e4 3d
       0.25575274 -0.04292829 -0.22995576 0.11165402
000130 5b 3b df bd 50 ed 99 bd 8f 14 2a 3d 6c 3d a8 be
       -0.10899993 -0.07515967 0.041523512 -0.3285936
000140 2f 75 a9 bc cf 82 23 3e 6a eb 78 3d a8 56 0c be
       -0.02068576 0.15967868 0.060771383 -0.13704932
000150 97 8a 48 be a3 05 be 3e a5 ab b9 bd 15 ac fb 3d
       -0.19584118 0.37113675 -0.09065942 0.122886814
000160 a8 58 a0 3e 2d 3f 78 be 0d ae 64 3d 99 40 e5 3c
       0.3131764 -0.2424285 0.05583005 0.027984904
000170 46 3f 15 3e de 74 e3 3d 0a 47 60 be 49 97 a8 3c
       0.14574918 0.11106275 -0.21902099 0.02057995
000180 f7 a0 bd 3e e5 f7 c2 be 70 25 a9 be f0 8e c4 3d
       0.3703687 -0.38079754 -0.33036375 0.09597576
000190 a5 09 b1 3b 05 8f 49 3d ad 1a f0 3d 87 00 bf bb
       0.005402761 0.04920866 0.11723838 -0.0058289203
0001a0 4b 54 89 3e 0e 9a 64 bd de 79 0e be 63 9d eb bd
       0.26822123 -0.05581098 -0.13913676 -0.115046285
0001b0 eb 4b 76 be b9 3d 15 3d a2 6f 10 3d 8b 91 ab 3e
       -0.24052398 0.036435816 0.03526271 0.33509478
0001c0 1b d4 67 bd 5a 7e 24 bc 0a ee 50 3e f4 bf 13 bd
       -0.056598764 -0.01003989 0.20403305 -0.036071733
0001d0 aa 73 20 be f3 3a e6 3d e9 b2 dd 3c 09 8c ad 3e
       -0.15669122 0.112417124 0.02706285 0.338959
0001e0 dc fb 13 3e e6 b4 af 3e ce 17 c5 3d d7 bb 90 bd
       0.14451545 0.34317702 0.09623681 -0.070670776
0001f0 80 b5 10 be 25 38 2f 3e 5e 85 0a 3d 56 59 26 bc
       -0.14131737 0.17111261 0.033818595 -0.010153135
000200 70 96 26 be 05 7a 5e 3e a7 37 a5 3c b7 6c 85 be
       -0.16268325 0.21726234 0.020168139 -0.26059505
000210 21 07 06 be 08 71 12 be 15 6f fa 3b 24 28 10 be
       -0.13088657 -0.1430093 0.0076426365 -0.14077812
000220 bc ed 7d be c7 77 59 3e 3e ee 9a bd 4a cb 3c 3e
       -0.2479772 0.21237098 -0.07564972 0.18436924
000230 76 ce 4c 3e 1d 4f b1 3d e6 54 0b bd 94 2f 53 3e
       0.20000634 0.08657668 -0.034016512 0.20623618
000240 24 8c af be 92 ba ae bd b2 38 71 be 22 b7 0a 3d
       -0.34286606 -0.08531679 -0.23556784 0.033866055
000250 0d af ef bd f7 3b 8d 3e dc 6f 22 3e d5 35 93 3d
       -0.1170331 0.27584812 0.15862983 0.07188002
000260 c0 18 87 bd c6 39 d4 bc 77 06 70 3e 16 e3 d1 3d
       -0.065965176 -0.025906455 0.23439966 0.10248391
000270 4a 47 17 be 24 94 b7 be ba b0 63 bc 82 24 e8 3c
       -0.14773288 -0.3585521 -0.013897115 0.02833772
000280 24 d9 2c be 43 7d 05 be f5 a3 f7 be 44 41 75 be
       -0.16879708 -0.13036065 -0.48367277 -0.23950678
000290 61 f0 f1 3d 77 c3 c7 bd c2 c7 b9 be ed 96 10 be
       0.11813427 -0.09754079 -0.36285216 -0.14120074
0002a0 ba 04 cf 3d 2f 44 5f 3d 2c f8 ec bd 18 e8 26 3e
       0.101083234 0.054508384 -0.115707725 0.16299474
0002b0 69 91 ec bc 6f a1 88 bd 57 88 80 3c 0e bc a5 3e
       -0.02887793 -0.06671416 0.015690012 0.32370037
0002c0 d7 a6 89 3e bd 63 fd bc c6 0a c9 3d 65 13 49 3d
       0.268851 -0.030931348 0.09816508 0.04909076
0002d0 76 af 64 3d 0c f5 02 3e d4 dc 43 be 77 9a ec bc
       0.055831395 0.1278879 -0.19127208 -0.028882248
0002e0 1b 80 85 3d 15 62 73 3e 3b 88 7d be 63 4d be bd
       0.06518575 0.23767884 -0.24758999 -0.09292104
0002f0 20 c5 b2 3b d6 da 07 3d 7d 78 1c 3e 96 7f 57 3e
       0.005455628 0.033167683 0.15280338 0.21044764
000300 6e 58 58 3c a6 57 97 be 16 c7 dd 3d 03 64 54 be
       0.013204677 -0.29559058 0.10828988 -0.20741276
000310 50 45 8c bd a3 68 74 3e c2 09 7c bd bc 80 a1 3e
       -0.06849158 0.2386804 -0.061532743 0.3154353
000320 a6 34 c7 bd d0 b7 9d be 6c 5b da bc de ef 23 be
       -0.09726839 -0.308043 -0.026654921 -0.16009471
000330 03 1b a3 bc 10 32 22 3e a0 9a 34 3d 73 43 cc 3d
       -0.019910341 0.1583941 0.044092774 0.099738024
000340 90 85 b1 3e 83 c3 15 be af e0 89 3e f6 e2 30 3d
       0.34672213 -0.14625363 0.26929232 0.043185197
000350 33 c7 fc bc 21 10 32 3d b0 86 c0 3e 03 91 9a bd
       -0.030856704 0.043472413 0.37602758 -0.0754719
000360 df 0a 91 bd 5d 2f 3c bd e5 52 b5 3c 36 aa 3d bd
       -0.070821516 -0.045943607 0.022134254 -0.046304904
000370 f5 3b 7f 3d c2 7c e7 bd b0 34 4a be 55 1a 65 3d
       0.06231304 -0.113030925 -0.19746661 0.055933315
000380 a0 17 14 3e 22 5d 3f 3e cb 9b 3d bd 12 92 17 3d
       0.14462137 0.18687871 -0.046291154 0.037004538
000390 dd c4 86 3e aa c8 a3 3b c8 ac c4 3d f0 85 d2 be
       0.2632207 0.0049982863 0.09603268 -0.4111781
0003a0 15 e1 c9 bd fa 27 88 be 97 a4 47 be ef 7f e5 3d
       -0.09857384 -0.26593 -0.1949638 0.11206042
0003b0 87 4d c5 bc 27 ef d1 bd 7b 31 27 3d de fd 4a 3c
       -0.02408482 -0.10250693 0.040818673 0.012389628
0003c0 3f 9c e2 bd 73 b5 fb bc e6 c1 bd 3c 82 4b 20 be
       -0.11064958 -0.03072617 0.023163747 -0.15653804
0003d0 3f c3 0c 3e 1d bb 50 3e d0 3f 27 3e cb 6e 62 3e
       0.13746355 0.20383878 0.16332936 0.22112577
0003e0 dd d1 a9 be cc 24 02 3e ec 87 82 3d d4 0d a3 bd
       -0.33167925 0.1270935 0.06373581 -0.07961622
0003f0 09 7a 3a be f9 67 58 3e 7e 82 36 be 22 c8 90 3d
       -0.18210615 0.21133412 -0.17823216 0.07069422

head_net.model.value_linear_layer_1.bias f4 [64]
000000 b7 66 ea 3c d4 dc 32 3c 50 42 58 3a e5 a4 db 3b
       0.028613431 0.010916907 0.00082496274 0.0067030066
000010 5d 30 25 3c a5 df 53 ba d7 da 86 3b 29 dc bc 3a
       0.0100823315 -0.0008082337 0.004115443 0.0014408875
000020 dd b4 df 3b 35 8e 92 3a d0 64 ff bb a6 32 52 38
       0.0068269805 0.0011181297 -0.007794 5.011507e-05
000030 b6 1b b9 3b 3b 8e 22 3c 26 98 bd 3b 81 a0 8d 3c
       0.0056490554 0.009921606 0.00578596 0.017288448
000040 a1 ae 92 3b 36 bc 70 3a fa 79 2a bb a6 e9 e3 3b
       0.004476384 0.0009183319 -0.0026012645 0.0069553433
000050 c6 6c ea ba 8c f6 ec 3c ab 64 00 3b 5b df 27 bb
       -0.00178852 0.028926156 0.0019591253 -0.0025615308
000060 b1 9b 1b bb 92 a5 4f 3b 9c 20 73 b9 d4 03 70 bb
       -0.0023743922 0.003168438 -0.00023186434 -0.0036623375
000070 8d 49 8b bb 7b 25 5c 3c ff 81 40 3b c7 af 3b 3b
       -0.0042507113 0.01343667 0.0029374359 0.0028638707
000080 c2 d0 08 bc 38 51 28 3c 81 46 dc 3c 83 bb 83 bb
       -0.008350553 0.01027327 0.026889088 -0.004020156
000090 26 b5 ee b9 24 12 c4 3b 63 1b 9d 3c 4b 59 d3 3b
       -0.00045529864 0.005983608 0.019178098 0.0064498535
0000a0 71 b5 0b 3b 9a 08 73 3b 30 e1 e3 ba f4 80 b2 ba
       0.0021317864 0.0037083984 -0.0017385837 -0.0013618753
0000b0 4a cf 38 3b 10 1c 6e 3c 4f bd d2 3b 27 4a d5 b7
       0.0028199726 0.014533058 0.0064312587 -2.5426109e-05
0000c0 fc f5 f8 39 f7 ef 6f 3c 15 f1 0a 3c 43 90 7d 3b
       0.0004748552 0.014644614 0.00848033 0.0038690723
0000d0 0a 72 86 3b bc ed 7a 3a 57 dd b9 39 bf be 41 3c
       0.00410295 0.00095721683 0.0003545086 0.011825263
0000e0 7a 63 81 3c 2a 77 bf b8 91 48 bd ba 74 23 80 3b
       0.015794504 -9.129786e-05 -0.0014441182 0.0039104763
0000f0 0c b9 c3 bb e5 7b 25 b9 fe da 9c 3a 9c 75 4a 3c
       -0.005972987 -0.0001578178 0.001196712 0.012357142

head_net.model.value_layer_norm_1.weight f4 [64]
000000 3a d7 79 3f 95 09 75 3f 22 69 7e 3f 02 60 82 3f
       0.97594035 0.95717746 0.9937917 1.0185549
000010 3e c6 7e 3f 67 09 82 3f f6 44 82 3f fc eb 81 3f
       0.99521244 1.0159119 1.0177295 1.0150142
000020 fe 06 7f 3f f4 fa 7c 3f 61 35 7e 3f 22 de 73 3f
       0.99620044 0.98820424 0.993002 0.9526082
000030 92 65 7f 3f da 42 79 3f 95 b5 80 3f 95 79 7a 3f
       0.9976436 0.9736763 1.0055414 0.9784177
000040 d1 34 7a 3f 2f 56 83 3f fe 58 7d 3f 71 a5 7c 3f
       0.9773684 1.0260676 0.98963916 0.98689944
000050 cb c5 7e 3f 0d 12 7b 3f 93 c8 82 3f b1 9b 7f 3f
       0.9952056 0.9807442 1.021746 0.9984694
000060 f5 4c 7f 3f 8b 41 7b 3f c1 40 81 3f 2c 17 80 3f
       0.997268 0.98146886 1.0097886 1.0007071
000070 6b ea 81 3f 37 77 79 3f 0c 2e 81 3f ab 5a 7e 3f
       1.0149664 0.9744753 1.0092177 0.993571
000080 f0 6a 7e 3f 76 1f 7e 3f d5 c7 7d 3f 3c 33 7c 3f
       0.99381924 0.99266756 0.99133044 0.9851568
000090 be f0 83 3f df 38 7a 3f 0f a7 7a 3f 81 3e 88 3f
       1.0307844 0.9774303 0.9791116 1.0644075
0000a0 b7 51 80 3f 56 04 81 3f 46 08 82 3f 84 0a 7c 3f
       1.0024937 1.0079448 1.0158775 0.98453546
0000b0 53 64 7b 3f cc 58 83 3f 78 fc 70 3f 8a 98 7f 3f
       0.9819996 1.0261474 0.94135237 0.9984213
0000c0 ad 36 7d 3f cc 81 75 3f 03 6c 76 3f ec 4d 7f 3f
       0.98911554 0.9590118 0.9625856 0.99728274
0000d0 e4 b8 7e 3f b6 07 7f 3f 87 68 83 3f 24 e0 7f 3f
       0.9950087 0.9962114 1.0266274 0.99951386
0000e0 d8 72 78 3f ba a4 7e 3f d3 26 7f 3f 1f b2 7f 3f
       0.9705024 0.994701 0.99668616 0.99881166
0000f0 44 b1 80 3f bb f7 78 3f 79 d8 80 3f 4d 09 7c 3f
       1.0054097 0.97253007 1.0066062 0.9845169

head_net.model.value_layer_norm_1.bias f4 [64]
000000 8c b6 ea bc 9f ea 49 bd f1 c7 8f bb 67 8c 18 bc
       -0.028651498 -0.049296018 -0.0043878485 -0.009310818
000010 79 42 94 bc cb ad 5e bc b1 5a fc b9 2c 5b 97 ba
       -0.018098103 -0.01359124 -0.00048132756 -0.0011547557
000020 d6 d1 c6 bc 86 46 c6 bb 91 73 d7 bb b1 3f 22 bd
       -0.02426998 -0.0060508875 -0.006575056 -0.039611522
000030 fb 69 7e bb 4e ad dd bc 6c cc 1e bb 30 5b c9 bc
       -0.0038820494 -0.027060177 -0.0024230732 -0.024579614
000040 d5 78 2b bd 67 f1 7a bb 68 2e 3f bc 7f 6a bd bc
       -0.04186328 -0.003829086 -0.011668779 -0.02312207
000050 c9 6f 01 bc 68 c8 02 bd a7 9e 60 bb 0c 8e fb bb
       -0.007900187 -0.031929404 -0.0034274252 -0.0076768454
000060 b1 c1 f7 bb 83 bd cd bb b6 77 0f bc 72 92 3e bc
       -0.0075609316 -0.006278695 -0.008756569 -0.011631595
000070 4c 3b 1d bc 7b 95 0b bd 96 b8 fa bb d2 2e 9c bc
       -0.009596657 -0.034078103 -0.007651399 -0.019065294
000080 c0 5a 28 bc 30 c1 96 bc c4 83 11 bd 87 96 21 bc
       -0.010275543 -0.018402666 -0.035526052 -0.009862549
000090 30 2c 0b bc b9 d0 e9 bc a3 87 1c bd 8f 68 10 bc
       -0.008494422 -0.02854191 -0.03821529 -0.008813991
0000a0 d7 bc 5a bc a1 83 0c bc be a9 14 bc 5d 56 fe bb
       -0.013350687 -0.008576305 -0.009073673 -0.00776176
0000b0 60 8d e9 bc 8a 38 c0 bb 6e f8 89 bc 6f bb 10 bc
       -0.028509796 -0.005866115 -0.016842093 -0.00883375
0000c0 86 c1 c6 bb 53 30 1b bd f0 78 14 bd bd 90 a5 bb
       -0.0060655503 -0.037887882 -0.036248147 -0.0050526545
0000d0 3d 2d e5 bb 07 56 48 bb 27 17 cc bb c3 9f e2 bc
       -0.006993918 -0.0030568854 -0.006228346 -0.027664071
0000e0 84 e2 ae bc d9 f5 d6 bb ee 04 f5 bb b9 fe 16 bb
       -0.021348245 -0.006560069 -0.0074773943 -0.002304001
0000f0 25 20 b6 bb 27 7e 0c bc 17 87 5c bc fd 23 f4 bc
       -0.005558031 -0.008574999 -0.013459942 -0.029802317

head_net.model.value_linear_layer_2.weight f4 [64, 64]
000000 53 ba ee bd a0 e6 5a 3d 55 a3 8b 3e e3 4b 7c bd
       -0.11656632 0.053442597 0.2727305 -0.06159581
000010 5b d2 a0 3d 75 8c 65 be 10 b4 ca bd 6d 59 ef 3d
       0.07852622 -0.22416861 -0.098976254 0.116869785
000020 b7 fc 78 3e f1 2b 80 bc 16 1d 54 3e 46 84 82 3d
       0.24315153 -0.015645953 0.2071422 0.063728854
000030 d5 b2 08 3e ea 18 9e be 7d cf 4c be 2c 73 a2 bc
       0.13349469 -0.30878383 -0.20001025 -0.019830309
000040 a0 ec 18 be d0 03 fe bd 5d 8f e9 3d 01 5a 9d bd
       -0.14934015 -0.12403071 0.114042975 -0.076831825
000050 52 27 29 be d8 73 ce bd 89 30 1c be 0d ec 16 bd
       -0.16518906 -0.10080689 -0.1525289 -0.03684621
000060 1b ab ef 3d df 45 8f 3d 8b 5c 49 be 07 d5 c7 be
       0.11702558 0.06995749 -0.19664209 -0.39029714
000070 c4 d2 be 3d 22 67 f0 3d 48 9c 40 3e cb fc 74 be
       0.09317544 0.11738421 0.18809617 -0.23924558
000080 17 9d 9d 3d 66 8a 62 3d e4 81 50 3d 6a 9c b2 3d
       0.07695978 0.05530777 0.050905123 0.0872124
000090 83 2f a5 3e 2e a1 c4 3d bc 6b 9a 3e 66 86 f5 3d
       0.3226281 0.09601055 0.3016032 0.11988525
0000a0 62 3e 47 3e 56 f0 38 3e 69 61 6e 3d 80 ed 90 bc
       0.19457391 0.18060431 0.058198366 -0.017691374
0000b0 a1 aa ca 3e 01 38 c3 be f6 7f 36 3d 7c 13 9a 3d
       0.39583305 -0.38128665 0.044555627 0.075232476
0000c0 8f 6c 83 be 45 e3 9c 3e 43 b5 14 3e 10 0a 43 3e
       -0.2566876 0.30642143 0.14522271 0.19046807
0000d0 bd 8e ac 3d 71 b4 66 3d 47 ea ad bc 3d 8d 14 3b
       0.08425663 0.056324426 -0.021229876 0.0022667192
0000e0 f2 f3 e2 3d 22 f6 d1 3d ba c3 bf 3d 83 57 b8 bc
       0.11081685 0.10252024 0.09363504 -0.022502666
0000f0 dc e6 4b bd e7 88 26 be a4 a3 16 bd ac 2b 28 3d
       -0.04978071 -0.16263162 -0.036777154 0.041057274
000100 92 51 41 3e ff b3 bb 3c 04 8c 17 3e 49 98 44 b9
       0.18878773 0.022912977 0.14799505 -0.00018748747
000110 4e e8 8f 3d 9d b8 b0 3e 37 4c ff 3d 89 8d 98 3e
       0.070267305 0.3451585 0.12465709 0.29795483
000120 e3 70 53 be 61 49 56 be c1 77 9a 3e 8e 05 0f be
       -0.20648532 -0.2092643 0.3016949 -0.13966963
000130 44 4e b3 3e f4 e5 03 3d 66 56 13 3d 04 61 a7 bd
       0.3502065 0.032201722 0.035971068 -0.08172801
000140 f4 53 6a be ca 08 5f 3e 7e f9 a5 3d 8c 9f 75 bd
       -0.22883588 0.21780697 0.081042275 -0.05996661
000150 40 7f 96 bd 87 fa c0 bd 5e e4 ae bd 3b 02 b1 be
       -0.0734849 -0.09422784 -0.08539651 -0.34572014
000160 eb bf 14 3d e5 d2 47 3e 32 4c c7 3d b2 62 c6 be
       0.03631584 0.19514044 0.0973133 -0.38747174
000170 30 eb f2 3c 9e 40 b3 bd 05 f0 7a be 58 fc 9d be
       0.029653162 -0.08752559 -0.24505623 -0.30856586
000180 5c ce b0 3e f5 e0 01 be 06 9b cd 3c db a6 70 be
       0.3453244 -0.1268347 0.025098335 -0.2350115
000190 1f f8 fc bd ed 72 2e 3e 28 12 94 3d 0e 09 79 bd
       -0.12352013 0.17036028 0.072300255 -0.06079965
0001a0 e9 9f f3 bd ff b3 f6 bc 25 76 4b bd e9 a1 19 bd
       -0.11895735 -0.030115126 -0.04967322 -0.037507925
0001b0 26 b8 d4 3c 31 f9 06 3e 7a 0f a4 3d 9f 32 94 3c
       0.025966715 0.13180996 0.080107644 0.018090544
0001c0 c2 87 1a 3e 59 ff 27 be 04 55 1f bd 70 81 00 3e
       0.1509085 -0.16406001 -0.038899437 0.12549376
0001d0 d2 43 db be b5 b1 cb 3c 09 7a 76 3d fb d3 c9 3c
       -0.4282518 0.02486501 0.060174976 0.024637213
0001e0 01 58 6e 3e 25 c6 a2 bc 10 22 db bd 43 79 29 3e
       0.23275758 -0.019869873 -0.10699856 0.16550164
0001f0 11 3e c9 bd e8 2b 29 bd 85 5f fb 3d fb d5 6f 3c
       -0.09826291 -0.041301638 0.12274078 0.014638419
000200 bd 0a b6 3d 91 60 df 3d ba c8 e4 bd 9f 48 c7 3d
       0.08888767 0.109070905 -0.11171098 0.09730648
000210 e2 fe cb bc 0f 67 5c 3e b8 09 17 be a0 04 94 bd
       -0.024901811 0.21523689 -0.14749801 -0.07227445
000220 97 8b a6 3d c5 01 a3 be d7 02 27 3e dd 4d f5 3d
       0.081320934 -0.31837288 0.16309677 0.11977742
000230 bf de 1f 3e b9 46 8f be 1d 06 8f be 06 2e 68 be
       0.15612315 -0.27983645 -0.27934352 -0.22673807
000240 7a b9 26 bd 2f 6f 04 be 93 e9 34 bd 35 00 27 3d
       -0.040704228 -0.12933038 -0.044168066 0.04077168
000250 57 97 60 3e ee 72 77 be f6 fd 56 3d 31 2d 80 be
       0.21932732 -0.24164936 0.05248829 -0.25034478
000260 db bb 8c 3e 6d 8f d9 bd 46 83 84 3c 1f bc 45 3e
       0.27487072 -0.106230594 0.016175877 0.19310044
000270 9e 7a 3c 3d 49 2b bc 3c 5c e8 b4 3e 3e ce cf 3d
       0.046015374 0.022969859 0.35333526 0.101467595
000280 02 72 f8 bd 79 0e 1c 3e 26 67 58 3e cc 48 a3 3d
       -0.1213112 0.15239896 0.21133098 0.07972869
000290 59 16 b6 3e 18 fe 3a 3d a9 86 b5 3d ad 84 2a be
       0.35563925 0.04565248 0.08863575 -0.16652174
0002a0 a8 60 1a 3b 66 ce 38 be 00 bc 8e 3c 3e 10 95 3e
       0.0023556147 -0.18047485 0.01742363 0.29113954
0002b0 26 e2 09 be 51 aa df 3d d5 90 2f 3d 56 90 e0 3d
       -0.13465175 0.10921157 0.042862732 0.1096503
0002c0 0d 80 78 3e 68 20 24 bd 49 4d 86 39 d3 cd 9d 3d
       0.24267597 -0.040069968 0.00025616054 0.077052735
0002d0 b5 32 ae 3c be b8 5a bd 8e 73 7e bd 72 2d 95 bc
       0.021264413 -0.05339884 -0.06212192 -0.018210147
0002e0 1c 01 ee 3d b4 6d ad bd f6 8d ee 3d 2b 35 40 be
       0.11621305 -0.0846819 0.11648171 -0.18770282
0002f0 85 3a 13 be 98 80 18 be 0f c4 56 be 96 a6 bb 3d
       -0.14377792 -0.14892805 -0.20973228 0.09162633
000300 62 51 c8 be 21 a1 42 3d 91 a5 1a 3d 7c 87 bf bc
       -0.3912459 0.047516946 0.037755553 -0.023380034
000310 3e 51 3a 3e 9f 85 07 3e 1b 1a f1 bd 0a 2a 5f bd
       0.18195054 0.13234566 -0.11772557 -0.05448345
000320 9d 6f 4e be fa b5 0e 3e 83 e9 1a be d4 0e 00 be
       -0.20159765 0.13936606 -0.1512814 -0.12505656
000330 97 dd 0f be 88 7a ac bc 87 86 0a be 42 b1 9d be
       -0.14049374 -0.021054521 -0.1352788 -0.307993
000340 0b fb 8f bc 31 fd e8 3d 42 73 63 3e 2e 95 a6 be
       -0.017575761 0.113764174 0.22211936 -0.3253569
000350 3d 6f d9 3e e3 2a 5c 3e 2a b7 a7 3d b9 27 31 be
       0.4246768 0.21500735 0.08189233 -0.17300309
000360 07 01 3e 3e ab 82 6b 3e e3 66 18 bc 36 dc 97 be
       0.1855508 0.22999065 -0.009301874 -0.29660195
000370 95 f1 e7 3c 59 f0 4d bb 24 7c 19 3e 7c 34 73 3e
       0.028313437 -0.0031423776 0.14988762 0.2375049
000380 a0 b4 2b be 49 93 f6 3d de a5 dc bd 9b 0c b2 bd
       -0.16768122 0.12039811 -0.10773824 -0.086938106
000390 42 64 a6 bd 5e 74 b9 3d d0 68 82 bc 3f 32 f5 3d
       -0.081245914 0.090553984 -0.01591912 0.11972474
0003a0 61 a0 92 3e 6e e8 92 bd c4 7d bb 3d aa 70 e5 3e
       0.28637984 -0.07173239 0.09154847 0.44812518
0003b0 a2 2c bd 3d 91 15 5b bc 7c ae 62 bd 43 67 46 3e
       0.09237029 -0.013371841 -0.055342183 0.19375329
0003c0 15 aa 3c 3e 52 f1 3c bb 58 1b 10 bc e9 95 ba be
       0.18424256 -0.0028830362 -0.008795582 -0.36442497
0003d0 e3 7f 63 be f8 6e 78 3e 05 af 80 3e df 4b 79 bc
       -0.22216754 0.24261081 0.2513353 -0.015215843
0003e0 42 ab 31 bd 10 3e 17 bc 4e b0 d2 bc 9a a2 29 3e
       -0.043376215 -0.009231105 -0.025718834 0.16565934
0003f0 49 1e 72 3e 12 0b 4c 3e aa 75 0a bd 25 00 5f bc
       0.23644365 0.19926098 -0.03380362 -0.013610874

head_net.model.value_linear_layer_2.bias f4 [64]
000000 cd 38 2e bd 18 38 62 3c 73 3b c9 3d 11 eb c4 bc
       -0.04253464 0.013807319 0.09825792 -0.02403787
000010 39 e9 e1 3b 04 db 45 3d 13 82 16 3d 67 91 e9 3b
       0.0068942574 0.048304573 0.036745142 0.007127929
000020 76 10 00 3d 44 ac b6 bc 63 51 b4 bc ca cd 8e ba
       0.0312657 -0.02229894 -0.022011464 -0.001089507
000030 a2 c7 74 bc 21 87 ed ba 33 17 84 bc 4e 49 b5 3c
       -0.014940174 -0.0018121937 -0.016124343 0.022129681
000040 9c ba 47 bc cd fe a8 3b fb 90 eb 3c bc 95 42 3d
       -0.012190487 0.0051573277 0.028755656 0.04750608
000050 09 7c f8 3c 4f 56 77 3d ac 9f a5 3d 03 24 86 3c
       0.030332582 0.060385045 0.080870956 0.016374594
000060 fc 44 f1 3c 2c fc bd 3a 27 70 54 3d a6 91 3b bc
       0.02945184 0.0014494709 0.05186477 -0.0114482995
000070 12 18 0e 3c 71 55 56 bc 4c 98 a0 bb c4 08 8b bd
       0.008672731 -0.013081894 -0.0049009677 -0.06788781
000080 20 b5 b2 bb f6 63 6b 3b 4b 9e a7 3c a4 d7 b1 bc
       -0.0054537207 0.0035917736 0.020461222 -0.02170927
000090 45 fc 49 3c e7 43 c9 ba 38 eb 14 3a ff d1 05 3d
       0.012328212 -0.001535532 0.0005680802 0.03267097
0000a0 3a b7 94 3b b5 c8 80 3d 6c 17 7c 3b b9 42 6c 3c
       0.004538444 0.06288282 0.003846611 0.014420205
0000b0 e4 de 29 bc f8 67 88 3c 72 46 25 3c ad 33 1e 3c
       -0.010368083 0.016651139 0.010087596 0.009655875
0000c0 c6 94 42 3b 2c 7f 01 3c 65 1b 4a 3c 42 e6 2f 3c
       0.0029690727 0.007903855 0.012335633 0.01073605
0000d0 53 f7 24 bd 52 06 ba 3b 89 5d 64 3d b4 9d 0e 3c
       -0.04027493 0.005677023 0.055753265 0.008704592
0000e0 e6 33 f7 bc 4a 6f 28 3c d2 92 3e bc ec 62 b4 3c
       -0.030176114 0.01028044 -0.011631684 0.022019826
0000f0 5f e8 0f bd 3b 12 74 3d 6c 06 b9 bc 56 f1 37 3b
       -0.035133716 0.0595877 -0.02258607 0.0028067431

head_net.model.value_layer_norm_2.weight f4 [64]
000000 b2 41 82 3f d9 3b 85 3f 09 3f 86 3f dd da 83 3f
       1.0176299 1.0408889 1.0487987 1.0301167
000010 45 6c 89 3f 4c f1 92 3f 14 f4 8e 3f e5 3a 82 3f
       1.0736166 1.1479888 1.1168237 1.0174223
000020 fe bf 8f 3f b3 0f 8e 3f 44 59 82 3f c7 0a 8f 3f
       1.1230466 1.1098541 1.0183492 1.1175164
000030 f7 f0 81 3f 91 5c 8a 3f 02 61 8c 3f bc 69 8b 3f
       1.0151662 1.0809499 1.0967104 1.0891643
000040 5c 9e 87 3f 48 91 86 3f 26 4b 80 3f 6f ad 8c 3f
       1.0595202 1.0513086 1.0022933 1.0990428
000050 39 cb 7f 3f 64 2f 8e 3f 98 71 87 3f 51 9d 8d 3f
       0.9991947 1.1108212 1.0581541 1.1063634
000060 8b 4e 85 3f 4f be 87 3f 84 87 8a 3f d7 28 87 3f
       1.0414594 1.0604953 1.0822606 1.0559338
000070 1f 62 87 3f 19 e9 85 3f 9a f7 81 3f d2 f4 83 3f
       1.0576819 1.0461761 1.0153687 1.0309088
000080 af 7b 80 3f 3e 9f 85 3f 03 31 88 3f 13 2a 82 3f
       1.0037745 1.0439222 1.0639957 1.016909
000090 28 4c 8b 3f 03 53 80 3f dc c0 8c 3f c0 9c 84 3f
       1.0882616 1.0025333 1.0996356 1.0360336
0000a0 ed 6d 84 3f 65 00 90 3f f2 34 87 3f ba e8 88 3f
       1.0346047 1.125012 1.0563033 1.0696023
0000b0 42 ba 84 3f 4c c1 8f 3f 5b 35 8b 3f b5 dd 87 3f
       1.0369341 1.1230865 1.0875658 1.0614535
0000c0 8a 89 84 3f 48 ba 87 3f 0b 03 8d 3f 5d d0 88 3f
       1.0354474 1.0603724 1.1016554 1.0688587
0000d0 f8 37 88 3f 7e 2e 8a 3f e1 b3 90 3f 99 f2 82 3f
       1.064208 1.0795438 1.1304895 1.0230285
0000e0 52 37 81 3f 52 c4 8b 3f 39 5e 84 3f 82 39 8b 3f
       1.0095007 1.0919287 1.0341254 1.0876925
0000f0 df fa 82 3f d4 8d 8c 3f f6 f0 81 3f e2 eb 84 3f
       1.023281 1.0980783 1.015166 1.0384486

head_net.model.value_layer_norm_2.bias f4 [64]
000000 a4 0b e3 3b d5 38 c0 3c 8a a1 9a 3c 20 a8 a1 3c
       0.006928878 0.0234646 0.018875856 0.019733489
000010 36 86 c4 3c b0 00 57 3d 7e e6 2c 3d 3b fa 4d 3c
       0.023989778 0.05249089 0.042212002 0.012571867
000020 6d be 64 3d f4 74 b0 3c 7f 95 d1 3b 92 bc b2 3c
       0.055845667 0.021540143 0.006395995 0.021818433
000030 bf 7c 2a 3c ce 9a cb 3c df e1 f7 3c 87 fd a6 3c
       0.010405718 0.02485409 0.03025907 0.020384563
000040 5a ab 81 3c 43 d7 c0 3c b4 45 07 bc 5c 75 d3 3b
       0.015828777 0.023540145 -0.008256365 0.0064531993
000050 67 36 a2 bc a2 29 5c 3d 4c 23 b2 3b 00 f6 42 3d
       -0.019801332 0.05375064 0.0054363366 0.047597885
000060 10 43 21 3c db f7 c4 3c 70 48 1a 3d a8 dc c9 3c
       0.009842649 0.024043968 0.037666738 0.02464135
000070 11 14 88 3c cb 94 9c 3c c7 5f 0b 3c a2 a4 1e 3c
       0.01661113 0.019113919 0.008506722 0.009682806
000080 0c 11 9b 3b ca c8 8b 3c f5 79 05 3c 0a a3 d7 ba
       0.0047322568 0.017063517 0.008146753 -0.0016451788
000090 d2 ef d0 3c cb a3 0e 3c fd 81 be 3c a7 85 45 bb
       0.02550498 0.0087060435 0.023255343 -0.0030139477
0000a0 a8 ba d5 3b 23 95 b6 3d 39 4b 02 3c 1d 84 64 3c
       0.0065224953 0.08915164 0.007952505 0.013947514
0000b0 fc a5 71 3c 77 20 0b 3d 67 ae 15 3d 40 5b 5b 3c
       0.014749046 0.033966508 0.036543276 0.013388455
0000c0 2e c9 96 3c a1 4b b5 3c 91 f9 0f 3b b1 50 1a 3c
       0.018406477 0.02213079 0.0021968822 0.009418652
0000d0 75 f9 a6 3c 04 26 a5 3c a8 0d 74 3d 2f 3b f7 3b
       0.020382622 0.020159729 0.059583336 0.007544897
0000e0 71 ec a7 3b df f4 12 3c 41 e7 73 3c d3 52 cf 3c
       0.0051246216 0.008969515 0.014886678 0.025308048
0000f0 6c c3 d3 3b f0 b0 39 3d da 0c 92 3b 2c bb 90 3c
       0.006462505 0.045334756 0.0044570984 0.017667376
