tutorials/AgileRL/models/DQN/lesson3_trained_agent.pt (torch, 866046 bytes, 16 tensors)

feature_net.feature_conv_layer_0.weight f4 [128, 2, 4, 4]
00000000: 2e7a d63e 4c3f 7ebe 9aac 86be 94a1 08bf
00000010: 600c 40be b4b6 a4bd 5442 a3be c12e fc3d
00000020: 0336 753e e5f7 653d 42d1 bf3d 7331 d33d
00000030: 3100 1b3e e319 43be b70a 163e ddad 573e
00000040: 90b2 84bf 62e2 c83e f3a9 5f3d 19f8 d5be
00000050: dc56 61be 9dc1 6f3e e9f5 e0bd 8813 a9be
00000060: 8627 8dbe f0e6 193e 3fe2 c43d b716 7cbe
00000070: 8c33 d7bd 11e2 c53d 57f5 0dbe afd9 24be
00000080: 6edc 6ebd 7e34 5cbe 00f0 46be 403c ab3c
00000090: 7042 b8be 8a22 bf3e 89cd c83d 054e 2b3e
000000a0: dbb3 13bd 1eb5 08bf eaca f2bc d78c c1ba
000000b0: 6c1d 5dbe 7ab4 a03e 5e75 afbe 50d8 6d3e
000000c0: a8ad 09be 4e6c 1ebd e951 cbbd 4389 95bd
000000d0: 25fa 833d b4ef e6bd 4095 febc 3442 7cbd
000000e0: f0aa d83d 8f13 2abf 9501 c5be b6f9 443d
000000f0: d4a4 2c3c daea 963e ebc2 84be d232 1e3e
00000100: 9215 213e 2240 b3be bb95 fb3d 9f7a aa3d
00000110: 00e5 f53c a249 a33d 3358 04bf 582e 813e
00000120: fdcd c8bc e175 58bc b1ac 86bd cd4c 893c
00000130: 9501 2f3d 7e80 4abe f0e3 943e fa82 853e
00000140: 7365 06be c15a 7d3d c6a3 013d c1ad 4c3e
00000150: 70d0 5c3d a1e0 e13c 3a22 23bd 5286 c93d
00000160: edc2 21be 33ac eb3d 8222 50bd d4b9 073d
00000170: f4f4 2abe 3a59 36be a4cc ab3e a3d3 573e
00000180: 49cb 183f 6f9e 96bd 7c80 a9be d56b b0be
00000190: c929 bbbd ee31 e0bd ce57 76be d481 dfbe
000001a0: f70f 873e 0604 103d 13e0 4fbd f122 953e
000001b0: 97d5 c1bd 3e8b 203e 1b06 e93c 3c11 0f3e
000001c0: d0cb b33d 38a8 63bb 0b54 603e 6988 22bd
000001d0: 31a0 97be 05ef b9bd 9cad 893e e67c 2cbe
000001e0: d17c d03e 0021 66be 4e79 c73d 327d 7e3e
000001f0: 660a 253e 0461 cfbe 3250 eb3d 2c9c 02bd
00000200: 0ee2 bcbd 3d6e 4b3e 9d89 abbd a7ec 963d
00000210: 8588 bcbc 3520 7b3e 6ff6 19bd 356a 9b3c
00000220: 3eb6 983d 4dd8 5e3e d8ce f13c ef9e 3a3c
00000230: e826 d0bd ab67 343d bebc b7bd acad 553e
00000240: 092b 61be 08b0 f33d c8c9 593e a492 223d
00000250: 12b7 553e 5e0f f43d 21f5 87be 67ec cd3d
00000260: 08bb 183e 3b07 c93d 4f01 e9bd 89fd 9e3d
00000270: 97fe dd3d 03f6 56be bdf0 1f3e 3f7a a93d
00000280: 97e7 90be e985 abbe 0918 22be 0b0f 9dbe
00000290: 995b 8c3e 5476 b6be e0c8 4c3e 8c94 283e
000002a0: ba15 1bbe efe2 0d3d 5b63 a43d 690d 23be
000002b0: 385c 213e 8499 08be 163c 653e cacd 9f3d
000002c0: d8ac f63d 361b 38bc 5948 efbd dc8c 433c
000002d0: bec3 173e 1513 153e 45f5 fdbc 2c25 8b3c
000002e0: f579 3fbe 20e4 a9bd d310 963d 116e 043e
000002f0: 88b5 b23d 61e6 503e 4fa2 7d3e 9e00 08be
00000300: b38c c93d 398a fcbe 8fa9 133e 6a4c 32be
00000310: 4247 9f3c 384e 963e 2dde 043d bbc6 f4bb
00000320: 3949 cbba 3eb0 09bd 766f 5b3e 9913 933c
00000330: ae70 2f3e e819 1fbe 1768 b5bc e03a 22be
00000340: acdd ccbe 116b 103e ab64 91bb 5113 0a3f
00000350: 934a 7bbe a93d a1bb 4ebd f3bd bd0f 01be
00000360: 4ca6 3cbe 6b5a a33d 5de2 b6bc fe43 6a3e
00000370: 94b7 4c3e e39f 1c3e 0853 ef3c 8372 993d
00000380: 7281 4e3d b7b3 793e 5967 093f 3738 04be
00000390: 2b92 0cbf 3d7b 20be 6e8f e33d 304b 943e
000003a0: ba95 8cbe 8960 79be 1eb6 cebe 551e a33e
000003b0: 1dc4 7d3d 4d7e 8c3e eed0 99bd 598e 223d
000003c0: 64a3 49be d776 01bf 2b8f 473e f462 83be
000003d0: 19b6 fb3d be88 813e 4fc3 2dbe e213 3ebe
000003e0: 9f21 973d 0d8e 493e bf27 743d 5818 ac3a
000003f0: 2c57 493e bdee 923d 7c91 bbbc 29b2 16be
0.4189009 -0.24828833 -0.2630356 -0.5337155 -0.1875472 -0.0804266 -0.31886542 0.12313605
0.23946385 0.056144614 0.09366085 0.10312166 0.15136792 -0.19052844 0.14652525 0.21062417
-1.0366993 0.39235216 0.054605436 -0.41790846 -0.2200579 0.23413701 -0.10984404 -0.33022714
-0.27569216 0.15029502 0.096134655 -0.2461804 -0.10507879 0.09662259 -0.13863121 -0.16098665
-0.058315687 -0.21504399 -0.1942749 0.020902753 -0.35988188 0.3733104 0.09804828 0.16728981
-0.036060195 -0.5340136 -0.029637773 -0.0014766705 -0.21593255 0.31387693 -0.34269232 0.23227048
-0.13445151 -0.038677506 -0.099277325 -0.07301571 0.06444196 -0.112761885 -0.031077027 -0.061586574
0.10579479 -0.66436094 -0.3847777 0.048089705 0.010537345 0.29476053 -0.2592996 0.15449074
0.15730885 -0.35009867 0.12284418 0.08324169 0.030016422 0.07973029 -0.5169708 0.2523067
-0.024512285 -0.013211698 -0.06575907 0.016760254 0.042726118 -0.19775578 0.29080153 0.2607649
-0.13124637 0.061854128 0.031650327 0.19988157 0.05390972 0.027572932 -0.039827563 0.09840073
-0.15797015 0.11507454 -0.05081416 0.033136204 -0.16695005 -0.17807475 0.33554566 0.21076827
0.5968519 -0.073544376 -0.33105838 -0.3445727 -0.09138829 -0.10947023 -0.24056932 -0.43653738
0.26379368 0.035160087 -0.050750803 0.2912822 -0.09464567 0.15678117 0.028445294 0.13971418
0.087791085 -0.0034737717 0.2190706 -0.039680872 -0.29614404 -0.090787925 0.26890266 -0.1684452
0.40720227 -0.22473526 0.09739934 0.24852446 0.16117248 -0.40503705 0.114899054 -0.03188722
-0.09222804 0.19866271 -0.08375857 0.073693566 -0.023014316 0.24524005 -0.037588533 0.018971542
0.07456635 0.217622 0.029517576 0.011390432 -0.10163671 0.044044178 -0.089715466 0.20867032
-0.21989073 0.1189881 0.2126838 0.03969063 0.20870617 0.119169936 -0.26554206 0.10054856
0.14915097 0.09815832 -0.11377203 0.07763202 0.10839575 -0.20992284 0.15619178 0.0827527
-0.2830169 -0.33500603 -0.15829481 -0.3067554 0.27413633 -0.35637152 0.19998503 0.16462916
-0.15145007 0.03464025 0.08026763 -0.15923084 0.15757835 -0.13339812 0.22386202 0.07802923
0.12044686 -0.011236956 -0.11683721 0.011935439 0.14820763 0.1455806 -0.031000743 0.016985498
-0.18698867 -0.082954645 0.07327428 0.12932612 0.087260306 0.20400383 0.24768947 -0.13281485
0.09841289 -0.49324206 0.1442015 -0.17411962 0.019443158 0.2935655 0.032438446 -0.0074699796
-0.0015509493 -0.033615343 0.21429238 0.01795368 0.17132828 -0.15537226 -0.02214436 -0.15842772
-0.40012872 0.14103343 -0.0044370494 0.53935724 -0.24540167 -0.0049206805 -0.119013414 -0.1260366
-0.18422812 0.0797623 -0.022324735 0.228775 0.19991904 0.15295367 0.029214397 0.074925445
0.050416417 0.24384962 0.5367332 -0.1291207 -0.54910535 -0.15672012 0.111113414 0.28963614
-0.27457982 -0.24353231 -0.4037332 0.3185908 0.061954606 0.2744011 -0.07510553 0.039686535
-0.19691235 -0.5057196 0.19488208 -0.25661433 0.12290592 0.25299639 -0.16969036 -0.18562272
0.073794596 0.19683094 0.059608217 0.0013129814 0.1966216 0.07174442 -0.02289652 -0.147164

feature_net.feature_conv_layer_0.bias f4 [128]
00000000: 4e73 da3c 9a6e 643d eb44 42bd 2931 39bd
00000010: 8038 ddbc 8564 94bd 449b 3bbd 29f2 84bd
00000020: 1c36 e2bd c57d 62be 72ec 40be a881 82bd
00000030: 066b 973c 546c 8ebc dca7 30be 30cc 803d
00000040: 03ef 9fbd 8976 4abe a93b 5abd d6f2 78bd
00000050: ea12 8c3b c614 333d fd7a 98be 8455 d1bd
00000060: 7a0c bdbb a527 c9bd fd17 f3bc e7a1 fcbc
00000070: 0ccd a9bc 611c 3fbe 9bc4 88bd 5a14 813d
00000080: b9b3 303d d076 92bd c752 cf3b 8a63 85bd
00000090: 9f6c 12be bd47 14be 8832 a43d f939 823c
000000a0: 4216 0bbd 725e 36bc e8b1 51bd b223 04be
000000b0: 332f b4bd 5902 9cbc ae13 52be 348b 9cbc
000000c0: 1147 ecbc 21e0 37be ef25 d6bc 4336 b73b
000000d0: b6a2 48bc ea98 21bd 50de ccbd 9244 943d
000000e0: ba78 c13d e390 0ebd 1e8d 05bd ef09 e8ba
000000f0: e3fe 60be 33de 0dbd 33a2 dabd 4dfb 4b3d
00000100: 671d 03bd 49cb 1abe fa0a 8cbd 6f79 babb
00000110: 09b1 0dbc 9fd3 65bd 1d70 6c3d d06f c7bd
00000120: 735f 84be 0a14 65bb bcc6 c9bd c3dc c8bd
00000130: 941a 58be 13b8 20bc d76d 863c 6e30 443d
00000140: 8d6b a6bc 9ab3 82be 5341 033e 056d cf3b
00000150: 90d4 e7bb 6d4a bebd 5ce0 e53c 35da db3d
00000160: 88a8 cdbc 5002 1cbd 4741 07bc 1574 9abe
00000170: eccd b83c 0f06 abbc 9ebe 463d c5c3 59be
00000180: 8e5c f8bd 02df a23d 2615 7fbc ed2a d9bb
00000190: a314 96bd fe04 0a3d 126e 023d 30d3 c73c
000001a0: 6b59 e53d 4a68 80bd efe6 95bd d89c dbba
000001b0: 4f65 17bc cc53 853a f41e dd3d 6352 a7bb
000001c0: d109 82bc 7734 7bbe 0dd3 debd d9cf dabb
000001d0: 83f8 f3ba 42eb 66bc 6db0 853d e0c2 e3bd
000001e0: b109 15be f742 373c fc97 1cbe 787a 6a3d
000001f0: ee61 5c3b a44e 993d e8ba 39bd 8b0f 7e3d
0.02666631 0.05576954 -0.047429007 -0.0452129 -0.02700448 -0.07245735 -0.04580237 -0.06491501
-0.11045477 -0.2211829 -0.18840197 -0.06372386 0.01848365 -0.01738564 -0.17251533 0.06288946
-0.0780926 -0.1977178 -0.053279553 -0.06077846 0.0042747157 0.043720983 -0.29781333 -0.10221389
-0.0057693096 -0.09822015 -0.029674524 -0.03083892 -0.020727657 -0.1866317 -0.066781245 0.0630271
0.043140147 -0.07151568 0.0063270065 -0.06513126 -0.14299248 -0.14480491 0.080174506 0.015896784
-0.033956774 -0.011130916 -0.051195055 -0.12904242 -0.08798065 -0.019044088 -0.2051532 -0.019109346
-0.02884248 -0.17956592 -0.026141135 0.0055911853 -0.012245825 -0.03945247 -0.1000334 0.07239641
0.09446855 -0.034806143 -0.032605283 -0.0017703156 -0.21972232 -0.034635734 -0.10675468 0.049800206
-0.032010462 -0.1511661 -0.06838031 -0.0056907455 -0.0086481655 -0.05611002 0.057724107 -0.097381234
-0.25854072 -0.0034954571 -0.09852359 -0.09807732 -0.21103889 -0.009809512 0.016409798 0.04789775
-0.020314956 -0.2552765 0.12817888 0.006330135 -0.0070749 -0.09291539 0.028061084 0.10734979
-0.025104776 -0.038088143 -0.008255309 -0.3016669 0.022559129 -0.020876912 0.04852163 -0.21266086
-0.121270284 0.079526916 -0.015569007 -0.0066274316 -0.07328155 0.033696167 0.031843252 0.024392694
0.11198696 -0.062698916 -0.07319438 -0.0016755117 -0.009240462 0.0010172068 0.107969195 -0.005106257
-0.015873821 -0.24531732 -0.108800985 -0.0066776094 -0.0018613491 -0.014094176 0.06527791 -0.11121154
-0.14554478 0.011185399 -0.15292352 0.0572457 0.0033627707 0.07485703 -0.045344263 0.06202654

value_net.value_linear_layer_0.weight f4 [64, 1536]
00000000: 44e1 9e3d b41e 903c 3f6f 463d 5418 73bd
00000010: bc88 0f3d b107 b73c a1e1 eb3d 86c8 05be
00000020: 144a 57be b313 b03d d8b1 093e 51ac ab3c
00000030: dd40 473d 9646 473c 1bb3 053d 917c dfba
00000040: 1007 f73b 133f 533d 0378 83bd 8ca1 92bc
00000050: f54a 07bc f8d7 8b3c 6207 603d 45ec af3d
00000060: afe6 e9bd 6162 88bc a887 58bd aa54 933d
00000070: 8a98 893d 671c 183d 2c82 aa3d 8c30 1d3d
00000080: 8125 86bd 0aca c23c a5c4 e63d 3f3a 303e
00000090: 7541 ca3c 2a04 e63d e1c6 fe3d 0800 e7bd
000000a0: e2e9 77bd b108 313d 287d 063d 561b 7fbb
000000b0: 3754 853d f7f8 a4bb e8f9 4c3d 274b a2bb
000000c0: b01d 28be 40aa d33d 8191 ffbd 965d cd3d
000000d0: c606 703d 9fa7 71bd 3c6c 6dbd 4d59 ad3d
000000e0: c51e cd3d 09f0 3fbd 8394 353d e477 4c3d
000000f0: aa32 b23b 7c21 e53b 732d 2e3d ef13 21bd
00000100: 0106 bc3d ac64 cabc 21e8 d03d fbea b03b
00000110: 7ebc 983c 92b9 d9bd 2256 2d3d dae5 f83c
00000120: 5064 5e3d 2001 4dbd da1c 883d b352 223d
00000130: dcd6 cc3d 4fe7 803d 00ab ce3d eaee 343c
00000140: 6949 16bd 835d d23d b154 2c3d dd67 b93d
00000150: ba47 a63d 90f8 28bd d9b5 65bd cdc4 09be
00000160: 50a4 9a3d 01a8 773d c58c cb3d aa8b 2ebd
00000170: ef8e ed3d 1dc6 8d3d 7a26 073d 5ffc e7bd
00000180: 1e8b 9bbd c988 09bd 6d15 a83d bea7 cb3d
00000190: 0da7 ccbd fbc5 c0bc a639 47bd e188 043e
000001a0: ad31 783e 5492 193a 9301 00bd 65bb 6d38
000001b0: e52d 23be 9d77 e53d 516e 31bd 3e8a d03d
000001c0: d1c6 11bd 0596 533d 8163 513d b47e e0bc
000001d0: 64db b2bc 8c86 113e c345 24bd f8a7 b13d
000001e0: e506 883d 8e25 aebd 1ff3 b9bd 001b ebbc
000001f0: 4285 a0bd a761 7dbd a326 ce3d d5cb 063c
00000200: eb87 08be 58cf 7cbd b6fb 963d 0e66 633d
00000210: 5b66 df3c f19c b43b c796 74bb f3f4 653d
00000220: b91e fabc feee 4e3d bf88 373e 11c4 f43d
00000230: d099 bebd 054a c83c 3647 713d 9ca9 b03d
00000240: 5319 42bd 1c8b 81bd c636 233d e739 ddbc
00000250: f77d c43c 801e 05bd d02a 90bd fda2 7b3d
00000260: 1cbf 5ebd 4103 97bb 42bd 65bd bd3c 393d
00000270: 7ab7 603e e88b f33d 7d53 14be 2675 99bd
00000280: 3422 0b3e 4b9d 083d b8fd 6d3b 1afa b7bd
00000290: 56c1 8d3e 85c7 b33d 61c0 dd3d e82e 62be
000002a0: 7919 b7bc 4590 073d 6c82 a43d 9695 eabd
000002b0: 6afc b53c fdc4 5fbc f962 7c3e 9ad3 ae3d
000002c0: d3c2 c9bc 0260 e23c 8af9 873d 6453 543d
000002d0: 2352 863c 3dcd af3c 410f b53d dc47 123c
000002e0: c818 0bbd f62d 05be caf4 2a3a 3645 1f3d
000002f0: f7c6 bebd 7da0 53bc 24a3 463d 50e8 4e3e
00000300: 10b0 74bc 40ff 813d fc2f d23c c444 2fbc
00000310: c3ad d03d 0761 cb3d ad84 a2bd 8349 2fbe
00000320: 5065 843d 8b4b 953d 73ab 52bd 7f88 a83d
00000330: cdca e73d e7eb 983c b869 03be 979a 9a3d
00000340: 8f0d 85bd cacb 90bc d342 003e a47f 163e
00000350: 364a 7e3d bfa7 9e3b 0500 8b3d 2449 e03c
00000360: 49c0 60bd 8d7f 4a3e ae5e 3bbe 4d93 5abd
00000370: dbcd f4bc 8bd0 8abd b9b0 e6bb bba3 593d
00000380: e1c6 b93d 1d52 573d 4365 45bd b032 49be
00000390: 0b7b 24bd 0a0a 273d 1397 d6bd 696e d5bd
000003a0: 99d8 163d 943b a73d f68d c43c 2e33 1e3d
000003b0: d96c dcbd 579e f23d 2976 f03d 8f1a 263e
000003c0: d443 1e3d b941 08bc ed23 94bd 5d61 843d
000003d0: 1054 db3d f3d1 7bbd add2 ff3c ba82 8bbc
000003e0: cdec 5dbd eefc 38bd b709 bf3d 4d91 523d
000003f0: 6905 2f3d 7c74 683d 117a 90bc 7e7b c03d
0.0775781 0.017592765 0.048445936 -0.059349373 0.03504251 0.022342535 0.11517645 -0.13064775
-0.21024352 0.08597507 0.13446748 0.02095619 0.048645843 0.012162825 0.03264151 -0.0017050673
0.0075386837 0.051573824 -0.06419375 -0.017899297 -0.008257617 0.017070755 0.05469454 0.08589987
-0.114209525 -0.016648473 -0.052863747 0.07193883 0.06718548 0.03713646 0.083256096 0.038376376
-0.06550122 0.02377798 0.11267976 0.17209719 0.024689415 0.11231263 0.12440277 -0.11279303
-0.060525782 0.04322118 0.032834202 -0.0038926206 0.06510203 -0.0050345617 0.050043017 -0.0049528065
-0.16417575 0.10335207 -0.124789245 0.10027616 0.05860021 -0.058997747 -0.05796455 0.084642984
0.100156344 -0.046859775 0.044331085 0.049919024 0.0054381685 0.006992517 0.042523813 -0.03932565
0.09180833 -0.024706207 0.10200525 0.0053991056 0.018644568 -0.10631098 0.04231847 0.03038304
0.054294884 -0.0500499 0.06646128 0.03962965 0.10001919 0.062941186 0.100912094 0.01104329
-0.036691103 0.10271742 0.042072956 0.090530135 0.081191495 -0.041252673 -0.056081627 -0.1345398
0.07550871 0.060462955 0.09938959 -0.042613663 0.11599528 0.06922553 0.03299568 -0.11327433
-0.07594894 -0.033577714 0.08207212 0.09944104 -0.099928 -0.023531904 -0.048638962 0.1294284
0.242377 0.00058582914 -0.0312515 5.6679728e-05 -0.15935476 0.11204455 -0.043318097 0.101826176
-0.035589997 0.05165674 0.051120285 -0.027404167 -0.02183313 0.14211482 -0.040105592 0.086746156
0.0664194 -0.08503257 -0.09079575 -0.028699398 -0.07837917 -0.061860707 0.10065963 0.008227308
-0.13333099 -0.061721176 0.07372229 0.05551725 0.027270487 0.005511873 -0.0037321316 0.056141805
-0.030532228 0.05052089 0.17923258 0.11951459 -0.09306681 0.024449358 0.058905803 0.086261004
-0.047387432 -0.06325361 0.039847158 -0.027005149 0.023985846 -0.03249979 -0.07039416 0.061434735
-0.054381475 -0.004608542 -0.056088693 0.04522394 0.21944991 0.118919194 -0.14484973 -0.074930474
0.13587266 0.03335313 0.0036314558 -0.0898325 0.27686566 0.0877829 0.10827709 -0.22088206
-0.022351013 0.03309657 0.080326885 -0.114543125 0.022215087 -0.0136578055 0.2464713 0.085364535
-0.024629032 0.02763367 0.06639393 0.05183734 0.016396588 0.02146017 0.088408 0.008928265
-0.03395918 -0.13005814 0.0006521462 0.038884364 -0.09315293 -0.012916681 0.048495427 0.20205808
-0.014934555 0.06347513 0.025657646 -0.010697547 0.101893924 0.09930616 -0.07935462 -0.17117886
0.06464636 0.07289799 -0.051433038 0.082291596 0.11317978 0.018667175 -0.12833297 0.07549017
-0.06496727 -0.0176753 0.12525491 0.14697129 0.06208249 0.0048417742 0.06787113 0.027378626
-0.054870877 0.1977522 -0.18297836 -0.053363133 -0.029883316 -0.06778058 -0.00704011 0.05313466
0.09071136 0.052568544 -0.048192274 -0.19648242 -0.040156405 0.04078106 -0.10478034 -0.1042145
0.036827657 0.081656605 0.023993474 0.038623028 -0.107629485 0.11846607 0.11741287 0.16221069
0.038638905 -0.008316451 -0.07233415 0.06463883 0.10709393 -0.06147952 0.031228388 -0.017030109
-0.05418091 -0.045163088 0.09328025 0.0514081 0.04272977 0.056751713 -0.01763633 0.09398554

value_net.value_linear_layer_0.bias f4 [64]
00000000: a9a2 1fbc 0835 773a 9559 833c 7d69 8fbc
00000010: 0f14 693c 7ad6 b03c 7afd 5dbc c9f1 eb3a
00000020: 8928 04bd 1a20 813d b072 9dbc 0f02 9a3b
00000030: 9f7e 793d 101d 043d 6819 a23b cd46 cebc
00000040: 9eb6 2a3c 5eca 06bc f25d 033d 3a54 bcba
00000050: bb61 8cbc f46a 8a3c f35a 043c f1c6 693c
00000060: 6d36 013d f258 23bc f701 a63d 8c42 f83c
00000070: cc1b ebbc f79f 123d 7b9c f23b 1f9d 22bd
00000080: b8de 913c a26e dc3c 1046 833d fa45 fe3b
00000090: 9fce 233c 6aae 883d f00b 74bc 50c5 e13c
000000a0: 28bb 2ebd e175 6fba 8b25 ef3b 99f7 333c
000000b0: 8806 9cbc 80b0 6e3c 1d78 8c3c c28c da3c
000000c0: bef9 d8bb b1cc 293d d09e eb3c b875 92bb
000000d0: 2aa7 7e3c 1024 b3bb 3cd7 dd3c e7d3 363c
000000e0: 7999 053d 6079 ea3c 9328 2ebb fa41 133c
000000f0: 5c48 a33c ab1e 5b3c f6d1 69bc 7cc0 ef3b
-0.009743371 0.00094302045 0.016033927 -0.017506355 0.014225974 0.021586645 -0.013549203 0.0018001135
-0.03226522 0.06304951 -0.019219726 0.0046999524 0.06091177 0.03225428 0.0049468763 -0.025180245
0.010419516 -0.008226959 0.032072015 -0.0014368363 -0.017136445 0.016896702 0.008078325 0.014268623
0.031546045 -0.009969937 0.081058435 0.03030517 -0.028699778 0.035797086 0.007403908 -0.039700624
0.017806396 0.026908223 0.06409848 0.0077598067 0.009997993 0.06673892 -0.014895424 0.027559906
-0.042658955 -0.0009134692 0.0072981766 0.010984325 -0.019046083 0.014568448 0.017147118 0.026678447
-0.0066215685 0.041454975 0.028762251 -0.0044695996 0.015542785 -0.0054669455 0.02708017 0.01115892
0.032617066 0.02862233 -0.0026574477 0.008987898 0.019931965 0.013374011 -0.01427125 0.007316647

value_net.value_linear_layer_1.weight f4 [64, 64]
00000000: af83 29be ec56 873c 5a1b 95be 6320 91bd
00000010: d940 8ebe 730b 1cbe 9578 d73d 3395 7e3e
00000020: cf01 a2be a765 36bd dd42 173e daec 143e
00000030: c967 58be 6b46 8b3d 0719 5f3e c379 843c
00000040: 04cd 1bbd 00de 223e 9885 913e ef45 6b3c
00000050: d8b6 03be 2a60 913d 01f4 233e e8a9 4fbc
00000060: 3e5c e7bd 3e0c a43d 2e8a d9bd d7ea 283e
00000070: f894 9dbe 0f25 34be 2a7f 783e dee1 0e3f
00000080: 8ac0 6dbe 52cb adbd 0188 2b3d c21c a1bd
00000090: 4d0a d0be ef36 3b3e 3feb 1d3e fe38 3a3e
000000a0: ef48 823f 2048 c1bd ba04 b23c 58a2 18be
000000b0: df14 973d fb84 4bbe 118d 6f3d 14f3 493e
000000c0: 9baa 883d 0047 06be e660 adbd f54b b7bd
000000d0: 23c4 43bd b5cf 153c 34d6 69be 0a42 4bbe
000000e0: aa19 873e fcb4 883e 8ffc 5b3d 0d3c 063e
000000f0: a7b9 c43d 2363 e4bc c405 a8be 5d14 003e
00000100: b846 ef3d 4604 53be 1432 37bd d356 f83d
00000110: bca7 c23d d22a 87bd 5c8b 333e 1b51 bcbd
00000120: da89 483e 1480 d73d 3f87 1bbe 3626 c23d
00000130: 8315 bf3e b654 1b3d 77d9 24bd 1329 383e
00000140: 2942 9f3c e229 a1bd 4875 3abe a344 bdbd
00000150: 90ff 093e bf65 f13d d994 bf3c 2ada 56bd
00000160: 18e9 ac3e 94eb 403e 81c7 25bd 0e35 abbd
00000170: a1a1 f23e ebad 453e 5296 a6bc 94f1 20bf
00000180: b3b5 96be 285e 96bb 90f0 86be 52c0 03be
00000190: 71e8 023f 23be 4a3b 19e0 d93d 58ca 3cbe
000001a0: b4f0 d5bf a6bd 933d 8360 813d c52a 20be
000001b0: 4943 48be 042d 7c3e b151 d5bd 5a31 06be
000001c0: d878 0ebb 05fb 963e 2cce a03e dd55 473e
000001d0: 1bb5 d73c 5451 d23d a971 50be 30a0 f33d
000001e0: 5ac4 06be 0860 57bd 0105 be3d 4d0f 3fbe
000001f0: 2575 0a3e 0093 63bd 75bd 613c aae7 b0bd
00000200: 43f6 9dbd 1020 733e 3983 003f c7a3 9f3e
00000210: 8f1a 3abe b66b bf3e 3f4a 883d 0c7d 07be
00000220: 184d adbd 609d 423d 4f3e 193e 8901 433d
00000230: 6bd6 b53d 34ad c8bd 2231 393e 9482 f7bd
00000240: 6ee1 c4be 59a1 413e 5b7d dd3d e5c0 2c3e
00000250: 2fa4 1f3e 5454 a6be ba81 583e 2014 3b3c
00000260: e373 4cbe dc60 ae3d 4f7c 203d 124f da3b
00000270: 77a4 0bbe 9ed9 e23d bcd6 0e3d c71f 06bf
00000280: b881 f03d ab5c 753d 198f 953e 034f 0d3d
00000290: 9357 e23e 6d26 34be f34d 663d 4488 0f3e
000002a0: 8fdb 243f 4fe0 dfbe c6be b13d 6da8 44be
000002b0: 1bd4 c23d ff95 c4bd e8ea ad3d b967 263c
000002c0: e657 863d ab95 59be e001 813d 0447 0b3d
000002d0: 5bff 18bb c66c ba3c 2eb9 f53e 2a00 383e
000002e0: 7553 f8bd 771c a0be c349 c03b 1ef4 7abe
000002f0: 3a75 b9bd 2a0d 74be 0609 81bd 5963 703e
00000300: d0d6 c6bd aef2 5dbd 374a 21be dade a73d
00000310: 7153 b13d 3922 89be 2205 743d 23c1 3a3e
00000320: 5e10 003f 1cdb 6c3e 8139 bd3d 6fb9 873e
00000330: 35bf 96bd 7969 93bc e285 103e 0d74 903d
00000340: 287f 503e d6e5 303e f7a8 19be f397 6a3d
00000350: 7372 74be 80d5 d83e fb0f 203e ed1d e5bd
00000360: 5796 72be e49e 10be 0b60 9ebe 723f 01be
00000370: bb5e 663e 687e ec3d dea6 413e 3eb9 37bf
00000380: a700 9fbe ccff 19bd 1d3c 2dbd 234a 48bd
00000390: 939a 1c3c ce63 803e e682 0c3d c94a 88bd
000003a0: 6637 5fbe c815 28be bed0 31be 7168 94bd
000003b0: dcb7 833c 96e4 a3be 6c31 0cbe 7c30 02be
000003c0: 2274 8abe 0290 5ebe 1de1 bf3d 8860 4e3e
000003d0: 11d5 3ebd 17a7 6c3d 92a6 c0be 6ad8 f0bd
000003e0: 446a 6abe 08f6 f3bd 349e cfbd 70a4 f8bd
000003f0: 1626 753e fed4 fd3d cc49 cdbd 3f35 703d
-0.1655414 0.01652094 -0.2912243 -0.070862554 -0.2778385 -0.15238743 0.10521046 0.24861602
-0.31642005 -0.044530537 0.147716 0.14543477 -0.21133341 0.068005405 0.21786891 0.016171342
-0.038037315 0.15904999 0.28422236 0.014359935 -0.12862718 0.0709842 0.16011049 -0.012674786
-0.11296891 0.080101475 -0.10622059 0.16495834 -0.30777717 -0.17592262 0.24267259 0.55813396
-0.23217979 -0.08486046 0.04187775 -0.07866813 -0.4063286 0.18282674 0.1542177 0.18185803
1.0178508 -0.09437585 0.02173077 -0.14905679 0.07377028 -0.19874947 0.05848414 0.19721633
0.066731654 -0.13113022 -0.084657475 -0.089500345 -0.047794472 0.0091437595 -0.22835618 -0.1984941
0.26386768 0.2670058 0.053707656 0.13108845 0.09605723 -0.027879303 -0.328169 0.12507768
0.116834104 -0.20607099 -0.044725493 0.121259354 0.09504649 -0.06599964 0.1753363 -0.09195157
0.19583836 0.10522476 -0.15188311 0.094799444 0.373211 0.037922584 -0.040246453 0.17984419
0.019440727 -0.07869317 -0.18208802 -0.09241607 0.13476396 0.11786985 0.023386406 -0.05245415
0.33771586 0.18839866 -0.040473465 -0.08359729 0.47388938 0.19304626 -0.02033535 -0.6286862
-0.294355 -0.004588861 -0.2635541 -0.12866333 0.5113593 0.0030936084 0.10638446 -0.18436563
-1.6714082 0.07213907 0.06317236 -0.15641315 -0.19556917 0.24626547 -0.10415972 -0.13104764
-0.002173951 0.29488388 0.31407297 0.19466348 0.026331475 0.10269418 -0.20355858 0.11895788
-0.1316084 -0.052581817 0.09278298 -0.1865818 0.1352125 -0.055560112 0.01377808 -0.086379364
-0.07712986 0.237427 0.5020023 0.3117964 -0.18174194 0.37386864 0.06654786 -0.13231295
-0.0846197 0.047513366 0.14965175 0.047608886 0.088787876 -0.09798661 0.18085149 -0.12085453
-0.3845324 0.18909205 0.10814925 0.16870458 0.15589975 -0.32486212 0.21143237 0.011418372
-0.19966082 0.08514568 0.03918105 0.006662258 -0.13636957 0.110766634 0.034872755 -0.5239224
0.11743492 0.05990283 0.29210737 0.03449918 0.4420744 -0.17592783 0.056226682 0.14016825
0.6439752 -0.4372582 0.08678965 -0.19204874 0.09513112 -0.09598922 0.084920704 0.010156565
0.06559734 -0.212485 0.06299186 0.034003273 -0.0023345563 0.022756945 0.47992843 0.17968813
-0.12125293 -0.31271717 0.005868168 -0.24507186 -0.09055562 -0.23833147 -0.06300549 0.23475398
-0.09708941 -0.054186516 -0.15750967 0.081968024 0.08658493 -0.26783922 0.059575208 0.18237738
0.50024974 0.23130459 0.092394836 0.26508662 -0.073606886 -0.01799463 0.14113572 0.07053385
0.20361006 0.17275175 -0.15005861 0.057273816 -0.23871784 0.42350388 0.15631096 -0.111873485
-0.23690163 -0.14123112 -0.3093265 -0.12621859 0.22497074 0.115475476 0.18911311 -0.7176703
-0.31055185 -0.037597463 -0.042293657 -0.048898827 0.009558338 0.25076145 0.034304522 -0.06654889
-0.21798477 -0.16414559 -0.17364785 -0.07246483 0.016078882 -0.32010335 -0.13690728 -0.12713808
-0.27041727 -0.21734622 0.09369109 0.20154011 -0.046589915 0.057776537 -0.37627083 -0.11760028
-0.228921 -0.11912161 -0.10137597 -0.12140739 0.2394031 0.12394141 -0.10023841 0.05864453

value_net.value_linear_layer_1.bias f4 [64]
00000000: c17c d7bd 37ca c93d 90f4 e4bc ad68 81bd
00000010: 764b 61bd 5973 9dbd 6c6b 083a d864 0fbb
00000020: 0cd5 833d 6380 e9bd 27db a0bd c8ff 573d
00000030: c563 23bc b72d 0c3e df3a 1d3e ceba 06be
00000040: f104 22be 18b6 843d 107f c43d 4050 8e3c
00000050: d6cb 123e df16 10bd a93b b13d a702 0f3d
00000060: d797 d43d 7c16 9cbd a0f0 923c 5dd0 86bc
00000070: 292b adbd 59e9 89bd 16a8 bebd 16a4 19bc
00000080: c663 403d dd55 143d b4e3 a93d a456 37bd
00000090: 3b54 1c3d e60d afbd 1cd6 fe3b 04e8 793c
000000a0: b861 4dbd 0dcb 1dbc 97af d63d 309b 463d
000000b0: e469 b03b 1a58 c9bd e3df b1bd d0b3 1a3e
000000c0: 6f72 01be a378 d9bc f21a 33bd 1493 a2bd
000000d0: d5f1 b33d b9bd 613d a5e5 babd 7a4c 8b3d
000000e0: 938e c6bd c3b2 5d3d 7135 d93c 79b4 c83c
000000f0: 19d5 20be 0b31 863d ffbf b83d ee56 3e3d
-0.10521842 0.098530225 -0.027948648 -0.063187934 -0.055003606 -0.076880164 0.00052039954 -0.0021880176
0.0643712 -0.11401441 -0.078543 0.052734166 -0.009972517 0.13689314 0.15354489 -0.13157198
-0.15822197 0.06480044 0.09594548 0.01737225 0.1433557 -0.03517806 0.086539574 0.03491464
0.10380524 -0.07621476 0.017937005 -0.016456777 -0.08455498 -0.06733961 -0.093094036 -0.0093775
0.04697015 0.036214698 0.08295384 -0.04476036 0.038166266 -0.08547573 0.0077769887 0.015253071
-0.05014202 -0.009630931 0.1048271 0.048487842 0.005383717 -0.09831257 -0.08685281 0.15107656
-0.12641309 -0.026546782 -0.04372687 -0.07938209 0.0878636 0.055112574 -0.091258325 0.06801696
-0.096951626 0.05412556 0.02651474 0.024500119 -0.1570629 0.06552323 0.09020995 0.04646962

value_net.value_linear_layer_output.weight f4 [7, 64]
00000000: 8910 713e 539b a0be 00b8 a03e c2fc a9bd
00000010: 9a9a 0c3e cb73 36be 3e07 733e 6c45 9bbe
00000020: dff8 cfbe b253 f23d 895c 59be 3dee 5f3d
00000030: f23a a83e c491 243e dfce d33d d5ff 313f
00000040: e062 f1bd 2423 e13d 53df a63e 6ebd ab3d
00000050: 8267 9d3e ab75 b9bd ef24 2b3e 994a 883d
00000060: 5c95 28bf 6465 11bf 97cb 123e 4f6d be3d
00000070: d64b 6ebe 022f 483f ad2a 85be 130b 513e
00000080: cca8 f3be 5b1e 64be 187e bd3e 6836 47be
00000090: 83cd 68bf 5abd 453e 5fe5 613e 3d27 ac39
000000a0: fc3c a73d 0cf2 a0be 5981 353e 6274 dabe
000000b0: cefa 9fbd d351 c4be 5e2a 6d3e a68b ad3d
000000c0: 7e4a 97be 386c 223e 0933 a2be f45c c2be
000000d0: e800 403e 9a6f 533e 7268 933e 5d93 d23d
000000e0: 256e 023e f3f1 2c3e bea3 0dbf 73b7 e43c
000000f0: 739d 8e3d 75bb 553e 450f 3b3d 3be5 b33e
00000100: fb9d c4bd 57e2 953d 8e94 2bbf d10b 73bd
00000110: f5b3 363e 62be d83e a0d4 113e 888c 72bf
00000120: 0213 463d f0af d93d cc00 8abd 8942 073e
00000130: f830 1a3e 66e0 b2be 215d d6be 6163 d53e
00000140: 8ba4 8bbe 3913 5bbd 25d7 9c3d b22f ab3d
00000150: a1c7 983e d437 28be 2939 09be fe9b 27be
00000160: fea9 0d3e 3bc6 d9be 2a7e 77be 3f47 d8bd
00000170: 4619 c4bc 3fb3 c6bf 0a43 033e 62b9 e93e
00000180: a9ed 273e 481b 19bf b4b8 acbe 3fb0 8b3e
00000190: 59e6 15bf c7b4 643e 87f5 343e 873a 52bb
000001a0: 2216 c23d ea4a 163e 1c6a 83be ae78 52bd
000001b0: 6836 09bd 1268 b2be 4519 dd3c 33ce a6ba
000001c0: f680 c33e b1f4 56bf 7678 923e ad3f d0bc
000001d0: c07a a23d 1474 e93d 80d7 05be 4d01 ab3e
000001e0: 15b2 df3d 4e4b 763c de57 983e f3ba b7bb
000001f0: c840 783d 9a4f 083e 7377 b5bc 8036 84bf
00000200: 1deb d83d 1f18 5d3e 0c0b 8bbe 2d49 093f
00000210: a30b e1be 8224 8d3e 7db2 c23e 5378 7f3c
00000220: a14e 50be 89c4 003e 266c 203e c13e 34bf
00000230: cda3 acbc 37bf 8dbd b553 9ebe 4d1b 1e3f
00000240: 4747 d8be 30c2 b1bd 1766 13bd 67d5 0fbd
00000250: 8630 523e 0c43 8b3e 2c1e a03e 4c3d 9abd
00000260: a5b4 753e dc16 663e a6ea 72be d2b4 ce3e
00000270: 8c46 603e 9725 07bf f5b7 ffbe a258 8cbc
00000280: ef68 473d c972 5d3e 5a1e 56bc 6d41 d5be
00000290: b242 fcbe f6d9 893c 6887 ac3d 8e3b c6bb
000002a0: 38a8 eabd 5279 4ebe b9d8 b73d 8a71 e53d
000002b0: aff9 4b3c 588b c93d a2a3 9fbc f233 d33e
000002c0: 6c87 1e3d 7178 2abf e38a 28bd fbeb 633e
000002d0: b8af cfbe 9f6a 2cbf 550c 3f3e 94f8 3a3e
000002e0: a7d4 513e 2b2a 3a3e ae6b 6abc 77c4 de3d
000002f0: 6e9f e2be 6f3c a0bc 3f17 fabb 724d babc
00000300: e588 2fbf ebd3 8f3e 280c 6b3e 0381 b6be
00000310: 58fc bd3e 9472 61bf af56 7c3e b729 413e
00000320: a9cf 6e3e ca6f 5fbd 9b8c 803e 0450 023e
00000330: 1c0f 6cbe c7c9 5abe 786d 95be 2880 b23e
00000340: 6776 de3e ffb9 cb3d 9215 1dbc a273 fabd
00000350: e791 cdbd 27d1 753d 4a2d b1bd e957 4fbe
00000360: 05a5 423e 3ac4 80be 2e71 6e3e 8136 143e
00000370: bddd 373e d972 69bf 1f36 74be dc5b 1ebf
00000380: cf1a 3a3e fc16 47bc f58c bcbe 4574 f9be
00000390: 3d2d 8f3e 98d5 09bc eb18 a43e 64a9 81bc
000003a0: c645 cc3d 15fe 243d 9660 393d e020 c3be
000003b0: bbe3 d8bc fd37 803e 4c38 65bd ba07 82be
000003c0: 9a6f db3d 4c38 d0be 98b3 60be 9975 f83d
000003d0: 8eaf 943e dec6 7abe df8e f3bd 57d9 a9bd
000003e0: 6507 b5bd 292a 873e 3ac0 c4be 1f4c 1d3d
000003f0: 9dad 973e 286b 94bf c64e f7be bbc1 283e
0.23541464 -0.31368503 0.3139038 -0.08300163 0.13730851 -0.17817609 0.23733231 -0.30326402
-0.4061956 0.1183237 -0.21226706 0.05467056 0.32857472 0.1607123 0.10342192 0.69530994
-0.11786437 0.10993031 0.32592258 0.0838574 0.30743033 -0.090556465 0.16713308 0.066548534
-0.65852904 -0.56795335 0.14335476 0.09298193 -0.23271117 0.7819673 -0.26009122 0.2041438
-0.4758972 -0.22277205 0.37010264 -0.19454348 -0.90938586 0.19310513 0.22060154 0.0003283563
0.08165929 -0.31434667 0.17725123 -0.42666918 -0.07811509 -0.38343677 0.23160693 0.084739015
-0.2954902 0.15861595 -0.31679562 -0.37961543 0.18750346 0.20648041 0.28790623 0.102820136
0.1273733 0.16889171 -0.55327976 0.027919507 0.06963625 0.2087229 0.04566886 0.35135826
-0.09600445 0.073185615 -0.6702355 -0.05933744 0.17842086 0.4233275 0.14241266 -0.94745684
0.04835797 0.106292605 -0.06738433 0.13208975 0.15057743 -0.34936827 -0.41867927 0.41677383
-0.27273974 -0.05348513 0.07658223 0.083587065 0.29839805 -0.16427547 -0.13400711 -0.163681
0.13834378 -0.4253405 -0.24169222 -0.10560464 -0.023937833 -1.5523452 0.12818542 0.45649248
0.16399254 -0.5980725 -0.33734667 0.27282903 -0.5855461 0.22334586 0.17671786 -0.0032078342
0.09476878 0.14677015 -0.25666893 -0.05138462 -0.03349915 -0.34845024 0.026989589 -0.0012726247
0.38184327 -0.8396712 0.2860753 -0.025420988 0.07933569 0.11399093 -0.13070488 0.3339943
0.10922638 0.0150326025 0.29754537 -0.005607003 0.060608655 0.13311616 -0.022151684 -1.0329132
0.10591719 0.21591233 -0.27156866 0.5362728 -0.4395419 0.27566916 0.380268 0.015592652
-0.20342495 0.12574972 0.15666255 -0.70408255 -0.0210742 -0.06921237 -0.30923238 0.6176041
-0.4224188 -0.086796165 -0.035986032 -0.035115626 0.20526323 0.2719959 0.3127302 -0.07531223
0.23994692 0.22469658 -0.23722324 0.4037233 0.21901911 -0.5279173 -0.49945036 -0.017132107
0.048684057 0.21625818 -0.01306876 -0.41651478 -0.49269634 0.016827565 0.08424264 -0.00604958
-0.114578664 -0.20163468 0.089768834 0.112032965 0.012449666 0.09841031 -0.019487206 0.4125057
0.038703367 -0.6659003 -0.041148078 0.22257988 -0.4056375 -0.6735019 0.18657048 0.18258888
0.20491277 0.18180148 -0.014307899 0.108773164 -0.4426226 -0.019560067 -0.0076321657 -0.022742007
-0.6856826 0.28091368 0.22953856 -0.35645303 0.37106586 -0.8806546 0.24642442 0.18863569
0.23321404 -0.05454997 0.25107273 0.12725836 -0.23052639 -0.21366034 -0.2918508 0.348634
0.4344971 0.09947585 -0.009587662 -0.122290865 -0.10037594 0.060013916 -0.08651216 -0.20248379
0.19008262 -0.2514971 0.23285362 0.14473917 0.1795568 -0.9119087 -0.2384877 -0.61858916
0.18174289 -0.012151476 -0.36826292 -0.4872152 0.27964202 -0.008412741 0.3205026 -0.015827842
0.09974246 0.040281374 0.045258127 -0.3811102 -0.026475778 0.25042716 -0.055961892 -0.2539652
0.10714646 -0.4066795 -0.2194351 0.12131805 0.29040188 -0.24489924 -0.11892485 -0.082934074
-0.08839301 0.26399353 -0.38427907 0.038402673 0.29624644 -1.1595201 -0.48302287 0.16480152

value_net.value_linear_layer_output.bias f4 [7]
00000000: 8378 9a3d f548 853c b003 373c cc33 00be
00000010: 0fd7 e43d 5698 4dbd f2fa 783d
0.07542517 0.01627014 0.011170313 -0.12519759 0.11173832 -0.050194107 0.060786195

feature_net.feature_conv_layer_0.weight f4 [128, 2, 4, 4]
00000000: 2e7a d63e 4c3f 7ebe 9aac 86be 94a1 08bf
00000010: 600c 40be b4b6 a4bd 5442 a3be c12e fc3d
00000020: 0336 753e e5f7 653d 42d1 bf3d 7331 d33d
00000030: 3100 1b3e e319 43be b70a 163e ddad 573e
00000040: 90b2 84bf 62e2 c83e f3a9 5f3d 19f8 d5be
00000050: dc56 61be 9dc1 6f3e e9f5 e0bd 8813 a9be
00000060: 8627 8dbe f0e6 193e 3fe2 c43d b716 7cbe
00000070: 8c33 d7bd 11e2 c53d 57f5 0dbe afd9 24be
00000080: 6edc 6ebd 7e34 5cbe 00f0 46be 403c ab3c
00000090: 7042 b8be 8a22 bf3e 89cd c83d 054e 2b3e
000000a0: dbb3 13bd 1eb5 08bf eaca f2bc d78c c1ba
000000b0: 6c1d 5dbe 7ab4 a03e 5e75 afbe 50d8 6d3e
000000c0: a8ad 09be 4e6c 1ebd e951 cbbd 4389 95bd
000000d0: 25fa 833d b4ef e6bd 4095 febc 3442 7cbd
000000e0: f0aa d83d 8f13 2abf 9501 c5be b6f9 443d
000000f0: d4a4 2c3c daea 963e ebc2 84be d232 1e3e
00000100: 9215 213e 2240 b3be bb95 fb3d 9f7a aa3d
00000110: 00e5 f53c a249 a33d 3358 04bf 582e 813e
00000120: fdcd c8bc e175 58bc b1ac 86bd cd4c 893c
00000130: 9501 2f3d 7e80 4abe f0e3 943e fa82 853e
00000140: 7365 06be c15a 7d3d c6a3 013d c1ad 4c3e
00000150: 70d0 5c3d a1e0 e13c 3a22 23bd 5286 c93d
00000160: edc2 21be 33ac eb3d 8222 50bd d4b9 073d
00000170: f4f4 2abe 3a59 36be a4cc ab3e a3d3 573e
00000180: 49cb 183f 6f9e 96bd 7c80 a9be d56b b0be
00000190: c929 bbbd ee31 e0bd ce57 76be d481 dfbe
000001a0: f70f 873e 0604 103d 13e0 4fbd f122 953e
000001b0: 97d5 c1bd 3e8b 203e 1b06 e93c 3c11 0f3e
000001c0: d0cb b33d 38a8 63bb 0b54 603e 6988 22bd
000001d0: 31a0 97be 05ef b9bd 9cad 893e e67c 2cbe
000001e0: d17c d03e 0021 66be 4e79 c73d 327d 7e3e
000001f0: 660a 253e 0461 cfbe 3250 eb3d 2c9c 02bd
00000200: 0ee2 bcbd 3d6e 4b3e 9d89 abbd a7ec 963d
00000210: 8588 bcbc 3520 7b3e 6ff6 19bd 356a 9b3c
00000220: 3eb6 983d 4dd8 5e3e d8ce f13c ef9e 3a3c
00000230: e826 d0bd ab67 343d bebc b7bd acad 553e
00000240: 092b 61be 08b0 f33d c8c9 593e a492 223d
00000250: 12b7 553e 5e0f f43d 21f5 87be 67ec cd3d
00000260: 08bb 183e 3b07 c93d 4f01 e9bd 89fd 9e3d
00000270: 97fe dd3d 03f6 56be bdf0 1f3e 3f7a a93d
00000280: 97e7 90be e985 abbe 0918 22be 0b0f 9dbe
00000290: 995b 8c3e 5476 b6be e0c8 4c3e 8c94 283e
000002a0: ba15 1bbe efe2 0d3d 5b63 a43d 690d 23be
000002b0: 385c 213e 8499 08be 163c 653e cacd 9f3d
000002c0: d8ac f63d 361b 38bc 5948 efbd dc8c 433c
000002d0: bec3 173e 1513 153e 45f5 fdbc 2c25 8b3c
000002e0: f579 3fbe 20e4 a9bd d310 963d 116e 043e
000002f0: 88b5 b23d 61e6 503e 4fa2 7d3e 9e00 08be
00000300: b38c c93d 398a fcbe 8fa9 133e 6a4c 32be
00000310: 4247 9f3c 384e 963e 2dde 043d bbc6 f4bb
00000320: 3949 cbba 3eb0 09bd 766f 5b3e 9913 933c
00000330: ae70 2f3e e819 1fbe 1768 b5bc e03a 22be
00000340: acdd ccbe 116b 103e ab64 91bb 5113 0a3f
00000350: 934a 7bbe a93d a1bb 4ebd f3bd bd0f 01be
00000360: 4ca6 3cbe 6b5a a33d 5de2 b6bc fe43 6a3e
00000370: 94b7 4c3e e39f 1c3e 0853 ef3c 8372 993d
00000380: 7281 4e3d b7b3 793e 5967 093f 3738 04be
00000390: 2b92 0cbf 3d7b 20be 6e8f e33d 304b 943e
000003a0: ba95 8cbe 8960 79be 1eb6 cebe 551e a33e
000003b0: 1dc4 7d3d 4d7e 8c3e eed0 99bd 598e 223d
000003c0: 64a3 49be d776 01bf 2b8f 473e f462 83be
000003d0: 19b6 fb3d be88 813e 4fc3 2dbe e213 3ebe
000003e0: 9f21 973d 0d8e 493e bf27 743d 5818 ac3a
000003f0: 2c57 493e bdee 923d 7c91 bbbc 29b2 16be
0.4189009 -0.24828833 -0.2630356 -0.5337155 -0.1875472 -0.0804266 -0.31886542 0.12313605
0.23946385 0.056144614 0.09366085 0.10312166 0.15136792 -0.19052844 0.14652525 0.21062417
-1.0366993 0.39235216 0.054605436 -0.41790846 -0.2200579 0.23413701 -0.10984404 -0.33022714
-0.27569216 0.15029502 0.096134655 -0.2461804 -0.10507879 0.09662259 -0.13863121 -0.16098665
-0.058315687 -0.21504399 -0.1942749 0.020902753 -0.35988188 0.3733104 0.09804828 0.16728981
-0.036060195 -0.5340136 -0.029637773 -0.0014766705 -0.21593255 0.31387693 -0.34269232 0.23227048
-0.13445151 -0.038677506 -0.099277325 -0.07301571 0.06444196 -0.112761885 -0.031077027 -0.061586574
0.10579479 -0.66436094 -0.3847777 0.048089705 0.010537345 0.29476053 -0.2592996 0.15449074
0.15730885 -0.35009867 0.12284418 0.08324169 0.030016422 0.07973029 -0.5169708 0.2523067
-0.024512285 -0.013211698 -0.06575907 0.016760254 0.042726118 -0.19775578 0.29080153 0.2607649
-0.13124637 0.061854128 0.031650327 0.19988157 0.05390972 0.027572932 -0.039827563 0.09840073
-0.15797015 0.11507454 -0.05081416 0.033136204 -0.16695005 -0.17807475 0.33554566 0.21076827
0.5968519 -0.073544376 -0.33105838 -0.3445727 -0.09138829 -0.10947023 -0.24056932 -0.43653738
0.26379368 0.035160087 -0.050750803 0.2912822 -0.09464567 0.15678117 0.028445294 0.13971418
0.087791085 -0.0034737717 0.2190706 -0.039680872 -0.29614404 -0.090787925 0.26890266 -0.1684452
0.40720227 -0.22473526 0.09739934 0.24852446 0.16117248 -0.40503705 0.114899054 -0.03188722
-0.09222804 0.19866271 -0.08375857 0.073693566 -0.023014316 0.24524005 -0.037588533 0.018971542
0.07456635 0.217622 0.029517576 0.011390432 -0.10163671 0.044044178 -0.089715466 0.20867032
-0.21989073 0.1189881 0.2126838 0.03969063 0.20870617 0.119169936 -0.26554206 0.10054856
0.14915097 0.09815832 -0.11377203 0.07763202 0.10839575 -0.20992284 0.15619178 0.0827527
-0.2830169 -0.33500603 -0.15829481 -0.3067554 0.27413633 -0.35637152 0.19998503 0.16462916
-0.15145007 0.03464025 0.08026763 -0.15923084 0.15757835 -0.13339812 0.22386202 0.07802923
0.12044686 -0.011236956 -0.11683721 0.011935439 0.14820763 0.1455806 -0.031000743 0.016985498
-0.18698867 -0.082954645 0.07327428 0.12932612 0.087260306 0.20400383 0.24768947 -0.13281485
0.09841289 -0.49324206 0.1442015 -0.17411962 0.019443158 0.2935655 0.032438446 -0.0074699796
-0.0015509493 -0.033615343 0.21429238 0.01795368 0.17132828 -0.15537226 -0.02214436 -0.15842772
-0.40012872 0.14103343 -0.0044370494 0.53935724 -0.24540167 -0.0049206805 -0.119013414 -0.1260366
-0.18422812 0.0797623 -0.022324735 0.228775 0.19991904 0.15295367 0.029214397 0.074925445
0.050416417 0.24384962 0.5367332 -0.1291207 -0.54910535 -0.15672012 0.111113414 0.28963614
-0.27457982 -0.24353231 -0.4037332 0.3185908 0.061954606 0.2744011 -0.07510553 0.039686535
-0.19691235 -0.5057196 0.19488208 -0.25661433 0.12290592 0.25299639 -0.16969036 -0.18562272
0.073794596 0.19683094 0.059608217 0.0013129814 0.1966216 0.07174442 -0.02289652 -0.147164

feature_net.feature_conv_layer_0.bias f4 [128]
00000000: 4e73 da3c 9a6e 643d eb44 42bd 2931 39bd
00000010: 8038 ddbc 8564 94bd 449b 3bbd 29f2 84bd
00000020: 1c36 e2bd c57d 62be 72ec 40be a881 82bd
00000030: 066b 973c 546c 8ebc dca7 30be 30cc 803d
00000040: 03ef 9fbd 8976 4abe a93b 5abd d6f2 78bd
00000050: ea12 8c3b c614 333d fd7a 98be 8455 d1bd
00000060: 7a0c bdbb a527 c9bd fd17 f3bc e7a1 fcbc
00000070: 0ccd a9bc 611c 3fbe 9bc4 88bd 5a14 813d
00000080: b9b3 303d d076 92bd c752 cf3b 8a63 85bd
00000090: 9f6c 12be bd47 14be 8832 a43d f939 823c
000000a0: 4216 0bbd 725e 36bc e8b1 51bd b223 04be
000000b0: 332f b4bd 5902 9cbc ae13 52be 348b 9cbc
000000c0: 1147 ecbc 21e0 37be ef25 d6bc 4336 b73b
000000d0: b6a2 48bc ea98 21bd 50de ccbd 9244 943d
000000e0: ba78 c13d e390 0ebd 1e8d 05bd ef09 e8ba
000000f0: e3fe 60be 33de 0dbd 33a2 dabd 4dfb 4b3d
00000100: 671d 03bd 49cb 1abe fa0a 8cbd 6f79 babb
00000110: 09b1 0dbc 9fd3 65bd 1d70 6c3d d06f c7bd
00000120: 735f 84be 0a14 65bb bcc6 c9bd c3dc c8bd
00000130: 941a 58be 13b8 20bc d76d 863c 6e30 443d
00000140: 8d6b a6bc 9ab3 82be 5341 033e 056d cf3b
00000150: 90d4 e7bb 6d4a bebd 5ce0 e53c 35da db3d
00000160: 88a8 cdbc 5002 1cbd 4741 07bc 1574 9abe
00000170: eccd b83c 0f06 abbc 9ebe 463d c5c3 59be
00000180: 8e5c f8bd 02df a23d 2615 7fbc ed2a d9bb
00000190: a314 96bd fe04 0a3d 126e 023d 30d3 c73c
000001a0: 6b59 e53d 4a68 80bd efe6 95bd d89c dbba
000001b0: 4f65 17bc cc53 853a f41e dd3d 6352 a7bb
000001c0: d109 82bc 7734 7bbe 0dd3 debd d9cf dabb
000001d0: 83f8 f3ba 42eb 66bc 6db0 853d e0c2 e3bd
000001e0: b109 15be f742 373c fc97 1cbe 787a 6a3d
000001f0: ee61 5c3b a44e 993d e8ba 39bd 8b0f 7e3d
0.02666631 0.05576954 -0.047429007 -0.0452129 -0.02700448 -0.07245735 -0.04580237 -0.06491501
-0.11045477 -0.2211829 -0.18840197 -0.06372386 0.01848365 -0.01738564 -0.17251533 0.06288946
-0.0780926 -0.1977178 -0.053279553 -0.06077846 0.0042747157 0.043720983 -0.29781333 -0.10221389
-0.0057693096 -0.09822015 -0.029674524 -0.03083892 -0.020727657 -0.1866317 -0.066781245 0.0630271
0.043140147 -0.07151568 0.0063270065 -0.06513126 -0.14299248 -0.14480491 0.080174506 0.015896784
-0.033956774 -0.011130916 -0.051195055 -0.12904242 -0.08798065 -0.019044088 -0.2051532 -0.019109346
-0.02884248 -0.17956592 -0.026141135 0.0055911853 -0.012245825 -0.03945247 -0.1000334 0.07239641
0.09446855 -0.034806143 -0.032605283 -0.0017703156 -0.21972232 -0.034635734 -0.10675468 0.049800206
-0.032010462 -0.1511661 -0.06838031 -0.0056907455 -0.0086481655 -0.05611002 0.057724107 -0.097381234
-0.25854072 -0.0034954571 -0.09852359 -0.09807732 -0.21103889 -0.009809512 0.016409798 0.04789775
-0.020314956 -0.2552765 0.12817888 0.006330135 -0.0070749 -0.09291539 0.028061084 0.10734979
-0.025104776 -0.038088143 -0.008255309 -0.3016669 0.022559129 -0.020876912 0.04852163 -0.21266086
-0.121270284 0.079526916 -0.015569007 -0.0066274316 -0.07328155 0.033696167 0.031843252 0.024392694
0.11198696 -0.062698916 -0.07319438 -0.0016755117 -0.009240462 0.0010172068 0.107969195 -0.005106257
-0.015873821 -0.24531732 -0.108800985 -0.0066776094 -0.0018613491 -0.014094176 0.06527791 -0.11121154
-0.14554478 0.011185399 -0.15292352 0.0572457 0.0033627707 0.07485703 -0.045344263 0.06202654

value_net.value_linear_layer_0.weight f4 [64, 1536]
00000000: 44e1 9e3d b41e 903c 3f6f 463d 5418 73bd
00000010: bc88 0f3d b107 b73c a1e1 eb3d 86c8 05be
00000020: 144a 57be b313 b03d d8b1 093e 51ac ab3c
00000030: dd40 473d 9646 473c 1bb3 053d 917c dfba
00000040: 1007 f73b 133f 533d 0378 83bd 8ca1 92bc
00000050: f54a 07bc f8d7 8b3c 6207 603d 45ec af3d
00000060: afe6 e9bd 6162 88bc a887 58bd aa54 933d
00000070: 8a98 893d 671c 183d 2c82 aa3d 8c30 1d3d
00000080: 8125 86bd 0aca c23c a5c4 e63d 3f3a 303e
00000090: 7541 ca3c 2a04 e63d e1c6 fe3d 0800 e7bd
000000a0: e2e9 77bd b108 313d 287d 063d 561b 7fbb
000000b0: 3754 853d f7f8 a4bb e8f9 4c3d 274b a2bb
000000c0: b01d 28be 40aa d33d 8191 ffbd 965d cd3d
000000d0: c606 703d 9fa7 71bd 3c6c 6dbd 4d59 ad3d
000000e0: c51e cd3d 09f0 3fbd 8394 353d e477 4c3d
000000f0: aa32 b23b 7c21 e53b 732d 2e3d ef13 21bd
00000100: 0106 bc3d ac64 cabc 21e8 d03d fbea b03b
00000110: 7ebc 983c 92b9 d9bd 2256 2d3d dae5 f83c
00000120: 5064 5e3d 2001 4dbd da1c 883d b352 223d
00000130: dcd6 cc3d 4fe7 803d 00ab ce3d eaee 343c
00000140: 6949 16bd 835d d23d b154 2c3d dd67 b93d
00000150: ba47 a63d 90f8 28bd d9b5 65bd cdc4 09be
00000160: 50a4 9a3d 01a8 773d c58c cb3d aa8b 2ebd
00000170: ef8e ed3d 1dc6 8d3d 7a26 073d 5ffc e7bd
00000180: 1e8b 9bbd c988 09bd 6d15 a83d bea7 cb3d
00000190: 0da7 ccbd fbc5 c0bc a639 47bd e188 043e
000001a0: ad31 783e 5492 193a 9301 00bd 65bb 6d38
000001b0: e52d 23be 9d77 e53d 516e 31bd 3e8a d03d
000001c0: d1c6 11bd 0596 533d 8163 513d b47e e0bc
000001d0: 64db b2bc 8c86 113e c345 24bd f8a7 b13d
000001e0: e506 883d 8e25 aebd 1ff3 b9bd 001b ebbc
000001f0: 4285 a0bd a761 7dbd a326 ce3d d5cb 063c
00000200: eb87 08be 58cf 7cbd b6fb 963d 0e66 633d
00000210: 5b66 df3c f19c b43b c796 74bb f3f4 653d
00000220: b91e fabc feee 4e3d bf88 373e 11c4 f43d
00000230: d099 bebd 054a c83c 3647 713d 9ca9 b03d
00000240: 5319 42bd 1c8b 81bd c636 233d e739 ddbc
00000250: f77d c43c 801e 05bd d02a 90bd fda2 7b3d
00000260: 1cbf 5ebd 4103 97bb 42bd 65bd bd3c 393d
00000270: 7ab7 603e e88b f33d 7d53 14be 2675 99bd
00000280: 3422 0b3e 4b9d 083d b8fd 6d3b 1afa b7bd
00000290: 56c1 8d3e 85c7 b33d 61c0 dd3d e82e 62be
000002a0: 7919 b7bc 4590 073d 6c82 a43d 9695 eabd
000002b0: 6afc b53c fdc4 5fbc f962 7c3e 9ad3 ae3d
000002c0: d3c2 c9bc 0260 e23c 8af9 873d 6453 543d
000002d0: 2352 863c 3dcd af3c 410f b53d dc47 123c
000002e0: c818 0bbd f62d 05be caf4 2a3a 3645 1f3d
000002f0: f7c6 bebd 7da0 53bc 24a3 463d 50e8 4e3e
00000300: 10b0 74bc 40ff 813d fc2f d23c c444 2fbc
00000310: c3ad d03d 0761 cb3d ad84 a2bd 8349 2fbe
00000320: 5065 843d 8b4b 953d 73ab 52bd 7f88 a83d
00000330: cdca e73d e7eb 983c b869 03be 979a 9a3d
00000340: 8f0d 85bd cacb 90bc d342 003e a47f 163e
00000350: 364a 7e3d bfa7 9e3b 0500 8b3d 2449 e03c
00000360: 49c0 60bd 8d7f 4a3e ae5e 3bbe 4d93 5abd
00000370: dbcd f4bc 8bd0 8abd b9b0 e6bb bba3 593d
00000380: e1c6 b93d 1d52 573d 4365 45bd b032 49be
00000390: 0b7b 24bd 0a0a 273d 1397 d6bd 696e d5bd
000003a0: 99d8 163d 943b a73d f68d c43c 2e33 1e3d
000003b0: d96c dcbd 579e f23d 2976 f03d 8f1a 263e
000003c0: d443 1e3d b941 08bc ed23 94bd 5d61 843d
000003d0: 1054 db3d f3d1 7bbd add2 ff3c ba82 8bbc
000003e0: cdec 5dbd eefc 38bd b709 bf3d 4d91 523d
000003f0: 6905 2f3d 7c74 683d 117a 90bc 7e7b c03d
0.0775781 0.017592765 0.048445936 -0.059349373 0.03504251 0.022342535 0.11517645 -0.13064775
-0.21024352 0.08597507 0.13446748 0.02095619 0.048645843 0.012162825 0.03264151 -0.0017050673
0.0075386837 0.051573824 -0.06419375 -0.017899297 -0.008257617 0.017070755 0.05469454 0.08589987
-0.114209525 -0.016648473 -0.052863747 0.07193883 0.06718548 0.03713646 0.083256096 0.038376376
-0.06550122 0.02377798 0.11267976 0.17209719 0.024689415 0.11231263 0.12440277 -0.11279303
-0.060525782 0.04322118 0.032834202 -0.0038926206 0.06510203 -0.0050345617 0.050043017 -0.0049528065
-0.16417575 0.10335207 -0.124789245 0.10027616 0.05860021 -0.058997747 -0.05796455 0.084642984
0.100156344 -0.046859775 0.044331085 0.049919024 0.0054381685 0.006992517 0.042523813 -0.03932565
0.09180833 -0.024706207 0.10200525 0.0053991056 0.018644568 -0.10631098 0.04231847 0.03038304
0.054294884 -0.0500499 0.06646128 0.03962965 0.10001919 0.062941186 0.100912094 0.01104329
-0.036691103 0.10271742 0.042072956 0.090530135 0.081191495 -0.041252673 -0.056081627 -0.1345398
0.07550871 0.060462955 0.09938959 -0.042613663 0.11599528 0.06922553 0.03299568 -0.11327433
-0.07594894 -0.033577714 0.08207212 0.09944104 -0.099928 -0.023531904 -0.048638962 0.1294284
0.242377 0.00058582914 -0.0312515 5.6679728e-05 -0.15935476 0.11204455 -0.043318097 0.101826176
-0.035589997 0.05165674 0.051120285 -0.027404167 -0.02183313 0.14211482 -0.040105592 0.086746156
0.0664194 -0.08503257 -0.09079575 -0.028699398 -0.07837917 -0.061860707 0.10065963 0.008227308
-0.13333099 -0.061721176 0.07372229 0.05551725 0.027270487 0.005511873 -0.0037321316 0.056141805
-0.030532228 0.05052089 0.17923258 0.11951459 -0.09306681 0.024449358 0.058905803 0.086261004
-0.047387432 -0.06325361 0.039847158 -0.027005149 0.023985846 -0.03249979 -0.07039416 0.061434735
-0.054381475 -0.004608542 -0.056088693 0.04522394 0.21944991 0.118919194 -0.14484973 -0.074930474
0.13587266 0.03335313 0.0036314558 -0.0898325 0.27686566 0.0877829 0.10827709 -0.22088206
-0.022351013 0.03309657 0.080326885 -0.114543125 0.022215087 -0.0136578055 0.2464713 0.085364535
-0.024629032 0.02763367 0.06639393 0.05183734 0.016396588 0.02146017 0.088408 0.008928265
-0.03395918 -0.13005814 0.0006521462 0.038884364 -0.09315293 -0.012916681 0.048495427 0.20205808
-0.014934555 0.06347513 0.025657646 -0.010697547 0.101893924 0.09930616 -0.07935462 -0.17117886
0.06464636 0.07289799 -0.051433038 0.082291596 0.11317978 0.018667175 -0.12833297 0.07549017
-0.06496727 -0.0176753 0.12525491 0.14697129 0.06208249 0.0048417742 0.06787113 0.027378626
-0.054870877 0.1977522 -0.18297836 -0.053363133 -0.029883316 -0.06778058 -0.00704011 0.05313466
0.09071136 0.052568544 -0.048192274 -0.19648242 -0.040156405 0.04078106 -0.10478034 -0.1042145
0.036827657 0.081656605 0.023993474 0.038623028 -0.107629485 0.11846607 0.11741287 0.16221069
0.038638905 -0.008316451 -0.07233415 0.06463883 0.10709393 -0.06147952 0.031228388 -0.017030109
-0.05418091 -0.045163088 0.09328025 0.0514081 0.04272977 0.056751713 -0.01763633 0.09398554

value_net.value_linear_layer_0.bias f4 [64]
00000000: a9a2 1fbc 0835 773a 9559 833c 7d69 8fbc
00000010: 0f14 693c 7ad6 b03c 7afd 5dbc c9f1 eb3a
00000020: 8928 04bd 1a20 813d b072 9dbc 0f02 9a3b
00000030: 9f7e 793d 101d 043d 6819 a23b cd46 cebc
00000040: 9eb6 2a3c 5eca 06bc f25d 033d 3a54 bcba
00000050: bb61 8cbc f46a 8a3c f35a 043c f1c6 693c
00000060: 6d36 013d f258 23bc f701 a63d 8c42 f83c
00000070: cc1b ebbc f79f 123d 7b9c f23b 1f9d 22bd
00000080: b8de 913c a26e dc3c 1046 833d fa45 fe3b
00000090: 9fce 233c 6aae 883d f00b 74bc 50c5 e13c
000000a0: 28bb 2ebd e175 6fba 8b25 ef3b 99f7 333c
000000b0: 8806 9cbc 80b0 6e3c 1d78 8c3c c28c da3c
000000c0: bef9 d8bb b1cc 293d d09e eb3c b875 92bb
000000d0: 2aa7 7e3c 1024 b3bb 3cd7 dd3c e7d3 363c
000000e0: 7999 053d 6079 ea3c 9328 2ebb fa41 133c
000000f0: 5c48 a33c ab1e 5b3c f6d1 69bc 7cc0 ef3b
-0.009743371 0.00094302045 0.016033927 -0.017506355 0.014225974 0.021586645 -0.013549203 0.0018001135
-0.03226522 0.06304951 -0.019219726 0.0046999524 0.06091177 0.03225428 0.0049468763 -0.025180245
0.010419516 -0.008226959 0.032072015 -0.0014368363 -0.017136445 0.016896702 0.008078325 0.014268623
0.031546045 -0.009969937 0.081058435 0.03030517 -0.028699778 0.035797086 0.007403908 -0.039700624
0.017806396 0.026908223 0.06409848 0.0077598067 0.009997993 0.06673892 -0.014895424 0.027559906
-0.042658955 -0.0009134692 0.0072981766 0.010984325 -0.019046083 0.014568448 0.017147118 0.026678447
-0.0066215685 0.041454975 0.028762251 -0.0044695996 0.015542785 -0.0054669455 0.02708017 0.01115892
0.032617066 0.02862233 -0.0026574477 0.008987898 0.019931965 0.013374011 -0.01427125 0.007316647
