tutorials/AgileRL/models/DQN/lesson4_trained_agent.pt (torch, 753612 bytes, 44 tensors)

sample_input f4 [1, 2, 6, 7]
0	0x00000000	0.0
1	0x00000000	0.0
2	0x00000000	0.0
3	0x00000000	0.0
4	0x00000000	0.0
5	0x00000000	0.0
6	0x00000000	0.0
7	0x00000000	0.0
8	0x00000000	0.0
9	0x00000000	0.0
10	0x00000000	0.0
11	0x00000000	0.0
12	0x00000000	0.0
13	0x00000000	0.0
14	0x00000000	0.0
15	0x00000000	0.0
16	0x00000000	0.0
17	0x00000000	0.0
18	0x00000000	0.0
19	0x00000000	0.0
20	0x00000000	0.0
21	0x00000000	0.0
22	0x00000000	0.0
23	0x00000000	0.0
24	0x00000000	0.0
25	0x00000000	0.0
26	0x00000000	0.0
27	0x00000000	0.0
28	0x00000000	0.0
29	0x00000000	0.0
30	0x00000000	0.0
31	0x00000000	0.0
32	0x00000000	0.0
33	0x00000000	0.0
34	0x00000000	0.0
35	0x00000000	0.0
36	0x00000000	0.0
37	0x00000000	0.0
38	0x00000000	0.0
39	0x00000000	0.0
40	0x00000000	0.0
41	0x00000000	0.0
42	0x00000000	0.0
43	0x00000000	0.0
44	0x00000000	0.0
45	0x00000000	0.0
46	0x00000000	0.0
47	0x00000000	0.0
48	0x00000000	0.0
49	0x00000000	0.0
50	0x00000000	0.0
51	0x00000000	0.0
52	0x00000000	0.0
53	0x00000000	0.0
54	0x00000000	0.0
55	0x00000000	0.0
56	0x00000000	0.0
57	0x00000000	0.0
58	0x00000000	0.0
59	0x00000000	0.0
60	0x00000000	0.0
61	0x00000000	0.0
62	0x00000000	0.0
63	0x00000000	0.0
64	0x00000000	0.0
65	0x00000000	0.0
66	0x00000000	0.0
67	0x00000000	0.0
68	0x00000000	0.0
69	0x00000000	0.0
70	0x00000000	0.0
71	0x00000000	0.0
72	0x00000000	0.0
73	0x00000000	0.0
74	0x00000000	0.0
75	0x00000000	0.0
76	0x00000000	0.0
77	0x00000000	0.0
78	0x00000000	0.0
79	0x00000000	0.0
80	0x00000000	0.0
81	0x00000000	0.0
82	0x00000000	0.0
83	0x00000000	0.0

encoder.model.encoder_conv_layer_1.weight f4 [128, 2, 4, 4]
0	0x3e1028bf	0.14078043
1	0xbca38f47	-0.01996578
2	0xbe1b1ab0	-0.15146899
3	0x3dda8c64	0.10671309
4	0xbe1acd87	-0.15117465
5	0xbe171d8d	-0.14757366
6	0xbd407de0	-0.046995044
7	0xbc5b4f48	-0.013385601
8	0x3d9e159c	0.077189654
9	0x3e1a8b2c	0.15092152
10	0x3dd08ab4	0.101827055
11	0xbd75a676	-0.059973203
12	0x3d76f8a1	0.060295705
13	0x3e8ba420	0.27273655
14	0x3d869a34	0.06572381
15	0x3cb8ff28	0.022582605
16	0x3b4815cd	0.0030530572
17	0xbe4621c4	-0.19348818
18	0xbe19bd53	-0.15013628
19	0x3e178094	0.14795142
20	0xbdb8a7eb	-0.09016403
21	0xbd0d74a5	-0.03453507
22	0xbe87452f	-0.2641997
23	0x3e16d728	0.14730513
24	0x3cd1996c	0.025585853
25	0xbe2332a1	-0.15937282
26	0xbe6a4ee2	-0.22881654
27	0x3edc7f36	0.43065804
28	0xbd812b7f	-0.06307124
29	0xbe24d5b5	-0.16097148
30	0xbedbee67	-0.42955324
31	0x3d12b0e4	0.035813227
32	0x3c29f8d6	0.0103742685
33	0x3e82848a	0.25491744
34	0x3e449ff2	0.1920164
35	0x3e299b0d	0.16563053
36	0x3d207557	0.039174404
37	0xbdafc070	-0.085816264
38	0x3e346114	0.17615157
39	0xbdef219f	-0.116763346
40	0x3cc88282	0.024476293
41	0xbdcce7ef	-0.10005175
42	0xbd91ba3f	-0.07115602
43	0xbd2f034f	-0.042727765
44	0x3d4d291c	0.050088033
45	0xbcb2aac1	-0.021809937
46	0xbdcdbfba	-0.100463346
47	0xbe0aec1c	-0.13566631
48	0xbcda709e	-0.026665028
49	0x3deec81a	0.1165926
50	0xbe672e48	-0.22576249
51	0xbe542fa4	-0.20721298
52	0xbddac75a	-0.106825545
53	0x3dec94d1	0.11551822
54	0x3d39ea76	0.045389615
55	0x3e8692ac	0.26283777
56	0xbe17c79e	-0.14822242
57	0x3e054c68	0.13017428
58	0xbd80872d	-0.06275783
59	0x3dd03261	0.10165859
60	0x3bd4ba53	0.006491938
61	0xbdac51d3	-0.08414044
62	0x3e827d84	0.25486386
63	0xbd11f2e3	-0.035632025
64	0x3ea7424d	0.3266777
65	0xbd0a1a43	-0.03371645
66	0xbd5b3a35	-0.053522307
67	0x3e0cce5c	0.13750595
68	0x3dbe59b4	0.09294453
69	0x3e9d3917	0.3070762
70	0xbe14b4af	-0.1452205
71	0x3debb0a4	0.11508301
72	0xbdd8c552	-0.10584511
73	0x3d7a838c	0.06116061
74	0x3e151da4	0.14562088
75	0xbd7ef2e7	-0.06224337
76	0xbe6c178d	-0.23055859
77	0xbddc5e0a	-0.10760124
78	0xbdd4663b	-0.103710614
79	0x3e197b5e	0.14988467
80	0xbd94ca69	-0.07265169
81	0xbccdd895	-0.025127688
82	0xbe3eac63	-0.18620448
83	0xbd963707	-0.073347144
84	0xbe46aee9	-0.1940266
85	0xbdf3fe15	-0.11913697
86	0xbe5036bc	-0.2033338
87	0xbe4e403d	-0.20141692
88	0xbcf04df1	-0.02933404
89	0x3dce49ae	0.10072647
90	0xbe41f740	-0.18941975
91	0x3da8a550	0.08234656
92	0x3ea0b994	0.31391585
93	0x3e168acf	0.14701389
94	0x3e5ff867	0.21872102
95	0xbe64f748	-0.22359955
96	0xbe8233c9	-0.25430134
97	0xbe557d2a	-0.20848528
98	0x3e2f8b6d	0.1714303
99	0xbc9aa6c7	-0.018878354
100	0xbe0c29c2	-0.13687804
101	0xbe866faf	-0.26257083
102	0xbdba4e94	-0.09097019
103	0x3e4ec26e	0.20191357
104	0x39a8b024	0.00032174692
105	0xbdd64273	-0.10461893
106	0xbea331e2	-0.31873995
107	0x3e3c11ee	0.18366215
108	0xbd14a147	-0.03628662
109	0xbe1254c8	-0.14290154
110	0xbde8f742	-0.11375286
111	0x3e4d4e14	0.20049316
112	0xbdfe6e04	-0.124233276
113	0xbe64599a	-0.22299805
114	0xbc846f1a	-0.016166259
115	0xbd7b5363	-0.06135882
116	0x3a298a12	0.00064674125
117	0xbe7a4c43	-0.24443154
118	0xbe595ada	-0.21226063
119	0xbe049004	-0.12945563
120	0xbe201205	-0.15631874
121	0x3e1251a6	0.14288959
122	0x3dea9649	0.11454446
123	0xbd986bd4	-0.074424416
124	0x3e578550	0.21046948
125	0xbd364411	-0.044498507
126	0xbd2674bb	-0.040638667
127	0xbe402ba1	-0.18766643
128	0x3de830a9	0.11337406
129	0x3b72b7e4	0.0037035877
130	0x3e26b0da	0.16278401
131	0xbd6f9858	-0.058494896
132	0x3dce9693	0.100873135
133	0xbe611b05	-0.21982963
134	0x3c02bcac	0.007979553
135	0xbc73464f	-0.014848306
136	0xbd976f82	-0.07394315
137	0xbba1c253	-0.0049364953
138	0xbe9655fa	-0.2936247
139	0x3e932069	0.28735664
140	0xbe486a3d	-0.19571777
141	0x3ddec222	0.10876872
142	0x3e094378	0.13404644
143	0xbddf4846	-0.10902457
144	0x3e944718	0.2896049
145	0xbd11614b	-0.035493176
146	0xbde8ef73	-0.11373796
147	0xbde96f1e	-0.11398147
148	0x3e7b69fa	0.24552146
149	0x3e898f55	0.26867166
150	0xbd09cf9a	-0.03364525
151	0x3e5559e5	0.20835073
152	0xbe582d4c	-0.2111103
153	0x3e2d3b62	0.16917184
154	0x3ec2c676	0.3804204
155	0x3e44774a	0.1918613
156	0xbdffff24	-0.12499836
157	0x3de20b43	0.11037304
158	0x3e11173b	0.14169018
159	0x3e42afb3	0.19012336
160	0xbe2931d0	-0.16522908
161	0x3da50ec9	0.08059461
162	0x3e6e1b99	0.23252715
163	0x3cda2d6f	0.026632993
164	0x3dbf2256	0.09332721
165	0x3d327a55	0.043573696
166	0x3d951553	0.07279458
167	0xbca84b87	-0.020543827
168	0xbcfd2b09	-0.03090431
169	0xbbd9f1ff	-0.0066511626
170	0x3e028e60	0.12749624
171	0x3e2a57c0	0.16635036
172	0x3d857efb	0.0651836
173	0x3cb6575d	0.022258455
174	0xbe033667	-0.12813722
175	0x3cce0f43	0.025153762
176	0xbbe5e11b	-0.00701536
177	0xbd84baba	-0.06480928
178	0xbe6c7f79	-0.23095502
179	0x3eb70ce9	0.35752037
180	0x3e3a2dbd	0.1818151
181	0x3e27a504	0.16371542
182	0xbe3910a7	-0.18072759
183	0xbda26290	-0.079289556
184	0x3d9845ef	0.07435214
185	0x3e0b4fe2	0.13604692
186	0xbe0bcbce	-0.13651964
187	0xbe33ba8f	-0.17551635
188	0xbe028235	-0.12744983
189	0x3de437f7	0.11143487
190	0xbd2aec59	-0.041729305
191	0x3e7c7119	0.24652518
192	0x3e538422	0.20655873
193	0xbe018577	-0.12648569
194	0xbd6926cf	-0.056921776
195	0x3e32d05c	0.17462295
196	0xbe7ba93e	-0.2457628
197	0xbd28b330	-0.04118651
198	0xbe113988	-0.14182103
199	0xbd4a7da0	-0.04943621
200	0x3e2f5add	0.17124505
201	0x3c1f0d76	0.009707799
202	0xbe5930d3	-0.21210031
203	0x3e5ec793	0.21755819
204	0xbd62ce4d	-0.055372525
205	0xbe8a9759	-0.27068594
206	0xbdb5081f	-0.088394396
207	0xbce58b69	-0.028020578
208	0xbe70d3d8	-0.23518312
209	0xbdb66a9a	-0.089070514
210	0x3da3aa95	0.0799152
211	0x3dcfd9ec	0.10148987
212	0xbd8d4e68	-0.068997204
213	0x3e17560c	0.14778918
214	0xbce5bdf3	-0.028044676
215	0xbd875fdc	-0.066100806
216	0x3d6f07e1	0.058357123
217	0x3e55bc11	0.20872523
218	0x3da8465c	0.08216545
219	0xbda534b1	-0.08066691
220	0x3e2f84ad	0.17140456
221	0x3e2daff7	0.16961657
222	0x3e070020	0.13183641
223	0x3e8fe9f2	0.28108174
224	0xbc7812ca	-0.015141198
225	0x3d0318c4	0.03200604
226	0x3db06e15	0.086147465
227	0x3e0562bc	0.13025945
228	0x3d5ad44e	0.053425126
229	0x3d1c161a	0.038107015
230	0x3dc30456	0.095223114
231	0xbdbdb529	-0.09263069
232	0x3e065572	0.13118532
233	0x3de480e6	0.11157398
234	0x3eb20b32	0.34774166
235	0xbe1214a0	-0.1426568
236	0xbe760826	-0.24026546
237	0x3c83c02f	0.016082851
238	0x3c9580e7	0.018249942
239	0x3e46d0b5	0.19415553
240	0x3d8920d9	0.06695718
241	0xbd986435	-0.07440988
242	0x3e458465	0.19288786
243	0x3e317173	0.17328434
244	0xbe0bb39a	-0.13642731
245	0x3dd6f65e	0.104962096
246	0x3e9b189a	0.30292207
247	0xbe00f387	-0.12592898
248	0xbe739ad7	-0.23789535
249	0x3cb47083	0.022026306
250	0x3de65f32	0.11248626
251	0x3e4f9852	0.2027295
252	0xbe872b0a	-0.26400024
253	0x3ea396ce	0.31950992
254	0xbd3ba758	-0.04581389
255	0xbdcd0193	-0.10010066

encoder.model.encoder_conv_layer_1.bias f4 [128]
0	0x3a8a017a	0.0010529005
1	0xbb29459a	-0.002582884
2	0xbb9fe86e	-0.0048800027
3	0x3b54edf0	0.0032490455
4	0x3a452bbd	0.0007521471
5	0xba7250b1	-0.00092435913
6	0x3a3e15c1	0.00072511664
7	0xba40f4f9	-0.00073607225
8	0x39f9ac8a	0.00047621533
9	0xb9c5203c	-0.00037598785
10	0x3a2f5b17	0.00066892937
11	0x3b10d973	0.0022102266
12	0xb8eb6a1f	-0.0001122544
13	0xbb84477f	-0.0040368433
14	0x3a2fd5fa	0.0006707605
15	0xbb12e78e	-0.002241585
16	0xba9b980c	-0.0011870875
17	0x3a4777be	0.00076090905
18	0xba15632a	-0.00056986755
19	0x39b0a386	0.0003369117
20	0xb9c8b7c0	-0.00038283877
21	0xbb2d628d	-0.0026456446
22	0x3b65a023	0.0035038076
23	0xbb9ae3ad	-0.004726848
24	0xbbac2762	-0.0052537182
25	0xbae8bc31	-0.0017756281
26	0x399e9435	0.0003024653
27	0x3a7a4800	0.0009547472
28	0x3ab7b183	0.0014014695
29	0xb9c6ce86	-0.00037919375
30	0x3b1b2acf	0.002367664
31	0xbb5f3d95	-0.0034063805
32	0xbb4ea17d	-0.003152936
33	0x3b0096b7	0.0019621083
34	0xbb9d02b1	-0.0047915806
35	0xbaa01176	-0.0012212235
36	0x39f389be	0.00046451198
37	0xbba829ea	-0.0051319497
38	0xba46a7df	-0.00075781153
39	0xbb692607	-0.0035575645
40	0x3b34fdba	0.0027617053
41	0xbb371a49	-0.002793925
42	0xb923e159	-0.0001562884
43	0x3a9de8f9	0.0012047581
44	0xba5f086c	-0.000850803
45	0x3962b3f8	0.00021620083
46	0x3b3603b5	0.0027773206
47	0xbbdbaddb	-0.006704075
48	0x3aa3e46e	0.001250399
49	0xbba9b9ff	-0.005179643
50	0x3b31e86a	0.0027146586
51	0xbb51d8ae	-0.003202002
52	0xbbb690df	-0.005571469
53	0x370235a7	7.761096e-06
54	0x39b839be	0.00035138236
55	0xbab2d337	-0.0013643269
56	0xb9a7aacc	-0.00031979976
57	0xb9577064	-0.00020545867
58	0xba1b1b50	-0.00059168506
59	0xba8a1194	-0.0010533803
60	0x36f438cb	7.2783782e-06
61	0x3b3001f9	0.0026856645
62	0x39e6ce3c	0.00044022675
63	0xbb3515f8	-0.0027631503
64	0xb9af164c	-0.00033395214
65	0x3a714af3	0.0009204589
66	0x388a1586	6.584362e-05
67	0x3a0ceb57	0.00053756445
68	0xba099121	-0.0005247761
69	0xbba00a44	-0.0048840363
70	0x3a9824fa	0.00116077
71	0x3a4065ff	0.00073394174
72	0xba8c10ef	-0.0010686199
73	0xb83c879b	-4.4948985e-05
74	0xbb6b8c88	-0.0035941917
75	0x3a11c034	0.00055599515
76	0xba265937	-0.00063456915
77	0x3a2f962b	0.0006698097
78	0xba0f5ee3	-0.00054691563
79	0xbb0a4580	-0.0021098554
80	0x3acdf5b6	0.0015713486
81	0xbb2901d2	-0.0025788439
82	0xbb34f8d9	-0.0027614145
83	0xba0b004a	-0.0005302472
84	0xbb5c7305	-0.0033637893
85	0xbacda009	-0.0015687953
86	0xba1b130f	-0.0005915621
87	0xba9f2784	-0.0012142514
88	0x3ab8496c	0.0014059967
89	0x39be451a	0.0003629111
90	0xb933c7eb	-0.00017145246
91	0xbb764c0f	-0.0037581956
92	0xbb2c6eed	-0.0026311234
93	0x3a0a2eb5	0.0005271242
94	0xb94091ce	-0.00018364863
95	0xbb148886	-0.0022664382
96	0x3a2d5818	0.0006612553
97	0x3b01993a	0.0019775168
98	0xbb31863d	-0.002708807
99	0x3a9d9a5c	0.0012024152
100	0x3a3b9e25	0.0007157049
101	0xb83a8a2e	-4.4474546e-05
102	0xba9752ce	-0.0011545063
103	0x3aba76c1	0.0014226065
104	0x3b0fbcef	0.0021932682
105	0xbbaa6b77	-0.005200799
106	0x3a11ead1	0.00055663014
107	0xb98043a6	-0.00024464465
108	0x3af7727a	0.0018878721
109	0x3940f544	0.00018401915
110	0x3a92456c	0.0011159605
111	0xba9e1904	-0.0012061899
112	0x3b8cc80b	0.004296308
113	0xbb5726a3	-0.0032829426
114	0xb9a79c28	-0.00031969068
115	0x3a03bb87	0.0005025197
116	0xba9c3282	-0.0011916908
117	0xba4a4e17	-0.0007717325
118	0x3b0d5b9a	0.0021569491
119	0xbbb42584	-0.0054976363
120	0xba05ccfa	-0.0005104091
121	0xb9f11868	-0.00045985286
122	0xbbd21698	-0.006411385
123	0xba8c39c4	-0.0010698368
124	0xba5029cc	-0.00079407985
125	0x3b5cdd9e	0.003370143
126	0x3ac81681	0.0015265496
127	0x3a8f5a12	0.0010936877

encoder.model.encoder_linear_output.weight f4 [32, 1536]
0	0xbab72add	-0.0013974566
1	0xbc8acede	-0.016944345
2	0xbd06a27b	-0.032869797
3	0x3c6cab51	0.014445142
4	0xbc55127a	-0.013004893
5	0x3ae644b1	0.0017568079
6	0xbcdf4d8b	-0.027258655
7	0xbc5a9d4c	-0.013343167
8	0xbcf7c81a	-0.030246783
9	0x3ba5dca3	0.0050617023
10	0xbc9c4eb5	-0.0190805
11	0xbd38b1fb	-0.04509161
12	0x3cdd7830	0.027034849
13	0x3d0927e5	0.033485312
14	0xbd1fa43c	-0.038974985
15	0xbd14da5f	-0.036341067
16	0x3d55ef41	0.052230123
17	0x3c5df453	0.013547021
18	0x3ce1cc2d	0.027563179
19	0xbb8cfc0a	-0.0043025063
20	0xba3e6000	-0.000726223
21	0xbccc71de	-0.02495664
22	0xbd4d4434	-0.05011387
23	0x3b30dbbb	0.0026986438
24	0xbd1ae63c	-0.037817225
25	0xbc174c00	-0.009234428
26	0x3c8ed5c6	0.01743592
27	0x3c3f94a6	0.011693155
28	0x3c00cf2d	0.007861895
29	0x3caa5310	0.02079156
30	0xbbb2a160	-0.0054513663
31	0xbcfdec9b	-0.030996611
32	0xbb0e40d7	-0.0021706128
33	0xbc7688a1	-0.015047223
34	0x3c6cf74a	0.014463255
35	0x3d470fe2	0.04859913
36	0xba6f2165	-0.00091221026
37	0xbcb4f9ae	-0.022091713
38	0x390547b1	0.00012710576
39	0x3cc4587b	0.023967972
40	0x39d40f23	0.0004044707
41	0xbc0508fc	-0.008119818
42	0x3d097573	0.033559274
43	0x3c0f6bfe	0.008753775
44	0xbc512db9	-0.012767249
45	0x3d2a5279	0.04158256
46	0x3be5500e	0.0069980687
47	0xbc2a05b2	-0.010377334
48	0x3aa7d66d	0.0012804993
49	0x3d26a644	0.040685907
50	0xbc6f447f	-0.014603733
51	0xbb7413cf	-0.0037243252
52	0x3b64219d	0.0034810074
53	0xbcfd0942	-0.030888204
54	0xbc4094d9	-0.011754238
55	0xbc694ecf	-0.014239981
56	0xbd28d01b	-0.04121409
57	0xbbfef06b	-0.007780125
58	0x3c7d9d4e	0.015479399
59	0xbd1c5c07	-0.0381737
60	0xbc3fd0cc	-0.011707496
61	0xbc97ba4e	-0.018521454
62	0x3aeae962	0.0017922337
63	0x3c09760d	0.008389962
64	0xbc24f655	-0.010068496
65	0x3cac6ec1	0.021048905
66	0xbb84211e	-0.004032268
67	0xbcdb5ea5	-0.026778528
68	0x3d15f217	0.036607828
69	0xbc3fc7bc	-0.011705335
70	0xbbf8dd79	-0.007594761
71	0xbca91d8a	-0.020643968
72	0xbcb045fb	-0.021517744
73	0xbcd7030a	-0.026246566
74	0xbd276424	-0.040866986
75	0x3c8864ba	0.016649593
76	0x3c9b94a9	0.018991785
77	0xbcaed674	-0.021342494
78	0xbcad450a	-0.021151084
79	0xbcbe177a	-0.023204554
80	0xbcafeb92	-0.021474633
81	0xbc256e4c	-0.010097098
82	0xbb1c78ba	-0.002387567
83	0xbb3c5ae7	-0.0028740705
84	0x3cc5273f	0.024066566
85	0xbbb81e23	-0.005618827
86	0xbcaa7109	-0.020805852
87	0xbb285391	-0.0025684575
88	0x3ce6d830	0.028179258
89	0xbc80db6c	-0.015729629
90	0xbd456440	-0.04819131
91	0xbbc0f60b	-0.0058887056
92	0x3a4d021c	0.0007820444
93	0xbbd07cac	-0.0063625183
94	0x3c450c9b	0.012026931
95	0xbc32f32f	-0.010922237
96	0xbc03d77c	-0.008046981
97	0x3d042384	0.032260433
98	0xbc225561	-0.009908051
99	0xbc176e70	-0.009242639
100	0xbb560e19	-0.0032662211
101	0xbc55d195	-0.0130504565
102	0xbc10d776	-0.008840432
103	0xbb5cd9fd	-0.0033699267
104	0x3d083274	0.03325124
105	0x3caa5e38	0.02079688
106	0xbb0fd127	-0.0021944733
107	0xbc951f8f	-0.018203525
108	0x3cf57c04	0.029966362
109	0xbb61d1df	-0.0034457368
110	0x3b3173a0	0.0027076975
111	0x3c03042f	0.007996603
112	0x3a1115cd	0.00055345596
113	0xbc5287cb	-0.012849758
114	0xbb2a4d3e	-0.0025985981
115	0x3c8d00f5	0.01721237
116	0x3c8a56f6	0.01688717
117	0x3cdc81c9	0.026917355
118	0xbcad9fc6	-0.02119435
119	0xbc904e04	-0.017615326
120	0xbc839010	-0.016059905
121	0x3c0039a2	0.007826241
122	0x3c401f04	0.011726145
123	0x3c679a51	0.014135913
124	0xbcfb3974	-0.030667044
125	0x3b50b4c7	0.0031846033
126	0x3af12818	0.001839879
127	0x3d6aebff	0.05735397
128	0x3b492b38	0.0030695926
129	0xbc6b61e5	-0.014366602
130	0x3c459ecc	0.012061786
131	0x3ce97b8e	0.028501298
132	0xbc75728a	-0.0149809215
133	0x3c2a04b6	0.0103771
134	0xbd095358	-0.03352675
135	0x3cc23b09	0.02370979
136	0x3ccfe432	0.025377367
137	0xbc29b136	-0.010357192
138	0x3b7a7479	0.0038216396
139	0xbd5f94b4	-0.054585174
140	0x3c1db21b	0.009624983
141	0x3d3cdea1	0.046110753
142	0xbcb9d7ec	-0.022685967
143	0xbcb5a2b8	-0.022172317
144	0xbd8b1e27	-0.067928605
145	0x3c4201d8	0.01184126
146	0x3aadfe6f	0.001327468
147	0x3ca89ace	0.02058163
148	0xbc91a6d7	-0.01777975
149	0xbb31dac7	-0.0027138458
150	0x3c701d7a	0.014655465
151	0x3c52ff78	0.012878291
152	0xbd4d110a	-0.050065078
153	0xbd56b2ed	-0.05241673
154	0x3c49510b	0.012287389
155	0xbb60e73f	-0.003431752
156	0x3c4c3362	0.0124634225
157	0xbc3184a8	-0.01083485
158	0x3c46cab2	0.012133287
159	0xbb71320c	-0.0036803512
160	0xbca1ff4e	-0.01977506
161	0x3c0f0c1d	0.008730915
162	0x3c5f599a	0.0136322025
163	0x3c9bb1f0	0.019005746
164	0x3cab20a5	0.02088959
165	0xbc8ccdf3	-0.017188048
166	0x3ccdc38b	0.025117656
167	0x3cabc92b	0.020969948
168	0x3c9f692b	0.019459328
169	0xbc875bce	-0.016523268
170	0xbd11b40b	-0.035572093
171	0x3c2ddea8	0.010612167
172	0xbc0781e0	-0.008270711
173	0x3ccd988e	0.025097158
174	0x3b6def60	0.0036306009
175	0xbcebadee	-0.02876946
176	0x3c2ce541	0.010552705
177	0x3cf1adea	0.029501874
178	0x3d0aae9e	0.033857934
179	0x3c86faa0	0.01647693
180	0xbba30b1c	-0.0049756896
181	0x3c06a7ca	0.008218715
182	0x3cde3aa8	0.027127579
183	0x3c29460c	0.010331642
184	0x3ce70426	0.02820022
185	0x3afdd391	0.001936542
186	0x3c6d9d7b	0.014502878
187	0xbb49eaa5	-0.0030810025
188	0xbd375da3	-0.044767033
189	0x3c1a6cc3	0.009425345
190	0x3d0c1205	0.034196872
191	0xbc8adc85	-0.016950855
192	0x3ce02c61	0.027364912
193	0xbc7a3ce7	-0.015273309
194	0xbcf2b365	-0.029626558
195	0x3c385262	0.01125011
196	0xbc4bc142	-0.012436213
197	0xbb78e000	-0.0037975311
198	0x3c225d6a	0.009909967
199	0xbc608bd1	-0.01370521
200	0x3d4c8deb	0.04994003
201	0xbc0bb2b5	-0.008526494
202	0x3c29474a	0.010331938
203	0x3b4024f6	0.0029318905
204	0x3ce6298a	0.02809598
205	0x3cd0f8af	0.025509207
206	0x3c54fb2f	0.01299934
207	0x3cb2fe29	0.021849709
208	0x3c330492	0.010926383
209	0xbcc81e69	-0.024428563
210	0xbc6995ca	-0.014256904
211	0xbd063ebf	-0.032774683
212	0xbd0727a6	-0.032996796
213	0xbc6ac9a2	-0.0143303
214	0xbd357731	-0.044303123
215	0xbbfe83c2	-0.0077671716
216	0x3c35aab2	0.01108806
217	0x3c50af8c	0.012737166
218	0xbc17250c	-0.009225141
219	0xbbdf0616	-0.0068061454
220	0x3ca6d861	0.02036685
221	0xbc304be8	-0.010760285
222	0xbcd27d68	-0.025694564
223	0x3b8098bb	0.003924457
224	0xbd6fbeb7	-0.05853149
225	0x3cd966fc	0.026538365
226	0x3c027aba	0.007963831
227	0xbcfc42ae	-0.030793514
228	0x3cb6144e	0.022226479
229	0x3cf6c779	0.030124413
230	0x3b79da16	0.0038124374
231	0x3ce468c2	0.027881984
232	0x3c105fcb	0.008811901
233	0xbc8c34a6	-0.017114948
234	0xbb24ab36	-0.0025126464
235	0xbcc317c8	-0.02381505
236	0xbd69bdbd	-0.057065714
237	0xbc00fb48	-0.00787241
238	0xbce02e5b	-0.027365854
239	0xbd05cdce	-0.032666974
240	0xbb296de8	-0.0025852863
241	0x3b1d0b3f	0.0023963002
242	0xbd422c57	-0.047405567
243	0xbb5fdfb6	-0.0034160442
244	0xbbdfe661	-0.006832883
245	0x3c22b6cb	0.009931277
246	0xbc895862	-0.016765777
247	0x3c4857fb	0.012228007
248	0xbc367ec2	-0.01113862
249	0xbca70d9f	-0.020392237
250	0xbd01b348	-0.031665117
251	0x3cbd1042	0.023079041
252	0xbc773a0f	-0.015089526
253	0x3a33776f	0.0006846105
254	0x3b8a8ad3	0.004227975
255	0x3b653289	0.0034972748

encoder.model.encoder_linear_output.bias f4 [32]
0	0x3be66f8e	0.0070323413
1	0x3a94dbf9	0.0011357061
2	0x3c678653	0.0141311465
3	0x3c03a72d	0.008035463
4	0xbc43de5a	-0.011954868
5	0xbc93b8d4	-0.018032469
6	0xbc8ed30a	-0.017434616
7	0xbbd4a8f3	-0.006489867
8	0x3c352275	0.0110555785
9	0xbc3c49b5	-0.0114921825
10	0x3c6eb288	0.014568932
11	0x3b5773f2	0.0032875505
12	0x3ba18cee	0.00493013
13	0x3bcf63a1	0.0063290154
14	0x3c27426b	0.010208706
15	0xbb2d3674	-0.0026430162
16	0x3c905351	0.017617853
17	0xbc267acf	-0.010161116
18	0x3bb3a82b	0.0054826937
19	0xbc8e3762	-0.017360393
20	0x3c41b4be	0.011822877
21	0x3c684404	0.014176372
22	0x3bea93d8	0.0071587376
23	0x3c555fd4	0.0130233355
24	0x3bed9c15	0.0072512724
25	0xbc0d3620	-0.008618861
26	0x3b961669	0.004580308
27	0x3c42b9cd	0.011885119
28	0xbca90aee	-0.020635094
29	0x3c44515a	0.011982286
30	0x3c3f4339	0.011673742
31	0xbab1c187	-0.0013561704

head_net.model.value_linear_layer_1.weight f4 [64, 32]
0	0xbd17e994	-0.03708799
1	0xbd67b6f6	-0.05657097
2	0xbecef2da	-0.40419656
3	0xbe2e0903	-0.16995625
4	0x3d14ccf5	0.036328275
5	0x3ea2f372	0.3182636
6	0x3e6dda34	0.23227769
7	0x3dfafcf0	0.12255275
8	0xbd4547d7	-0.048164215
9	0x3d91e96f	0.07124602
10	0x3e52c0c6	0.2058135
11	0x3e4f107c	0.20221132
12	0xbde1b04f	-0.11019956
13	0xbe820aac	-0.25398767
14	0xbe90ba56	-0.28267163
15	0xbe474243	-0.1945887
16	0xbd6d3039	-0.057907317
17	0xbcade71c	-0.021228366
18	0x3dc4d5fe	0.09611128
19	0x3eb24838	0.34820724
20	0x3ccf0705	0.025271902
21	0xbe317280	-0.17328835
22	0x3dc0c879	0.09413237
23	0x3e9b25e6	0.30302352
24	0x3c648d32	0.013949679
25	0xbe16b3b6	-0.14716992
26	0x3e0ce78e	0.13760206
27	0xbe35163e	-0.17684266
28	0xbe24274f	-0.1603062
29	0xbbbe74dd	-0.005812271
30	0xbe5a08f5	-0.2129248
31	0x3e97765b	0.29582486
32	0x3de412f3	0.11136427
33	0xbda40ce0	-0.08010268
34	0x3e0f0cbf	0.13969706
35	0xbc4eb6af	-0.012616797
36	0xbe2f2228	-0.17102873
37	0xbe36ddc6	-0.17858037
38	0xbe06742a	-0.1313025
39	0xbd83a78c	-0.064284414
40	0xbc380c21	-0.0112333605
41	0xbd0f8e82	-0.035048015
42	0xbc68d594	-0.014211077
43	0xbda565b4	-0.08076039
44	0x3e432ca7	0.19060002
45	0xbea67a99	-0.3251541
46	0xbe3af843	-0.18258767
47	0xbd3775b3	-0.04478998
48	0xbea7ac2c	-0.32748544
49	0x3ed9f719	0.42571333
50	0x3e5883c8	0.2114402
51	0xbe806ee0	-0.2508459
52	0xbe8ae7ef	-0.27130076
53	0xbbe67eed	-0.0070341737
54	0x3e675a08	0.22592938
55	0xbe58f35d	-0.21186586
56	0x3dda82b6	0.106694624
57	0xbe151904	-0.14560324
58	0xbe91cb59	-0.28475454
59	0xbe1827c2	-0.14858916
60	0xbe2b732a	-0.1674315
61	0xbda65291	-0.08121217
62	0xbe351f17	-0.17687641
63	0x3d8ef84b	0.06980952
64	0x3e327186	0.17426118
65	0x3df422ab	0.11920675
66	0xbd083b58	-0.03325972
67	0xbe5cf3b7	-0.21577345
68	0x3b5ce8d6	0.0033708117
69	0x3c044c19	0.008074784
70	0xbdf63811	-0.120224126
71	0x3e226793	0.15859823
72	0x3e85dfb6	0.2614724
73	0xbd484e7e	-0.04890298
74	0xbe6859b7	-0.22690473
75	0x3ddc1d6f	0.107478015
76	0xbde991cf	-0.11404764
77	0xbd880f51	-0.066435464
78	0x3d37e6b5	0.044897754
79	0xbea8728f	-0.328999
80	0xbc7b869f	-0.01535192
81	0x3e2382cf	0.15967868
82	0x3d8b26a6	0.06794481
83	0xbe0c56a8	-0.13704932
84	0xbe438b90	-0.19096208
85	0x3ec0b7d8	0.37640262
86	0xbd99e4aa	-0.07514317
87	0x3e075af3	0.13218288
88	0x3ea45cfa	0.32102185
89	0xbe783f2d	-0.2424285
90	0x3d889f25	0.066709794
91	0x3d081352	0.03322155
92	0x3e153f46	0.14574918
93	0x3dedd723	0.116133
94	0xbe5d110c	-0.21588534
95	0x3c2e8f1c	0.010654237
96	0x3ebc5021	0.36779884
97	0xbec490b7	-0.3839166
98	0xbea916a6	-0.33025092
99	0x3dc936d7	0.09824913
100	0x3bb109a5	0.005402761
101	0x3d498f05	0.04920866
102	0x3df01aad	0.11723838
103	0xbb8676ab	-0.004103502
104	0x3e8bd7d2	0.27313095
105	0xbd7fd266	-0.06245651
106	0xbe093131	-0.13397671
107	0xbde85266	-0.11343841
108	0xbe780572	-0.24220827
109	0x3d18d5b5	0.037313182
110	0x3d08eaa1	0.033426885
111	0x3ea659c6	0.32490367
112	0xbd6528f5	-0.055947263
113	0xbc247e5a	-0.01003989
114	0x3e51a98f	0.20474838
115	0xbd13bff4	-0.036071733
116	0xbe232423	-0.15931754
117	0x3de464c3	0.11152031
118	0x3d2786a8	0.040899903
119	0x3eafc044	0.34326375
120	0x3e1a4fb8	0.15069473
121	0x3eafb4e6	0.34317702
122	0x3dcbf4ab	0.09958776
123	0xbd8bfe4a	-0.06835611
124	0xbe10b580	-0.14131737
125	0x3e2d10cd	0.1690094
126	0x3d08f3e7	0.03343573
127	0xbc3335ae	-0.010938091
128	0xbe2d7200	-0.16938019
129	0x3e6eb3af	0.23310731
130	0x3c9a12b5	0.018807748
131	0xbe83f4d9	-0.2577274
132	0xbe060721	-0.13088657
133	0xbe127108	-0.1430093
134	0x3bfa6f15	0.0076426365
135	0xbe0e99b5	-0.13925822
136	0xbe7d23fe	-0.24720761
137	0x3e57306c	0.21014565
138	0xbd97500c	-0.073883146
139	0x3e428eae	0.1899974
140	0x3e55cf1b	0.20879786
141	0x3db89177	0.0901212
142	0xbd0644e0	-0.032780528
143	0x3e59f4fb	0.21284859
144	0xbeafb68b	-0.34318957
145	0xbdaeba92	-0.08531679
146	0xbe6e4627	-0.23268948
147	0x3d0ab722	0.033866055
148	0xbde8b109	-0.11361892
149	0x3e8e39da	0.27778512
150	0x3e178b23	0.1479917
151	0x3d89c1c7	0.06726413
152	0xbd5e6f03	-0.054305088
153	0xbcd439c6	-0.025906455
154	0x3e6ae0ee	0.22937366
155	0x3dcf10f0	0.101106524
156	0xbe17474a	-0.14773288
157	0xbeb610be	-0.35559648
158	0xbc2e072b	-0.010621826
159	0x3cf1e0e0	0.029526174
160	0xbe2e4a31	-0.1702049
161	0xbdf54cd3	-0.11977544
162	0xbef49b2e	-0.47774643
163	0xbe6802db	-0.2265734
164	0x3df1f061	0.11813427
165	0xbdc7c377	-0.09754079
166	0xbeb9c7c2	-0.36285216
167	0xbe126153	-0.14294939
168	0x3dda4e13	0.10659423
169	0x3d68bb10	0.05681902
170	0xbddd2fc8	-0.10800129
171	0x3e341581	0.17586328
172	0xbc89c41f	-0.01681715
173	0xbd69e588	-0.057103664
174	0x3cce69b3	0.025196886
175	0x3eabc7a4	0.3355075
176	0x3e8d7125	0.27625385
177	0xbcfd63bd	-0.030931348
178	0x3dd45fe0	0.10369849
179	0x3d491365	0.04909076
180	0x3d821982	0.063525215
181	0x3e07afe5	0.13250692
182	0xbe4c4c80	-0.19951057
183	0xbcf29966	-0.029614162
184	0x3d5d990f	0.054101046
185	0x3e736215	0.23767884
186	0xbe82a56a	-0.25516826
187	0xbdb23cb7	-0.08702987
188	0x3bb2c520	0.005455628
189	0x3d234823	0.039863717
190	0x3e24eda6	0.1610628
191	0x3e6f8278	0.23389614
192	0x3c986e6d	0.018607343
193	0xbe94bcc4	-0.29050267
194	0x3ddfb941	0.10924006
195	0xbe561885	-0.20907791
196	0xbd8c4550	-0.06849158
197	0x3e7468a3	0.2386804
198	0xbd7c09c2	-0.061532743
199	0x3ea264df	0.31717584
200	0xbdc56cb9	-0.09639878
201	0xbea0ce2a	-0.3140729
202	0xbcd4177c	-0.025890104
203	0xbe2ff405	-0.1718293
204	0xbcd973ca	-0.02654447
205	0x3e1c9ef3	0.1529501
206	0x3d202a8d	0.03910308
207	0x3dae8540	0.08521509
208	0x3eb18fcf	0.3468003
209	0xbe15c383	-0.14625363
210	0x3e8ae2bd	0.27126113
211	0x3d30e2f6	0.043185197
212	0xbd016b45	-0.03159644
213	0x3d36fa8b	0.04467253
214	0x3ec71551	0.3888345
215	0xbd8a18f0	-0.06743038
216	0xbd6c37be	-0.057670347
217	0xbd3c2f5d	-0.045943607
218	0x3d0d1201	0.034440998
219	0xbd38d282	-0.04512263
220	0x3d7f3bf5	0.06231304
221	0xbdee8168	-0.11645776
222	0xbe4d7b1b	-0.20066492
223	0x3d1486b8	0.03626129
224	0x3e172fc0	0.14764309
225	0x3e40479a	0.18777314
226	0xbd1d3046	-0.038376115
227	0x3c3eede1	0.011653394
228	0x3e86c4dd	0.2632207
229	0x3ba3c8aa	0.0049982863
230	0x3dc4acc8	0.09603268
231	0xbed1a184	-0.4094354
232	0xbdc32b38	-0.09529728
233	0xbe8b5dbe	-0.27219957
234	0xbe4b6656	-0.19863257
235	0x3dcdd576	0.1005048
236	0xbd0e6606	-0.034765266
237	0xbdc98675	-0.09840099
238	0x3d2b4735	0.041815955
239	0x3c11dd04	0.008902792
240	0xbddbf1d4	-0.107394844
241	0xbcfbb573	-0.03072617
242	0x3cdd3dc7	0.027006997
243	0xbe204b82	-0.15653804
244	0x3e0d6d46	0.13811216
245	0x3e542f6f	0.2072122
246	0x3e354c1e	0.17704818
247	0x3e6c5512	0.23079327
248	0xbeae2e49	-0.34019688
249	0x3e0224cc	0.1270935
250	0x3d983aa6	0.07433061
251	0xbd9c541c	-0.0763323
252	0xbe3a7a09	-0.18210615
253	0x3e5a8253	0.21338777
254	0xbe38f049	-0.18060412
255	0x3d7eada7	0.062177327

head_net.model.value_linear_layer_1.bias f4 [64]
0	0x3cd7b1df	0.026329933
1	0x3c9dd551	0.019266756
2	0x3bcbd7f7	0.0062208134
3	0x3bce4317	0.006294619
4	0x3c319ac9	0.010840126
5	0x3bc50eae	0.006013713
6	0x3b96a145	0.0045968615
7	0x3b7afd04	0.0038297782
8	0x3bb09175	0.0053884336
9	0x3b7fd68e	0.0039037797
10	0xbbc9c116	-0.006157051
11	0x3ba6269a	0.0050705196
12	0x3ba6ccf8	0.005090352
13	0x3c648d24	0.013949666
14	0x3bdcb374	0.0067352597
15	0x3c7f94d6	0.01559945
16	0x3c077b71	0.008269177
17	0x3bdaf56d	0.006682089
18	0xb80da3b2	-3.3769473e-05
19	0x3c5d17aa	0.0134944115
20	0x3b83e77a	0.004025397
21	0x3ce208a8	0.027592018
22	0x3bb59fb4	0.0055427197
23	0x3b58d7f4	0.0033087702
24	0xba68a58e	-0.0008874767
25	0x3b898489	0.0041967076
26	0x3a2a6aef	0.00065009197
27	0xbb9d6824	-0.0048036743
28	0x3b1d0afd	0.0023962848
29	0x3c7760ae	0.015098734
30	0x3bfae548	0.007656727
31	0x3b92b720	0.0044773966
32	0xbb86a0f9	-0.004108545
33	0x3c38a6f5	0.011270274
34	0x3cbb1884	0.022838838
35	0xbad8c42f	-0.001653796
36	0x3bc6c9c4	0.006066533
37	0x3c6286e1	0.013826103
38	0x3c927aca	0.017880816
39	0x3b9b622e	0.0047419285
40	0x3b4455da	0.0029958398
41	0x3bd7ceb1	0.006585919
42	0x3b5b4bdb	0.0033461961
43	0xbb92f605	-0.004484894
44	0x3b274aea	0.002552683
45	0x3c7d8304	0.015473131
46	0x3c052d60	0.008128494
47	0x3b9652eb	0.0045875213
48	0x3bb9776f	0.0056599895
49	0x3c49ad55	0.012309392
50	0x3c44b06c	0.012004953
51	0x3bfe2008	0.0077552833
52	0x3b146fa7	0.0022649558
53	0xba9b7a3d	-0.0011861991
54	0x3b2367ad	0.0024933622
55	0x3c6fb8fd	0.014631507
56	0x3c80d08a	0.01572444
57	0xba8a73d9	-0.001056309
58	0x3bba3573	0.005682641
59	0x3bf2db9b	0.007411433
60	0xbb8f88f8	-0.0043803416
61	0xba1e0ceb	-0.00060291466
62	0x3bbf81f1	0.0058443476
63	0x3c52e1ed	0.012871248

head_net.model.value_layer_norm_1.weight f4 [64]
0	0x3f78a471	0.9712592
1	0x3f74d51f	0.95637697
2	0x3f803d04	1.001862
3	0x3f8230ff	1.0171202
4	0x3f804d5a	1.0023606
5	0x3f8405cb	1.0314268
6	0x3f8262db	1.0186418
7	0x3f83660b	1.0265516
8	0x3f8011b0	1.0005398
9	0x3f7e1627	0.9925255
10	0x3f7e1a69	0.9925905
11	0x3f7504c1	0.9571038
12	0x3f803b5f	1.0018119
13	0x3f7bce2e	0.9836148
14	0x3f808f4f	1.0043734
15	0x3f79e0c8	0.97608614
16	0x3f7f67ac	0.99767566
17	0x3f82183a	1.0163643
18	0x3f7ce889	0.9879232
19	0x3f79ea66	0.9762329
20	0x3f7f82b5	0.9980882
21	0x3f7a5f8a	0.9780203
22	0x3f823f09	1.0175487
23	0x3f7d5614	0.9895947
24	0x3f800a8d	1.000322
25	0x3f7afb3e	0.98039615
26	0x3f82000c	1.0156264
27	0x3f80a3b1	1.0049955
28	0x3f817009	1.0112315
29	0x3f7a75f2	0.9783622
30	0x3f7ef343	0.9958994
31	0x3f7fec2d	0.9996975
32	0x3f785cc8	0.9701657
33	0x3f7dbcdd	0.9911631
34	0x3f7cc1a8	0.98732996
35	0x3f78f454	0.97247815
36	0x3f83546a	1.0260136
37	0x3f797dcf	0.97457594
38	0x3f7a8eeb	0.97874326
39	0x3f890bf5	1.0706774
40	0x3f7fc04f	0.99902815
41	0x3f80c005	1.00586
42	0x3f825c18	1.0184355
43	0x3f7adafe	0.97990406
44	0x3f7e88a2	0.99427235
45	0x3f83519b	1.0259279
46	0x3f714913	0.9425213
47	0x3f7f5ebb	0.9975392
48	0x3f7b4bbc	0.98162436
49	0x3f755ed2	0.9584781
50	0x3f769ca3	0.9633276
51	0x3f810f5c	1.0082812
52	0x3f7d9445	0.99054366
53	0x3f7f3b6f	0.99700063
54	0x3f83517f	1.0259246
55	0x3f7f4d8a	0.9972769
56	0x3f7cad1d	0.9870165
57	0x3f7dcb7c	0.9913862
58	0x3f8021c2	1.0010302
59	0x3f8033c0	1.0015793
60	0x3f79c74a	0.97569716
61	0x3f789495	0.9710172
62	0x3f8093b9	1.0045081
63	0x3f7b62d7	0.9819769

head_net.model.value_layer_norm_1.bias f4 [64]
0	0xbcfccb22	-0.03085858
1	0xbd46d70e	-0.048544936
2	0x39b7dfbd	0.00035071178
3	0xbc1f45d9	-0.009721243
4	0xbcaaddf4	-0.020857789
5	0xbbed3782	-0.007239283
6	0xb8e74778	-0.000110282504
7	0x3a1cc616	0.0005980445
8	0xbcd6b010	-0.026207
9	0xbb485773	-0.0030569702
10	0xbba7600e	-0.005107886
11	0xbd257e72	-0.04040379
12	0xbb8543fa	-0.0040669413
13	0xbcc3d635	-0.023905853
14	0xbb01e3b5	-0.0019819562
15	0xbcd95ee8	-0.026534513
16	0xbd192881	-0.037392143
17	0xbc342c21	-0.010996849
18	0xbc65e786	-0.01403225
19	0xbd00ef15	-0.031478006
20	0xbc179fa3	-0.009254369
21	0xbd07ef49	-0.033187184
22	0xbc14e665	-0.009088133
23	0xbc849603	-0.016184812
24	0xbc19693d	-0.00936347
25	0xbbbea7b5	-0.005818332
26	0xbc0b7c55	-0.00851353
27	0xbc5b4e18	-0.013385318
28	0xbc314fad	-0.010822219
29	0xbd0a1a9a	-0.033716775
30	0xbc895298	-0.016763017
31	0xbc923aa1	-0.017850222
32	0xbd0858d7	-0.03328785
33	0xbc93614f	-0.017990736
34	0xbd215544	-0.039387956
35	0xbcd18417	-0.02557568
36	0xbc63518f	-0.013874426
37	0xbd00bd08	-0.031430274
38	0xbd22e6d3	-0.039770912
39	0xbc2ca572	-0.010537492
40	0xbc977002	-0.018486027
41	0xbc81c69a	-0.01584177
42	0xbc74b14c	-0.014934849
43	0xbc53d810	-0.012929931
44	0xbcf42429	-0.029802399
45	0xbbb0dcab	-0.0053973994
46	0xbc7f134c	-0.015568566
47	0xbc2f577d	-0.010702011
48	0xbc3f0ff1	-0.011661516
49	0xbd265916	-0.040612303
50	0xbd0de13a	-0.03463862
51	0xbacef809	-0.0015790473
52	0xbc1a16dd	-0.009404865
53	0xbbaad050	-0.005212821
54	0xbb96dc37	-0.0046038884
55	0xbcf195d4	-0.029490389
56	0xbcb97352	-0.022637997
57	0xbc038aee	-0.008028729
58	0xbc16428e	-0.009171141
59	0x3a303689	0.00067219936
60	0xbcccf7e7	-0.025020553
61	0xbc455ee9	-0.012046554
62	0xbc93c6af	-0.018039076
63	0xbcf405fb	-0.029788008

head_net.model.value_linear_layer_2.weight f4 [64, 64]
0	0xbdf0ccad	-0.11757789
1	0x3d38d7ca	0.045127667
2	0x3e8dbd13	0.27683315
3	0xbd7bb240	-0.06144929
4	0x3d87d4c6	0.0663238
5	0xbe7ef5e0	-0.24898481
6	0xbdbed7c7	-0.093185
7	0x3e06cbd2	0.13163689
8	0x3e708abb	0.23490421
9	0xbb745da8	-0.0037287269
10	0x3e59308d	0.21209927
11	0x3d6b1929	0.05739704
12	0x3e06d007	0.13165294
13	0xbe99b35f	-0.30019662
14	0xbe473627	-0.19454251
15	0xbca8b0cc	-0.020592116
16	0xbdf2e8ea	-0.11860831
17	0xbe082087	-0.13293658
18	0x3dfa6cac	0.12227759
19	0xbd8ebfda	-0.069701865
20	0xbe24b0dd	-0.16083093
21	0xbdcdcf3f	-0.10049295
22	0xbe192e8c	-0.14959162
23	0xbd1a660e	-0.037694983
24	0x3de3640c	0.11103067
25	0x3d8d0f1d	0.06887648
26	0xbe5a6cb9	-0.21330537
27	0xbeca55ba	-0.3951853
28	0x3dd32059	0.10308904
29	0x3df04495	0.11731831
30	0x3e2c895c	0.16849273
31	0xbe75df44	-0.2401095
32	0x3d8b8867	0.06813126
33	0x3d7fe106	0.06247046
34	0x3d477a1a	0.04870043
35	0x3db2e78e	0.08735572
36	0x3ea39629	0.319505
37	0x3dc86221	0.097843416
38	0x3e9be8b7	0.30450985
39	0x3de6bda0	0.11266637
40	0x3e371d4f	0.17882274
41	0x3e37d300	0.17951584
42	0x3d6f4b59	0.058421466
43	0xbbde0220	-0.0067751557
44	0x3ecf98c9	0.40546253
45	0xbec56919	-0.38556746
46	0x3d26f5f8	0.040761918
47	0x3d9c301c	0.07626364
48	0xbe867ff6	-0.262695
49	0x3e9d1fea	0.3068841
50	0x3e14b38b	0.14521615
51	0x3e49db20	0.19712496
52	0x3db42da4	0.08797768
53	0x3d6b8ff8	0.057510346
54	0xbcbcd0a3	-0.023048704
55	0x3af54044	0.0018711169
56	0x3dcbe325	0.09955434
57	0x3dcaad80	0.09896374
58	0x3dc7a1e5	0.09747676
59	0xbcd90752	-0.026492748
60	0xbd759b23	-0.059962403
61	0xbe282e63	-0.16423945
62	0xbd4df4c0	-0.05028224
63	0x3d29b6f4	0.041434243
64	0x3e41dd62	0.18932107
65	0x3c3d0c07	0.011538512
66	0x3e1d44af	0.15358232
67	0xbb1ab25b	-0.0023604843
68	0x3d874fd1	0.06607021
69	0x3ea4f9b4	0.32221758
70	0x3e03239f	0.12806557
71	0x3e9dc170	0.30811644
72	0xbe541531	-0.20711209
73	0xbe464fd8	-0.19366395
74	0x3e9a08a8	0.3008473
75	0xbe0aa451	-0.13539244
76	0x3eb43890	0.35199404
77	0x3d0f0771	0.034919206
78	0x3d0e9979	0.03481433
79	0xbda79ef6	-0.08184616
80	0xbe5e4877	-0.2170733
81	0x3e6d82b6	0.23194394
82	0x3db23bf0	0.087028384
83	0xbd43fab1	-0.0478465
84	0xbd9869d2	-0.074420586
85	0xbdc15f2a	-0.09441979
86	0xbdb4aa8d	-0.088215925
87	0xbeaef13f	-0.3416843
88	0x3d217d8f	0.039426383
89	0x3e428b4e	0.18998453
90	0x3db143c3	0.08655503
91	0xbec7f5d5	-0.39054742
92	0x3d26995a	0.04067359
93	0xbddbc2a1	-0.10730482
94	0xbe8293e5	-0.2550346
95	0xbe9fcfad	-0.31213132
96	0x3ea951fc	0.33070362
97	0xbe0840b8	-0.13305938
98	0x3cbafe06	0.022826206
99	0xbe737a4a	-0.23777118
100	0xbe000945	-0.12503536
101	0x3e2e3758	0.170133
102	0x3d8b3df1	0.06798924
103	0xbd91626a	-0.07098849
104	0xbe0011ee	-0.1250684
105	0xbd0d78f7	-0.03453919
106	0xbd69b739	-0.0570595
107	0xbd12105e	-0.03566014
108	0x3cf70169	0.03015204
109	0x3e04f503	0.1298409
110	0x3da4443f	0.080208294
111	0x3cc67fa7	0.024230791
112	0x3e2638f1	0.16232659
113	0xbe252f96	-0.16131434
114	0xbd0285af	-0.03186577
115	0x3e013846	0.12619123
116	0xbeda6a5d	-0.42659274
117	0x3cfe9d8c	0.031080984
118	0x3d7452ee	0.0596494
119	0x3cc73973	0.024319386
120	0x3e62e399	0.22157134
121	0xbcb714d5	-0.0223488
122	0xbdf673b4	-0.12033787
123	0x3e2b219a	0.16712037
124	0xbdc2627e	-0.09491442
125	0xbd2bab5c	-0.041911468
126	0x3dec8402	0.11548616
127	0x3bd12315	0.006382356
128	0x3dba8977	0.091082506
129	0x3dcd637b	0.1002874
130	0xbdd4b292	-0.10385622
131	0x3dcc9b5d	0.09990571
132	0xbcc811c7	-0.02442254
133	0x3e531ac3	0.20615678
134	0xbe126e36	-0.14299855
135	0xbd94e2af	-0.07269799
136	0x3d9c0479	0.076180406
137	0xbe9fadad	-0.31187192
138	0x3e247bc1	0.16062833
139	0x3de9565c	0.11393425
140	0x3e225aa3	0.15854888
141	0xbe91da15	-0.28486696
142	0xbe8cf156	-0.27527875
143	0xbe65ce8a	-0.2244207
144	0xbcc9a2a0	-0.024613678
145	0xbdf93039	-0.12167401
146	0xbd4b6793	-0.049659323
147	0x3cf9b36c	0.030481063
148	0x3e63bd5d	0.22240205
149	0xbe76315f	-0.24042271
150	0x3d4301e5	0.04760923
151	0xbe8211f3	-0.2540432
152	0x3e8d1bfb	0.2756041
153	0xbddd5b61	-0.10808445
154	0x3c72c555	0.014817555
155	0x3e424a9d	0.18973775
156	0x3d38dedd	0.045134414
157	0x3ca89484	0.02057863
158	0x3eb8640f	0.3601384
159	0x3dcaa9ca	0.09895666
160	0xbdfd17f8	-0.12358087
161	0x3e20b958	0.15695703
162	0x3e58dbd8	0.21177614
163	0x3d91d560	0.07120776
164	0x3eba7abf	0.36421773
165	0x3d3a0feb	0.045425337
166	0x3db503cc	0.08838615
167	0xbe2b0ec3	-0.1670485
168	0xbb773378	-0.0037719887
169	0xbe357d36	-0.17723545
170	0x3c8f91e6	0.017525624
171	0x3e918687	0.2842295
172	0xbe070570	-0.13185668
173	0x3ddd068e	0.10792266
174	0x3d34fb69	0.044185076
175	0x3dd86340	0.105658054
176	0x3e7bd27a	0.24592009
177	0xbd1a02e5	-0.037600417
178	0xbbf0a88c	-0.007344311
179	0x3d9e3f3a	0.07726903
180	0x3ca96357	0.020677252
181	0xbd476366	-0.048678778
182	0xbd7639e1	-0.06011379
183	0xbc9f134e	-0.019418385
184	0x3ddf198d	0.10893545
185	0xbdc2a964	-0.09504965
186	0x3dd4bfd2	0.10388149
187	0xbe3d0dd5	-0.18462308
188	0xbe021c60	-0.12706137
189	0xbe16f19c	-0.14740604
190	0xbe574ff4	-0.21026593
191	0x3dbe52f5	0.092931665
192	0xbec1ba8d	-0.3783764
193	0x3d59ca0b	0.0531712
194	0x3cf52c2d	0.029928291
195	0xbc94e08d	-0.01817348
196	0x3e310aaf	0.17289232
197	0x3e17d311	0.14826609
198	0xbdf808c4	-0.12111047
199	0xbd99b799	-0.075057216
200	0xbe4001d7	-0.18750702
201	0x3e10a90e	0.14126989
202	0xbe11c83a	-0.14236537
203	0xbdfc7cbb	-0.12328478
204	0xbe0d09fe	-0.13773343
205	0xbc6ad655	-0.014333327
206	0xbdf87f69	-0.121336766
207	0xbe95db37	-0.2926881
208	0xbd2fc866	-0.042915724
209	0x3de69371	0.11258591
210	0x3e52094d	0.2051136
211	0xbea1a984	-0.31574643
212	0x3eda366b	0.42619643
213	0x3e6a8798	0.22903287
214	0x3d84b893	0.06480517
215	0xbe354898	-0.17703474
216	0x3e381449	0.17976488
217	0x3e7f1cad	0.24913283
218	0x3cc5cdc2	0.024145965
219	0xbe94e396	-0.29079884
220	0x3ca79dd6	0.020461004
221	0x3c26a104	0.010170225
222	0x3e1edfff	0.15515135
223	0x3e818314	0.25295317
224	0xbe230d78	-0.15923107
225	0x3df797dd	0.120895125
226	0xbdbe8eed	-0.09304605
227	0xbdab41d8	-0.08362168
228	0xbd9e1aee	-0.0771998
229	0x3db8e892	0.09028734
230	0xbc6c9587	-0.014439947
231	0x3e18dfeb	0.14929168
232	0x3e8e5d88	0.27805734
233	0xbd94f8f1	-0.07274044
234	0x3da7af8c	0.0818778
235	0x3ee3f7bc	0.44524944
236	0x3db87b0e	0.09007846
237	0x3c002de4	0.007823441
238	0xbd151a05	-0.036401767
239	0x3e3f5fd0	0.18688893
240	0x3e3621e0	0.1778636
241	0x3c15f960	0.009153694
242	0xbc2819e2	-0.010260077
243	0xbeb536f0	-0.35393476
244	0xbe592a83	-0.21207623
245	0x3e7df882	0.2480183
246	0x3e869f69	0.26293495
247	0xbc505e22	-0.0127177555
248	0xbcaf2829	-0.021381455
249	0x3ca565c4	0.020190127
250	0xbc7f02bd	-0.015564618
251	0x3e385c8d	0.18004055
252	0x3e820e44	0.2540151
253	0x3e51c6a9	0.20485939
254	0xbd05c7d0	-0.03266126
255	0xbbcf2c33	-0.0063224076

head_net.model.value_linear_layer_2.bias f4 [64]
0	0xbd2f32c0	-0.04277301
1	0x3c5693a8	0.013096727
2	0x3dcb9ffa	0.099426225
3	0xbc425624	-0.011861358
4	0x3cd6d8b1	0.026226373
5	0x3d6ed112	0.058304854
6	0x3d045970	0.032311857
7	0x3d0575a2	0.032582887
8	0x3d279141	0.04091001
9	0xbced8256	-0.028992813
10	0xbcc76ad9	-0.024342941
11	0xbbacc494	-0.0052724574
12	0xbc7ad990	-0.01531066
13	0x3bd857fd	0.006602286
14	0x3b54ac7e	0.0032451446
15	0x3c9cb678	0.019129977
16	0xbc71c9da	-0.014757598
17	0x3a5090b8	0.0007956135
18	0x3ce74b03	0.02823401
19	0x3d3a1c1f	0.045436975
20	0x3ce43913	0.027859246
21	0x3d995480	0.0748682
22	0x3da32e92	0.07967867
23	0x3d2b0c85	0.041759986
24	0x3d4e2e0c	0.050336882
25	0xbb0f1ee0	-0.0021838471
26	0x3d228263	0.039675128
27	0xbc14cb51	-0.0090816775
28	0x3cf19ada	0.029492784
29	0xbc48e078	-0.012260549
30	0x3bb020c3	0.0053749993
31	0xbd6a7af0	-0.05724615
32	0xbb7941b3	-0.0038033545
33	0x3cb22602	0.02174664
34	0x3cd76f2a	0.026298124
35	0xbc656a10	-0.014002338
36	0x3c2674b6	0.010159662
37	0x3c4d39a0	0.012525946
38	0x3c7cb0c8	0.015423007
39	0x3d06ca3a	0.032907702
40	0x3bc9b5ba	0.0061556967
41	0x3d6dd879	0.058067773
42	0xb9e78a04	-0.00044162583
43	0x3c57c325	0.013169085
44	0x3a73f34c	0.00093059684
45	0x3c90fe60	0.01769942
46	0x3c384198	0.0112461075
47	0x3c1ed2a3	0.009693774
48	0x3bea82ae	0.0071566915
49	0x3c2797f7	0.010229102
50	0x3c8dfafb	0.01733159
51	0x3c2a3de4	0.010390732
52	0xbd08567b	-0.0332856
53	0x3bd21ef4	0.0064123813
54	0x3d696bd9	0.056987617
55	0x3c2c5843	0.01051909
56	0xbccc193f	-0.024914382
57	0x3bf8b0c4	0.0075894315
58	0xbbecae0b	-0.007222896
59	0x3c8cc84b	0.01718535
60	0xbce0afff	-0.027427671
61	0x3d6d7648	0.05797413
62	0xbcc5f97f	-0.02416682
63	0x3c9b9a93	0.018994605

head_net.model.value_layer_norm_2.weight f4 [64]
0	0x3f8338b5	1.0251681
1	0x3f845a2f	1.0340022
2	0x3f860e78	1.0473166
3	0x3f83281a	1.0246613
4	0x3f8aaa2e	1.0833185
5	0x3f9877bc	1.191154
6	0x3f8df6d0	1.1090946
7	0x3f85a736	1.0441654
8	0x3f951b26	1.164891
9	0x3f8cba46	1.0994346
10	0x3f82cead	1.0219322
11	0x3f8d1074	1.1020646
12	0x3f822d26	1.0170028
13	0x3f8d2a60	1.1028557
14	0x3f8d5b31	1.1043454
15	0x3f8bac05	1.0911871
16	0x3f894674	1.0724626
17	0x3f88dfb1	1.0693265
18	0x3f7fe008	0.9995122
19	0x3f8c861c	1.0978427
20	0x3f7f3d35	0.9970277
21	0x3f90b1a4	1.1304212
22	0x3f86f927	1.0544785
23	0x3f8d9d51	1.1063634
24	0x3f835a2d	1.0261894
25	0x3f885276	1.0650165
26	0x3f8ac8cd	1.084253
27	0x3f8677e1	1.0505334
28	0x3f870fcc	1.0551696
29	0x3f85c7df	1.0451621
30	0x3f8038d2	1.001734
31	0x3f83f4d2	1.0309088
32	0x3f8076c9	1.003625
33	0x3f852fe9	1.0405246
34	0x3f888e68	1.0668459
35	0x3f833cd5	1.025294
36	0x3f8ac728	1.0842028
37	0x3f8069f6	1.0032337
38	0x3f8c2834	1.0949769
39	0x3f845f1d	1.0341526
40	0x3f83d443	1.0299152
41	0x3f8ed739	1.1159431
42	0x3f87d371	1.0611402
43	0x3f8b6eb6	1.0893161
44	0x3f84ba42	1.0369341
45	0x3f8f004c	1.1171966
46	0x3f8ccd4a	1.1000149
47	0x3f87d860	1.0612907
48	0x3f8532bf	1.0406111
49	0x3f87ccdd	1.0609394
50	0x3f8c8cb9	1.0980445
51	0x3f8b3406	1.0875251
52	0x3f8837f8	1.064208
53	0x3f8a7406	1.0816658
54	0x3f936892	1.1516287
55	0x3f84e799	1.0383178
56	0x3f8290b5	1.0200411
57	0x3f8db045	1.1069418
58	0x3f83fdf4	1.0311875
59	0x3f8b6332	1.0889647
60	0x3f863b12	1.0486777
61	0x3f8b8eee	1.0902994
62	0x3f81e0a7	1.0146683
63	0x3f84f9b2	1.0388701

head_net.model.value_layer_norm_2.bias f4 [64]
0	0x3bbeec16	0.0058264835
1	0x3cba47cd	0.022739315
2	0x3c8d2c7a	0.017233122
3	0x3ca820c4	0.020523436
4	0x3cf41992	0.02979735
5	0x3d803841	0.062607296
6	0x3d224efc	0.039626107
7	0x3d014b65	0.031566042
8	0x3d858d73	0.0652112
9	0x3c8978f8	0.016781315
10	0x3b8a6dd1	0.004224517
11	0x3c5b5ea8	0.013389267
12	0x3c208805	0.009798055
13	0x3d0250b3	0.031815242
14	0x3d03db41	0.03219152
15	0x3c87e647	0.016589297
16	0x3c459d03	0.01206136
17	0x3c971c51	0.01844612
18	0xbbe13ad2	-0.006873467
19	0x3ba0c158	0.004905861
20	0xbcb1204c	-0.021621846
21	0x3d8ade71	0.067807086
22	0x3b832760	0.0040024966
23	0x3d42f600	0.047597885
24	0x3bd653be	0.0065407446
25	0x3c9c5c15	0.019086877
26	0x3cd3e3be	0.025865432
27	0x3cc71b14	0.024304904
28	0x3c21ef95	0.009883781
29	0x3c9296ed	0.017894233
30	0xbb3fb21f	-0.0029250456
31	0x3c1ea4a2	0.009682806
32	0x3b5f8380	0.003410548
33	0x3cd1f543	0.025629645
34	0x3c4336b1	0.011914895
35	0x3b87502d	0.0041294307
36	0x3cbf1b21	0.023328366
37	0x3c1fc2f7	0.009751073
38	0x3cad6229	0.02116497
39	0xbb5f25b8	-0.0034049582
40	0x3bcb527b	0.006204901
41	0x3dae63b3	0.0851511
42	0x3aebacb9	0.0017980553
43	0x3c61e85e	0.013788311
44	0x3c71a5fc	0.014749046
45	0x3d0d5876	0.03450819
46	0x3d1ad781	0.037803177
47	0x3c547f3d	0.012969789
48	0x3cb6b5cf	0.02230349
49	0x3cc0c5e9	0.02353187
50	0x3b915d20	0.00443615
51	0x3c2534dd	0.010083404
52	0x3ca6f975	0.020382622
53	0x3ca5101d	0.020149285
54	0x3d8435cf	0.06455576
55	0x3c231297	0.009953163
56	0x3c9197dd	0.01777261
57	0x3bae8e60	0.005327031
58	0x3c8fead0	0.017568022
59	0x3ca4fbb2	0.020139549
60	0x3c659125	0.014011656
61	0x3d3834af	0.044972118
62	0x3b54aa85	0.003245027
63	0x3c9062c1	0.017625215

head_net.model.value_linear_layer_output.weight f4 [7, 64]
0	0xbce91ec3	-0.028457051
1	0xbd345cde	-0.044033878
2	0x3d16aeaf	0.036787685
3	0x3d2a2a17	0.041544046
4	0xbd316f35	-0.043318946
5	0xbd777a5d	-0.06041943
6	0x3d465019	0.04841623
7	0x3c830e80	0.015998125
8	0x3acbca78	0.0015548011
9	0xbc7fd155	-0.0156138735
10	0xbc90dfc4	-0.017684825
11	0xbcdac536	-0.026705366
12	0xbb09903a	-0.0020990507
13	0xbbe0f10b	-0.006864672
14	0xbc1555fd	-0.0091147395
15	0x3d55bfe6	0.05218496
16	0x3cc50a66	0.02405281
17	0xbcb1a6ae	-0.021685924
18	0xbbd6a2b0	-0.0065501556
19	0xbdb09c33	-0.08623543
20	0xbcc22662	-0.023699943
21	0x3d6faf14	0.058516577
22	0xbca97ae9	-0.020688491
23	0xbd1e912d	-0.03871267
24	0x38f02b66	0.000114521754
25	0x3d657ba1	0.056026105
26	0xbd19224b	-0.03738622
27	0xbcaa5631	-0.020793052
28	0x3d68867d	0.056768883
29	0xbd85fcb0	-0.06542337
30	0xbd177e3f	-0.036985632
31	0x3c831613	0.016001737
32	0xbc34dcbe	-0.011038957
33	0x3d04e513	0.032445025
34	0xbb76549a	-0.0037587048
35	0x3d63f6f0	0.05565542
36	0x3c526c05	0.012843137
37	0x3bbc1c40	0.0057406723
38	0x3c47ac98	0.012187146
39	0x3d3c0333	0.04590149
40	0x3baa76d6	0.0052021546
41	0x3d4846a8	0.048895508
42	0xbd6fbf94	-0.058532313
43	0x3abbc218	0.0014324812
44	0xbb850889	-0.0040598554
45	0xbc7753ce	-0.015095664
46	0x3b901b29	0.004397769
47	0x3d3d5cb5	0.04623099
48	0x3d8f3975	0.06993381
49	0xbc19c3c0	-0.009385049
50	0xbc7de8c3	-0.015497389
51	0xbd83b11e	-0.06430267
52	0xbd1770ef	-0.036972936
53	0x3dc69c79	0.096978135
54	0xbd2d81ce	-0.04236012
55	0xbd2819be	-0.041040175
56	0x3c8512a0	0.016244233
57	0x3cb79cf7	0.022413714
58	0xbc900cea	-0.017584283
59	0x3ae8f3e8	0.0017772885
60	0xbd2b5cdf	-0.041836616
61	0xbd93d6bd	-0.072186925
62	0x3b9bb293	0.0047515123
63	0x3ccf9024	0.025337286
64	0x3c1c0b60	0.009524196
65	0xbc6dfd02	-0.014525654
66	0x3cbe327a	0.023217428
67	0xbcd68f8a	-0.026191492
68	0xbdacc38d	-0.08435736
69	0x3d70e1da	0.05880914
70	0x3c626bcc	0.013819646
71	0xbc58c02f	-0.013229414
72	0xbdef03ba	-0.11670633
73	0x3c83b6ed	0.016078437
74	0xbd439de1	-0.047757987
75	0xbcdb3ea5	-0.02676327
76	0x3caf6126	0.021408629
77	0x3d923eba	0.071408704
78	0xbd63fb07	-0.05565932
79	0x3d90e798	0.07075423
80	0xbbf7126a	-0.007540037
81	0xbcb5dda4	-0.022200413
82	0xbd3e040f	-0.04639059
83	0x3bfc4d1b	0.0076996214
84	0xbd168fff	-0.03675842
85	0x3dc2faf2	0.0952052
86	0x3d866f62	0.06564213
87	0x3db33857	0.0875098
88	0x3ca64900	0.020298481
89	0xbd47b335	-0.04875489
90	0xbc1b8c75	-0.009493937
91	0x3c783713	0.0151498495
92	0x3d386431	0.045017425
93	0x3d4c8f96	0.04994162
94	0x3cc79e14	0.02436737
95	0x3d3118e1	0.043236617
96	0x3beb8615	0.0071876147
97	0x3c450423	0.012024912
98	0xbd389ff9	-0.045074437
99	0x3b960a05	0.004578831
100	0xbbee4f45	-0.0072726333
101	0x3b898991	0.0041973074
102	0x3ce522c7	0.027970685
103	0x3c93e1f4	0.018052079
104	0x3c3f6f65	0.011684273
105	0x3db1724c	0.086643785
106	0xbc9fafd2	-0.019493017
107	0xbd89ae15	-0.06722657
108	0xbc3a49de	-0.01137015
109	0xbdb884d0	-0.09009707
110	0xbd822fab	-0.06356748
111	0xbcd67c1d	-0.026182229
112	0x3c30d0fa	0.010792011
113	0x3cec3dfa	0.028838146
114	0xbd451d1f	-0.048123475
115	0xbbea7a64	-0.0071557034
116	0x3abc3778	0.0014359793
117	0x3c6a1de5	0.014289354
118	0xbd3a72c6	-0.045519613
119	0xbcd690f1	-0.02619216
120	0xbcdee52b	-0.027208885
121	0xbb2e56bb	-0.0026601988
122	0xbaf7f2fd	-0.0018917021
123	0x3d814c59	0.0631339
124	0xbb96920f	-0.0045950483
125	0x3cfbcb11	0.030736478
126	0xbc399a5d	-0.011328307
127	0x3b1726e6	0.0023063957
128	0xbc97df1d	-0.018539006
129	0xbd15d337	-0.036578383
130	0xbd9f9cc8	-0.077935755
131	0x3d0bf53b	0.034169417
132	0xbd7d2c7a	-0.061809994
133	0x3da69cde	0.08135389
134	0xbd52ba73	-0.051447343
135	0xbc4a1faa	-0.012336651
136	0x3da26f57	0.07931393
137	0xbd351f19	-0.04421911
138	0x3a8d7e13	0.0010795019
139	0xbd459272	-0.048235364
140	0x3c8b9f0b	0.017043611
141	0x3dbf8812	0.09352125
142	0x3d027a30	0.03185481
143	0xbdc13ce2	-0.094354406
144	0x3cb22d70	0.021750182
145	0x3d22f43a	0.039783694
146	0xbc3adb2e	-0.011404796
147	0xbcb58f03	-0.02216292
148	0xbcc4b858	-0.024013683
149	0xbd0b1047	-0.03395107
150	0x3cd5ca22	0.026097361
151	0x3d9edac8	0.07756573
152	0xbc1655ee	-0.009175761
153	0x3b238c99	0.002495563
154	0x3d1fc71e	0.039008252
155	0x3d77b08c	0.060471103
156	0x3bdb3d9d	0.0066906945
157	0x3c6bc23b	0.01438957
158	0xbce84b26	-0.028356146
159	0xbce1e589	-0.027575271
160	0xbb52a6e1	-0.0032142925
161	0x3bdb1474	0.006685788
162	0xbcff710c	-0.031181835
163	0xbc5729ce	-0.013132526
164	0x3d0ab5fb	0.033864956
165	0xbbb006b3	-0.0053718924
166	0x3c7c0eb6	0.015384367
167	0xbb7bc8a8	-0.003841916
168	0x3c68cc3b	0.014208849
169	0xbc2de819	-0.010614418
170	0xbc0c59bc	-0.008566316
171	0xbc4565f5	-0.012048234
172	0xbd45b398	-0.048266977
173	0x3d6f0495	0.05835398
174	0xbd9de390	-0.0770942
175	0x3c2ce453	0.010552484
176	0xbb222c86	-0.0024745776
177	0xbd33b3c3	-0.043872606
178	0x3dc5e581	0.09662915
179	0xbdb42c59	-0.08797521
180	0x3dbcecdd	0.092248656
181	0x3d82ba05	0.06383137
182	0x3da764ee	0.08173548
183	0x3b08eacb	0.00208919
184	0x3c91233c	0.017716996
185	0x3d27c801	0.040962223
186	0x3d0c3f96	0.034240328
187	0x3cb80898	0.022465035
188	0x3c2ba25c	0.010475721
189	0xbcd9b4e6	-0.026575517
190	0xbcdf65c0	-0.027270198
191	0xbd155bef	-0.036464628
192	0xbcb265e5	-0.021777103
193	0xbccdff75	-0.025146225
194	0x3d14b883	0.036308777
195	0x3be79b56	0.007068078
196	0xbc101e0f	-0.008796229
197	0x3e0f0708	0.13967526
198	0x3d02b677	0.031912293
199	0x3cce4a20	0.02518183
200	0x3ca6ef89	0.020377891
201	0x3d546d3c	0.051861987
202	0xbb8614ca	-0.0040918337
203	0x3dcdc7c7	0.1004787
204	0x3d732d83	0.059369575
205	0xbcf8d102	-0.0303731
206	0xbc8bc7a3	-0.017062968
207	0x3d4b0abd	0.049570788
208	0xbd28da91	-0.041224066
209	0x3d992eb6	0.074796125
210	0x3d399a75	0.045313317
211	0xbd2d8eda	-0.042372562
212	0xbcb54220	-0.022126257
213	0xbd7298e0	-0.059227824
214	0x3c55771e	0.013028888
215	0x3cc83461	0.024439039
216	0xba7eea6a	-0.00097242615
217	0xbcf6305c	-0.030052356
218	0xbd73d312	-0.059527464
219	0x3cd98424	0.026552267
220	0xbc4883a5	-0.012238418
221	0x3c197289	0.009365686
222	0xba95ef08	-0.0011439035
223	0xbc5f865d	-0.013642875
224	0xbc9c74aa	-0.019098599
225	0x3ceb76df	0.028743206
226	0x3d2a2c12	0.041545935
227	0x3abf8aa0	0.0014613457
228	0xbdb60839	-0.08888287
229	0xbc55af78	-0.013042323
230	0x3d3a0b38	0.045420855
231	0x3d2c8a4f	0.04212409
232	0x3cb94fd7	0.022621078
233	0xbc8873d1	-0.016656788
234	0xbd1a3d87	-0.037656333
235	0xbd7f9abc	-0.062403426
236	0x3d0c6872	0.034279294
237	0x3c6d88ab	0.014497916
238	0xbc2b1c98	-0.010443829
239	0x3ca98529	0.020693379
240	0x3ca078a6	0.01958878
241	0xbd8f7aed	-0.07005868
242	0x3c17d352	0.009266691
243	0xbd4984fb	-0.049199086
244	0x3a0bf8fe	0.0005339532
245	0xbb521952	-0.003205855
246	0xbd5259b8	-0.051355094
247	0xbd41add2	-0.04728491
248	0x3bbeb1b7	0.005819525
249	0x3dbb04de	0.09131788
250	0x3d44b679	0.048025582
251	0xbd3cd955	-0.0461057
252	0xbd0825e2	-0.033239253
253	0x3d5007dc	0.050788745
254	0xbc797bfd	-0.015227315
255	0xbd139e0c	-0.036039397

head_net.model.value_linear_layer_output.bias f4 [7]
0	0xb8c9f9e6	-9.630974e-05
1	0xbb0b45b1	-0.0021251256
2	0x3b92b9fc	0.0044777375
3	0x3bc6d6b1	0.0060680737
4	0xbb300afb	-0.0026862014
5	0x3a652023	0.00087404455
6	0xba42ffdd	-0.00074386393
